cyclicity_nnconv.pt (torch, 78919 bytes, 24 tensors)

conv1.bias f4 [32]
00000000: 8572 c6bd 8866 d63e 1607 cebe 572c eabe
00000010: d058 afbe c793 56bd e7dc 6dbe 712d 023f
00000020: 3b97 123e 874f c1bd 9eff 593c b1d3 0ebe
00000030: 44e3 b2bd c4c8 41bf 5532 4bbc 72d9 013c
00000040: fead 303d a634 69be 2815 37bc 1fc6 293e
00000050: dfd2 6f3d 3bda 00be 7e6d ac3d 399b b63e
00000060: 8659 e1bd 2a23 03be f6b2 34bd 541b 453d
00000070: 49df 133d 3443 2e3e f8df 873d 5efd 90be
-0.096898116 0.418751 -0.4023978 -0.45736954 -0.34247446 -0.052387025 -0.23228799 0.5085059
0.14315502 -0.09438997 0.013305573 -0.13947941 -0.08734754 -0.7569697 -0.012402137 0.007925378
0.043134682 -0.2277399 -0.011174478 0.16579483 0.05855071 -0.12583248 0.084193215 0.356653
-0.11003403 -0.12806383 -0.044115983 0.048121765 0.036101613 0.17017823 0.066345155 -0.28318304

conv1.nn.weight f4 [32, 2]
00000000: 272a 7dbe 1e2f 723e 2580 2abf e81b 423d
00000010: 9fb1 8ebd 4fa9 0d3f 4874 26be 5cbb c23e
00000020: 2cb1 13bf 1546 483e 8ffb 5fbe 898d df3c
00000030: e1e5 a3be 06e5 8a3e f7ca b13e 25cf cebe
00000040: 0601 1abf e9c2 a83c f817 cd3e 2bde 04bd
00000050: 53c4 0ebe 5467 81be 7d7f f43d b0ec a4be
00000060: 6046 8b3d 1e8f 94bd b4eb 3a3f bc64 7ebd
00000070: bd72 493e da18 863e b909 76bd 7d35 ecbd
00000080: 612e aabc 5118 6fbe c289 8cbe f911 7fbe
00000090: 70cb 283e 3d9b 9e3e 7df2 9a3d ffae a13d
000000a0: f81d 09bf 6dfb 78bd 3e41 64bd b96b 68be
000000b0: 6ad8 d8be dfcc ea3c 0612 23be 7a0c acbe
000000c0: 6309 d2bd 5c77 a83d 5880 e0bd 65e7 0dbe
000000d0: 1dc9 843e 411a 4e3e 30ad eabe 2e7f b8bd
000000e0: 3c6a 08be 57fc 38be 91cd a4be f7a6 053e
000000f0: 594e 0abd 0d87 ebbe 52dd 54be 7fa1 4bbe
-0.24723111 0.23650786 -0.66601783 0.047389895 -0.06967472 0.5533647 -0.16255295 0.3803357
-0.5769222 0.19557984 -0.21873306 0.027289169 -0.3201132 0.27127856 0.34725162 -0.40392414
-0.6015781 0.020600753 0.4005735 -0.03243844 -0.13942079 -0.25274146 0.11938379 -0.32211828
0.06800532 -0.0725386 0.73015904 -0.062107787 0.19672675 0.26190835 -0.060067866 -0.115336396
-0.020774068 -0.2334912 -0.2744885 -0.249092 0.16483855 0.30977812 0.07565782 0.07894706
-0.53561354 -0.060786653 -0.055726282 -0.22697343 -0.4235261 0.028662143 -0.15924844 -0.3360327
-0.102556966 0.08225891 -0.1096198 -0.13857801 0.25934687 0.20127203 -0.45835257 -0.090086326
-0.13321775 -0.1806501 -0.32188085 0.13051973 -0.033766124 -0.46001473 -0.20787552 -0.19885825

conv1.nn.bias f4 [32]
00000000: d280 cdbe 0cbf 26bd cb94 763d e708 6a3e
00000010: 25d8 893e 1385 6d3e cca6 493e 25b4 babe
00000020: 0e29 0fbf ed44 373c a0d2 113b de1a 9ebd
00000030: 2920 d9bd 6c3f 803d db77 81be 9ffa aebd
00000040: 6288 2cbd 21b6 81bd 3477 8dbe 09a9 b1bd
00000050: a56d ebbd 4400 88be dbdb 72be 9e45 0cbf
00000060: 54ff 233d 9ee7 43bd c53e 8c3e 2575 9ebe
00000070: a544 c1be 3dd2 25be 97a3 da3c 4cce ed3d
-0.40137345 -0.04070954 0.060200494 0.22854958 0.26922718 0.23195295 0.19692534 -0.36465564
-0.5592202 0.011185867 0.0022250786 -0.07719968 -0.10601837 0.06262097 -0.25286755 -0.08543896
-0.042122252 -0.063335665 -0.27630007 -0.08674819 -0.114955224 -0.26562703 -0.2371668 -0.5479373
0.04003842 -0.04782831 0.2739164 -0.3094875 -0.37747684 -0.16193481 0.026689334 0.11611614

conv1.lin.weight f4 [32, 1]
00000000: 068d 22be 930d 523f 9f11 30bf e580 66bf
00000010: 2bba 19bf 5fd0 85be 524d 51bd 0b57 6d3f
00000020: a96d 223f 43ba afbe 7a1b e4bd aca0 65be
00000030: b1a6 d53d b6f2 6abf 0000 4bbe 9f44 ca3d
00000040: 7b80 94be 2c31 623e c793 eebe 99af 97be
00000050: 8bb3 f73c 7199 fdbe 5029 13be 4aa0 283f
00000060: 0586 dcbd eef6 3fbe ce95 07bf 863b fbbd
00000070: 7ae4 0dbe a03a 0e3f 0747 8b3e be86 a9be
-0.15874109 0.8205196 -0.6877689 -0.9004043 -0.60049695 -0.26135537 -0.05109913 0.9271094
0.6344858 -0.34321794 -0.11138053 -0.22424573 0.104321845 -0.917766 -0.19824219 0.0987637
-0.29004273 0.2208907 -0.4659712 -0.29626158 0.03023698 -0.4953113 -0.14371228 0.6586958
-0.1076775 -0.1874654 -0.5296296 -0.122672126 -0.13856688 0.55558205 0.27202627 -0.33110613

conv2.bias f4 [32]
00000000: 0f22 86be 4ea7 2dbf 3325 a13e b12b 81bd
00000010: a838 f2be 0d05 93bd 66ed 4dbd e2a3 a9bc
00000020: 1f0a 203f 7830 babe a353 343e 5a8b 9abe
00000030: 8d93 84be bc96 02be 43de df3e 7ffc 16be
00000040: 2b07 20bd 6117 b4be dc1c 99be 762e 2d3f
00000050: c2ee 093e 205b b33d 7342 50bd 3d83 8d3e
00000060: 36d3 23bf ead8 48be b6a7 8b3e cdfa 0cbf
00000070: 5848 02be fb08 91bd 8d60 8abc 35a9 563f
-0.2619786 -0.6783341 0.31473693 -0.063071616 -0.4730885 -0.07178698 -0.05027523 -0.020708028
0.62515444 -0.36365104 0.1761003 -0.30184442 -0.25893822 -0.12752813 0.4372426 -0.14744757
-0.039069336 -0.35174087 -0.2990483 0.6764902 0.13469985 0.08757615 -0.05084462 0.2763919
-0.6399416 -0.19613996 0.2727639 -0.5507019 -0.1272291 -0.07081791 -0.016891742 0.8385194

conv2.nn.weight f4 [1024, 2]
00000000: 0e1f f63e 0a65 5b3e 8bf1 26bd 806c 02be
00000010: 7a40 923f 5f98 81bd f51f 923d 1be5 7a3d
00000020: 4440 00be b8d0 a93e fad7 60bd 93b3 1a3e
00000030: 8f37 9c3e 0840 b63d 7162 be3d 7cf6 f63c
00000040: 71c9 4e3e 2417 e4bd d659 8e3e b76a 94be
00000050: 6a1d 6ebd f782 e13e e7fc 123e cf20 843e
00000060: 7895 4ebe f688 f3be 2c10 ae3e 095d 0f3d
00000070: 4b90 9f3d 23f1 00bf 64d9 15bf 2ff2 8d3f
00000080: 0b19 5f3e 21d2 073c c7bd bc3e 178d d53e
00000090: 7915 aa3d 40d7 7fbe 43ac 963e 4e2e 00be
000000a0: 8069 a8be 67f8 233e 9771 c33c bcec 903e
000000b0: adf5 b6be 31b1 6abe 016c 1b3e 787e a0bd
000000c0: 9a64 5b3e 08a4 e03e a36f f53d 0071 18bf
000000d0: 885f c83d 3368 423e f7aa 77be 5bd4 81bc
000000e0: 0fd4 c1bb 4c97 b7bd 765d c8bd b3fe 1f3e
000000f0: c220 c93e 64b2 10be 9fe2 b03c 9b3b b5be
00000100: f6a0 a33f f3b6 4bbe 425b 4fbf 036f 253f
00000110: d064 c83f b4b0 f5be d48a c2be a049 edbd
00000120: 2b20 74bf c69c d63d b1d2 22be 947b 20be
00000130: 3448 7a3f 67b8 89be 344c c7bf 3d66 51bc
00000140: 2bc0 45bf 0d02 d23e 4600 91bd 5221 943e
00000150: 0b72 7e3e 23cd 10bf fb9f d83e b421 afbe
00000160: 0b4a 93bf 8ad9 553d 67cd 023f dd2f 62be
00000170: 8049 833f 5fe9 d7bd d56d d9bf 7d9d a53e
00000180: af43 a3be a0f0 87bd b6e3 06bf e18c 863e
00000190: 35dd 323f a024 c7be e1dc 1740 a06d 99be
000001a0: 7213 22be d791 7b3d 27a5 6cc0 439c 633e
000001b0: 0e22 db3e c6b2 113e d06c a8be 29a0 713e
000001c0: 484f 29be 5b69 77bd b173 85bf 11a7 44bd
000001d0: 9e19 6d3f 1cb0 ffbe f2cd 1cbe 49f3 1b3e
000001e0: 68ef 9dbe b22c 08be 8d6b b73e da64 773e
000001f0: 69d5 d03c 01b7 38bf 01b9 7d3f bddb b4bc
00000200: e1f8 87bc f915 6dbe 266d 3abd 8fa4 15bf
00000210: 5e2c a83e 5acc d13e ef9f a4be e7ca 59be
00000220: a7df 41bc 403b 8bbe 4e8d 223d 5eec a2be
00000230: b46b f3bd 5684 423d 368d f03e 018a a3bd
00000240: 2672 a43e cc6c 8bbd 2941 ae3e 1d2a b8be
00000250: fad6 abbe cb5d 29be f1b1 9c3e 3ec6 55bd
00000260: 7383 76be 5e20 ac3d f5f5 aabe b4af 9d3d
00000270: 29d2 de3e f9f9 86be ee02 eebe c4fc 9b3e
00000280: 36cf bc3e d710 0a3e 73e0 a7be dcad e73e
00000290: 6a09 c7bc ead3 8d3e aba1 523e 0bd3 99be
000002a0: 18d7 b2bb 6d17 e5bd 0ba5 52be 9918 7f3d
000002b0: 2e48 413f aa40 bfbe 4471 c7bb 597e 2e3e
000002c0: be94 5e3d eeb1 293e 334b b5be ab0e 16be
000002d0: 53a7 af3d e16b bebe a45a c2be 07d9 92be
000002e0: df9a ffbd 58a4 cabd 15aa f5bd b338 e3bd
000002f0: 9c49 893d 926c 1abe 3806 84bd c6e3 82bf
00000300: 00e1 2e3d 2a12 5bbf a92b 03bf 5988 fc3d
00000310: d2ea 9bbd 2371 cf3e 0faf 9cbe 60c4 7abe
00000320: aab7 33be 2721 8b3d e163 733e 82e6 24be
00000330: 8b46 933e 5378 7dbe 70b3 ad3e 406f 1abe
00000340: b7c0 ba3e 478a 6dbc f7f2 003e bbd2 05be
00000350: 6a56 6f3e 7cf6 20be 83cb 8b3e 740d f23c
00000360: 788b 393e 531e cf3c 3a78 cebe 9dce 0bbe
00000370: 8b3d e23d 0225 16bf e51f 29be b113 20bc
00000380: 8353 373e a0d1 27be a387 a9be 67fc a73d
00000390: dd84 00bf 67d2 9f3e 3ab6 2fbe 14f0 6abe
000003a0: 1a5d 5cbe cabf 5cbe d01f 52be 186f 9f3e
000003b0: a547 f23e 83e2 4bbe 6d09 aebe b597 2a3e
000003c0: a302 ab3b 31e3 9f3e 9fe1 e0be 46e8 a0be
000003d0: 6055 a9be e11c a2be 8b7f 79be 968f d43e
000003e0: 7ebe 14be 91c2 9a3e a739 b0be 6355 2f3c
000003f0: 1c4e bcbe 0edd 0fbf 75a7 68be 4528 abbf
0.48070568 0.21425262 -0.040757697 -0.12736702 1.1425927 -0.063278906 0.071350016 0.06125365
-0.12524515 0.33167052 -0.05489347 0.15107565 0.30511138 0.08898932 0.0929612 0.03014683
0.20194031 -0.11137226 0.27802914 -0.28987667 -0.05813352 0.4404523 0.14354287 0.2580628
-0.20174205 -0.4756543 0.33996713 0.035000835 0.077911936 -0.50367945 -0.58534837 1.1089534
0.21786897 0.008289845 0.3686354 0.41709206 0.08304877 -0.24984455 0.294283 -0.12517664
-0.3289299 0.16012727 0.023857875 0.28305614 -0.3573431 -0.22919156 0.15177919 -0.07836622
0.21425095 0.43875146 0.11984184 -0.59547424 0.09783846 0.18985061 -0.24186312 -0.01584833
-0.005915172 -0.089644045 -0.09783451 0.15624504 0.39282805 -0.1413055 0.021592436 -0.35397038
1.2783496 -0.19894008 -0.80998623 0.64622515 1.5655766 -0.47986376 -0.37996542 -0.115863085
-0.95361584 0.10479121 -0.15900685 -0.15672141 0.97766423 -0.268985 -1.557013 -0.012780723
-0.7724635 0.4101719 -0.0708013 0.2893167 0.24848191 -0.56563014 0.42309555 -0.342054
-1.1506971 0.052209415 0.5109467 -0.22088571 1.0256805 -0.10542559 -1.6986643 0.32346717
-0.31887576 -0.066376925 -0.5269121 0.26279357 0.69868785 -0.3889513 2.3728564 -0.2996645
-0.1582773 0.06141838 -3.69758 0.22227578 0.4279942 0.14228353 -0.32895517 0.23596253
-0.1653415 -0.06040321 -1.0425931 -0.04801089 0.92617214 -0.49939048 -0.15312937 0.15229525
-0.30846715 -0.132983 0.35824242 0.24159566 0.025492387 -0.7215424 0.9911042 -0.022077436
-0.016598167 -0.23152913 -0.04551425 -0.5845422 0.3284635 0.4097622 -0.3215327 -0.21268807
-0.011833108 -0.27193642 0.03968554 -0.3182096 -0.11885777 0.047489487 0.46982735 -0.079853065
0.32118338 -0.06807861 0.34034088 -0.3596963 -0.33562452 -0.16539685 0.3060451 -0.05219101
-0.24073581 0.08404611 -0.33390775 0.07699528 0.43519714 -0.2636259 -0.4648661 0.30466282
0.3687684 0.13482986 -0.3278843 0.45249832 -0.024296481 0.2770074 0.20569484 -0.30043826
-0.00545777 -0.11186109 -0.20570771 0.062279318 0.7550076 -0.37354022 -0.0060865004 0.17040385
0.05434107 0.16571781 -0.35408935 -0.14654033 0.085768364 -0.3719168 -0.37959778 -0.28681204
-0.12480711 -0.09894627 -0.11995331 -0.11094799 0.06703493 -0.15080479 -0.06446499 -1.0225761
0.042695045 -0.8557459 -0.51238495 0.12330694 -0.07613148 0.40516004 -0.3060231 -0.24488974
-0.17550531 0.06793433 0.2376857 -0.16103557 0.28764758 -0.24752931 0.33925962 -0.15081501
0.36475155 -0.0144983 0.12592684 -0.13068669 0.23372808 -0.15719026 0.27303705 0.02954743
0.1811961 0.025283014 -0.403261 -0.13653035 0.11046895 -0.5865022 -0.16516073 -0.00977032
0.17902951 -0.1638856 -0.33111295 0.08202439 -0.50202733 0.31215212 -0.17159358 -0.22943145
-0.2151989 -0.21557537 -0.20519948 0.31139445 0.47320285 -0.19910626 -0.33991566 0.16659434
0.00521882 0.3122802 -0.43922135 -0.3142721 -0.33072948 -0.31662658 -0.2436506 0.41515797
-0.14525792 0.30226567 -0.34418985 0.01070151 -0.36778343 -0.5619668 -0.2272013 -1.3371664

conv2.nn.bias f4 [1024]
00000000: 2dfc a33e e826 a9bc 6b94 2a3f bba2 443d
00000010: d463 d2bd 742d 723d 1e15 9f3e eaec 01bf
00000020: da36 73be 7dfa 22be 4947 2fbd 7120 803e
00000030: 99ec 95be 6d89 de3e 2890 b73d 1f0d fabb
00000040: c38d 133f 1b92 e93e f6f9 013f ea62 6b3e
00000050: c4b9 133e da95 b3be f8c2 83bd a585 913e
00000060: 33d7 b53e 9bca 06bf 8618 913d 1c3d 9c3d
00000070: 1d02 833e 49dc 4cbd beb5 103e 5570 c23e
00000080: 4f29 3e3e 57c3 4fbe cdde f33e 3e36 0fbe
00000090: fa1a 94bc d53c 733e 3d03 c1be b9aa fabe
000000a0: d012 59be 6201 9d3e e946 20bf 2a72 2ebd
000000b0: 57b9 df3d 095f e7bd 7a72 763e 6036 bfbe
000000c0: 732c b3be eefd 883d 9408 96bd b6f9 f63e
000000d0: 405f 77be 6f90 a4be 3198 b6bc b3b0 39be
000000e0: c0ed 1abf 0674 2e3e 8d62 a53e 4c87 223d
000000f0: 2dbf 23bf 0c17 2dbe e3f7 5abf 0db6 c43e
00000100: 14f5 d1be c779 d6be bc6c 983d b0f5 213e
00000110: 2519 35be 4ea0 85bc 90f1 ecbe a280 e53d
00000120: e93b 133e cd7d 98bd 1d1f 20be 4f5c 923d
00000130: 78cd f4be 3d30 94be 58f2 1abf a601 35be
00000140: b97e 8abe f887 89bd dca5 2a3e d3f2 44bd
00000150: 6754 85be 413a e9be 6d32 29bd 5049 123d
00000160: 5cba 59be f106 01be f8d4 bdbd 44e9 e6bd
00000170: b84a 34bd 7867 363e 09f0 4dbe 059e 63bf
00000180: d636 20bf e20c c9be 3ad9 c9bb a984 683d
00000190: 470f ccbe 7ca6 8bbe e481 783e 4b6e 1ebe
000001a0: dfe4 ebbe fa71 a6be 5c24 adbe c56a b83e
000001b0: 2629 e9be 7794 1c3c 806b d4be 4e98 ccbe
000001c0: 925e 243e 4d31 953e 2172 d1be 1528 623d
000001d0: c6db 303e 4db9 57be c327 75be ed74 b4be
000001e0: dd00 943e 377f ef3d c1da fe3d 8a43 513e
000001f0: b232 303d 0700 6f3e 6ff3 32bd 2390 a7bf
00000200: 5ab5 02be 8259 9f3e 2a77 d1bc 8546 af3e
00000210: b37a 96be 9516 8cbe d08b a3bd fd66 783e
00000220: 33ef b73e 81e4 18be a8db 283e ddd4 053e
00000230: dfec a13d 92a4 57be b9eb 053d df6b 87bd
00000240: 3c4e b23d 2f61 3a3e 6d49 a6be c683 223e
00000250: 319f 253e 50fd ba3e 4578 18bd aaf8 23be
00000260: 74ca c5bd b64c b7bc 25de f2be 8e9e 18be
00000270: 1d28 d6be 5c18 5fbd 9db3 edbd 0e8c 89bd
00000280: 16d0 02bf 4b8f 1abf 3bb9 d2bd fdc2 1bbd
00000290: 5114 abbd c9a7 9a3c 0215 c2bd 5d7e 3cbe
000002a0: 3b92 743e c72f 9e3c f3e8 6ebe 434c 0b3e
000002b0: 9787 fa3d a96d 96be 6a8f 403e d5b4 283e
000002c0: 7691 53bc 67d2 0a3b 09e5 dcbe 2b20 8ebd
000002d0: ed3a c43e 58b9 2d3e 1132 c03e 61cb 503e
000002e0: 6392 e3be 90fc d9bd f1cc b23c f4da 863e
000002f0: 615f 8abe c602 c6be 87f3 f1be 893b efbe
00000300: 7eb9 03bf 6584 e0be 6e02 a5be 8c54 bc3d
00000310: 1e94 dabc bdd6 2e3e 379e 8ebe d556 5c3e
00000320: 955c 943c ad01 a73e 8c03 abbe f859 8b3e
00000330: ab51 1abe 8021 dfbe 6e39 f2bd 7f20 53bd
00000340: 5aad 08be 7efd 57bd 5fc4 54be 9d57 c13e
00000350: a8b8 0b3e 6090 a2bd 0696 7b3e 8534 d2be
00000360: 0595 16bf c0c8 503d 9949 eb3d 1476 b7be
00000370: b3b1 193e 96cd 773e 91ba b6bd 0c02 e6be
00000380: 5ff6 05bf 7307 9cbe e369 b43e 7d45 663e
00000390: c43d a4be 6cb5 84be 7e63 a8bc 2ab1 473e
000003a0: e25f d33c 50fc 28bf 0f22 5a3e e2f5 10be
000003b0: 2ed5 523e 6804 95be 5a42 70bd b9d0 423e
000003c0: 0aef d3be d4db 97bd 7984 94be 36a0 b23d
000003d0: 2ec6 dd3d 91b1 bc3d a126 68bf 38fa 243f
000003e0: 7e7f 40bf 13b0 e7be 0712 df3d d71b ecbe
000003f0: 3d38 a8bb 22dd 0a3e 158b b0be a161 8c3e
0.32028332 -0.020648435 0.6663272 0.048006754 -0.10272947 0.05912538 0.310708 -0.5075213
-0.23751393 -0.15915866 -0.042792592 0.2502475 -0.29282072 0.43464223 0.089630425 -0.0076309587
0.57638186 0.45619282 0.50772035 0.22986951 0.14426333 -0.35075265 -0.06433672 0.28422275
0.35515746 -0.526529 0.070847556 0.07628843 0.2558755 -0.050014768 0.14131829 0.37976328
0.18570445 -0.2028936 0.4763092 -0.13985536 -0.01807927 0.23753674 -0.37697783 -0.48958376
-0.21198583 0.30665118 -0.626082 -0.042589344 0.10924023 -0.112974234 0.24067107 -0.37346172
-0.3499485 0.06689058 -0.07325855 0.4823739 -0.24157429 -0.32141444 -0.022289367 -0.18133812
-0.6051903 0.17036447 0.3230175 0.03967981 -0.63963586 -0.16903323 -0.85534495 0.38420144
-0.41007292 -0.41889784 0.074426144 0.15816379 -0.17685373 -0.01631179 -0.46278048 0.112061754
0.14378323 -0.074458696 -0.15636869 0.07146513 -0.4781301 -0.28943053 -0.6052604 -0.1767641
-0.27049807 -0.06715387 0.16664833 -0.048083138 -0.26040956 -0.45552257 -0.041307855 0.035714447
-0.21262497 -0.12600304 -0.09269136 -0.11274961 -0.04401657 0.17812908 -0.20111097 -0.88912994
-0.62583673 -0.3926764 -0.0061599286 0.05676714 -0.39855406 -0.27275455 0.242683 -0.15471761
-0.46073052 -0.32508832 -0.33816803 0.3601896 -0.45539206 0.009556881 -0.41488266 -0.3995995
0.160517 0.29139176 -0.40907386 0.055214006 0.17271337 -0.2106678 -0.23940949 -0.35245457
0.2890691 0.11694186 0.12444068 0.2043592 0.043017097 0.23339854 -0.043689188 -1.3090862
-0.12764493 0.31122977 -0.025569517 0.3423349 -0.29390487 -0.2736098 -0.079856515 0.24258037
0.35924682 -0.14930917 0.16490042 0.13069482 0.07906508 -0.21058872 0.032695506 -0.06612372
0.08706328 0.18201135 -0.32477894 0.1587058 0.16174008 0.36521387 -0.037224073 -0.16012827
-0.096577555 -0.022375446 -0.47435108 -0.14904234 -0.4182748 -0.05446659 -0.11606524 -0.067161664
-0.51098764 -0.603749 -0.10289236 -0.038027752 -0.083534844 0.018878834 -0.09476663 -0.18407579
0.23883907 0.019309891 -0.2333105 0.1360331 0.12232893 -0.2938054 0.18804708 0.16475232
-0.012913099 0.0021182538 -0.4314349 -0.06939729 0.38326207 0.16965234 0.37538198 0.20390083
-0.44447622 -0.106438756 0.02182624 0.26338923 -0.27025893 -0.3867399 -0.4725611 -0.4672511
-0.51454914 -0.4385101 -0.32228416 0.091958135 -0.026681956 0.17074104 -0.27855083 0.21517499
0.018110553 0.32618466 -0.33401144 0.27217078 -0.15070216 -0.43580246 -0.1182736 -0.051544663
-0.13347378 -0.052731983 -0.20778035 0.37762156 0.1364466 -0.079376936 0.24568948 -0.41055694
-0.58821136 0.0509727 0.11488647 -0.35832274 0.15009193 0.24199519 -0.089223035 -0.44923437
-0.5232906 -0.30474433 0.35237035 0.22487445 -0.32078373 -0.25919664 -0.020555254 0.19501176
0.025802556 -0.6601 0.21302055 -0.14156297 0.20589134 -0.29104924 -0.058657028 0.19024934
-0.4139331 -0.07414976 -0.2900732 0.08721964 0.108288154 0.092135556 -0.90683943 0.64444304
-0.7519454 -0.4525152 0.1089211 -0.4611499 -0.0051336573 0.13560918 -0.3448111 0.27418235

conv2.lin.weight f4 [32, 32]
00000000: 5e5f 8e3e 0ebe 3e3f 142a 50be cde4 59be
00000010: 612d ebbd 0fca 92be 7101 48be 7a97 393c
00000020: a9aa e13e 7d1e d6bc 31af 873e 6742 c93d
00000030: 2ba2 67be 608f 803e 596d 8c3e 8cb2 8d3e
00000040: 6818 db3e 4a1e 33bc c128 763e c280 5d3e
00000050: f45e 933e 0900 57bd 98ed 853e 1b24 423f
00000060: 4dcc 78be 784e e93e 156f f4be a3b6 a43e
00000070: 607b e33e 8cf1 3cbe 473d 4fbc d053 903e
00000080: 9406 d73e e028 fdbe ec79 9bbe 87ed 00bf
00000090: 7719 dabe 550b f2be d3e2 cebe 243d 26bf
000000a0: f65f c3be 0c94 1abf 1628 2b3e 8b22 4fbe
000000b0: 3161 c6be 446d debd 3535 583e c62d c43e
000000c0: daa4 063f 4e50 d6be e276 c03e bf9f 9e3e
000000d0: dfcf 523e 08f8 453f f5cf aa3e 0308 933d
000000e0: 6457 9fbe 9713 023f 12e6 66be 45b7 c23e
000000f0: 4896 99bd f160 06bf 822e 5bbe ba8b 423f
00000100: cd16 72be 303a df3e d56c 17bf 7af6 4bbd
00000110: 19ff 5dbf 4d55 87bf 20a6 62bf 664b f23f
00000120: 7199 a33f 9ec3 afbe bd6c 503e 3110 4f3e
00000130: 5d9f 8ebe 5f88 3bbf bb3b a9be 156c 4e3f
00000140: 787b dfbd 950c 183f bb88 cbbe 2fea f03c
00000150: 781c 133e cb58 323e 31b8 81bd 3ff2 ce3d
00000160: 2ff6 68bf 6d18 0cbe 5a7f 47bf 75c9 393e
00000170: 7923 e23d 4317 a0be 66b0 17c0 9b7d a4be
00000180: fc83 a53d a5aa 933e f2ba 823d 6eca da3b
00000190: a128 a3bd a8ce 2dbd c2f0 583b 2b15 d5bd
000001a0: 9547 f23c 5c51 30bd fdc1 c23d 5c9d 2eba
000001b0: 2361 c0bd 8631 32be e8b4 aabb 1bb7 0dbc
000001c0: 3b06 023e b355 b4bd fac2 113e e669 cb3c
000001d0: 9906 943d ccb2 5bbd 54f3 8c3c 7602 23bd
000001e0: 21e1 4b3d 50e6 203e 0a22 d7bd 6a5d 483d
000001f0: c50a 3e3c 7123 22bd 3377 11be 1a47 603d
00000200: 7f25 983e 0b57 b3be 3b0f 5cbe 5806 f0bd
00000210: 5ac4 60be ddb3 dbbd 2a59 4fbe 275e 13bf
00000220: 69bb 433e 2d57 dfbc d4c3 5f3e 9cdc 003e
00000230: 8803 1bbe 1fb1 323f cf4f a23e 3d43 4e3e
00000240: e09c 9a3e f057 7abd 1847 f53e 7e7b eb3d
00000250: e4ec 753e e964 dd3e c87b 983e 4cbe 9ebe
00000260: 82d9 cbbd e8c5 f43e acbd 7cbd 496a 423e
00000270: d21a 363e a868 e0bd 95c5 afbe e33e 213d
00000280: 6fd3 523c 5977 e63d ea78 abbc 1e76 ccbd
00000290: 6358 88bc bae2 3f3b 6e78 47bd 78c0 d8bd
000002a0: 398f 44bd 30a3 b83c 18c5 5c3a 9805 38bd
000002b0: 4a34 9cbd b4df 0f3d 947d c33d d019 283d
000002c0: cd16 6e3d edd6 81bb 6e51 a33d 5c82 003d
000002d0: 4afd ce3d d317 f7bc 4dfa a93d 1b4f f13d
000002e0: e63d e83c 2b0d c13d b204 9bbc db4c a63d
000002f0: ec3f 2e3d b6bc 6cbd ceac 19bd 725d 063d
00000300: 0d11 3e3e 6c47 893e 92fa 06be 521b a3bd
00000310: eb3f 7fbe d1cb ef3d 8407 363d eeae 51bd
00000320: 8200 9b3d 0e15 543e ba0f dabd 3c4e 853d
00000330: 8c46 f53c b57b 9ebd a7a2 66be d437 ac3c
00000340: 05fb 0bbd 8237 b13c 7d6b 133e a390 fd3c
00000350: 28d7 65bd f925 2a3e 6755 183e c5cb 55be
00000360: acae ad3d 8d32 6c3d a8be e4bd 9509 823d
00000370: e43e ec3d c8aa d8bd dcd2 893d 7b60 293d
00000380: f0a8 c6bd b6f6 b8bf 7a23 fdbd 6a3c 28be
00000390: 3cf4 e4bd 4d5a dcbc df4c 8a3c edc6 0fbe
000003a0: cac0 11be 046a c7bd 8452 093e f569 b9bd
000003b0: 59af 01bc cbc7 4d3e 151e 883d dd13 923d
000003c0: d8fd b2bd 6fdc 38bc e934 303c 14bc cb3d
000003d0: 0b32 02bd 6cdc a83e 0085 12be f5e2 8abf
000003e0: 6d72 efbd 68d3 c5bd cb8c 42bd ebb1 efbd
000003f0: 3c68 e6bd 744d 42be dec5 e23a d5d2 4a3e
0.27807134 0.7450875 -0.20328552 -0.21278687 -0.11483265 -0.28669783 -0.195318 0.011327619
0.44075516 -0.026137585 0.26500848 0.09827118 -0.22620456 0.25109386 0.27427176 0.27675283
0.42792058 -0.010932514 0.24038984 0.21631148 0.2878338 -0.052490268 0.26157832 0.7583634
-0.24296685 0.4556768 -0.47741 0.3217059 0.44430065 -0.18451518 -0.012648887 0.28188944
0.41997206 -0.49445248 -0.30366457 -0.5036244 -0.42597553 -0.4727427 -0.40407428 -0.64937043
-0.3815915 -0.6038215 0.1671451 -0.20228021 -0.38746026 -0.108606845 0.21114047 0.38316172
0.52595294 -0.41858143 0.375907 0.30981252 0.20587109 0.7733159 0.33361784 0.071792625
-0.3112136 0.5081114 -0.22548702 0.3803045 -0.07499367 -0.5249167 -0.2140446 0.75994456
-0.2364151 0.4359908 -0.5915044 -0.049795605 -0.86717373 -1.0572907 -0.88534737 1.892926
1.2781202 -0.34328932 0.2035398 0.2022102 -0.2785596 -0.7325496 -0.33053383 0.8063367
-0.10912222 0.593942 -0.39752755 0.029408542 0.14366329 0.17416684 -0.0633396 0.101047985
-0.91000646 -0.13681193 -0.779287 0.18143256 0.11041922 -0.31267747 -2.3701415 -0.3212708
0.08081815 0.2884113 0.06383313 0.0066769635 -0.07966734 -0.04243341 0.0033102487 -0.10404428
0.029575149 -0.04304634 0.095096566 -0.00066610216 -0.09393527 -0.17401704 -0.005209554 -0.008649613
0.12697689 -0.08805408 0.14234534 0.02483077 0.07227821 -0.05363731 0.017205872 -0.03979727
0.049775247 0.15712857 -0.10504539 0.04891721 0.011599247 -0.03958458 -0.14205627 0.054755308
0.29716107 -0.35027346 -0.21490185 -0.1171996 -0.21949902 -0.107276656 -0.20248857 -0.5756554
0.1911446 -0.027263248 0.21852046 0.12584156 -0.15138066 0.69801515 0.31701514 0.20142837
0.3019781 -0.06111902 0.47905803 0.11498164 0.24016148 0.4324105 0.29781938 -0.3100456
-0.09953596 0.4780724 -0.061704323 0.18985857 0.17783669 -0.109574616 -0.3433043 0.039366614
0.0128677925 0.112532325 -0.02093168 -0.099834666 -0.016643709 0.0029279427 -0.048698835 -0.105835855
-0.04798815 0.022538751 0.0008421703 -0.04492721 -0.07627161 0.03512545 0.095454365 0.04104024
0.058127213 -0.0039623887 0.07974516 0.03137432 0.10106905 -0.030162727 0.08299694 0.11782666
0.028349828 0.0942634 -0.018923137 0.08120128 0.04254143 -0.057797156 -0.037518315 0.03280396
0.18561192 0.26812303 -0.13181522 -0.07964195 -0.24926727 0.11708797 0.04444076 -0.051192217
0.07568456 0.20711157 -0.10647531 0.06509063 0.029940866 -0.07738439 -0.22522984 0.021022715
-0.034174938 0.021632914 0.14396472 0.030952757 -0.056113392 0.16616048 0.14876328 -0.20878513
0.08480582 0.057665396 -0.11169177 0.06349484 0.11535433 -0.10579449 0.06729671 0.041351777
-0.09700191 -1.445029 -0.12360282 -0.16429296 -0.111793965 -0.026898528 0.016882358 -0.14040728
-0.142337 -0.09737018 0.13410383 -0.09053413 -0.007915341 0.20095746 0.06646363 0.07132695
-0.08739823 -0.011283024 0.010754802 0.099479824 -0.031786006 0.3298067 -0.14308548 -1.0850512
-0.11691747 -0.09659463 -0.047497552 -0.11703857 -0.1125035 -0.18974859 0.0017301401 0.19806989

conv3.bias f4 [32]
00000000: f8d7 2ebf 3316 e93d 8705 a4bd f47c 1dbf
00000010: 8114 173f d2d3 bfbe 2b6e a5bd 24e1 cd3d
00000020: 8084 7d3e 2ff2 7cbe 98db 99bd 32af 74be
00000030: a956 8b3c 7def 6fbd 94a4 27bd bcdc 0cbd
00000040: 8cbc f4be 1d16 04bf b34d 61be a615 b7bd
00000050: 765d 613c 23a0 b9be 0e43 ea3d d840 8abe
00000060: 01a4 64be 740e 43be c01f 19be dfae e9bc
00000070: b8b4 60be 34c0 043e 1abc be3f b23e 873e
-0.6829829 0.11381187 -0.08008867 -0.6151879 0.5901566 -0.37466294 -0.080776535 0.10052708
0.24757576 -0.2470176 -0.07512587 -0.23894957 0.017009096 -0.058578003 -0.04092844 -0.034390196
-0.478001 -0.5159624 -0.22002296 -0.08939676 0.013755193 -0.36254987 0.11438571 -0.27002597
-0.22328188 -0.19048482 -0.14953518 -0.028525768 -0.21943939 0.12963945 1.4901154 0.2641502

conv3.nn.weight f4 [1024, 2]
00000000: a94f 103d f391 443e 7039 7abe 63e4 fcbd
00000010: fe5a fc3e 33ee 1bbe e634 88be af7f 533e
00000020: 9521 0abf 4411 1dbe 8472 2e3e bb30 86be
00000030: 9211 b4be 6a7d d33d 38c5 ab3e 4ae1 d7bd
00000040: 8b77 e6be 0f41 f23e 6bcb ff3e c898 b4be
00000050: 8072 86be 6c6d 25bd 6dc4 71be aae2 c73d
00000060: 3cbe 523e ad8f e93e a2bb d43e ab32 993d
00000070: 552f b43c ce54 e9bd 0542 92be a5ed 093d
00000080: c00f a5bd 39ee 183e cac0 a33e f216 173f
00000090: b59a 2ebf ac29 a33e dbb6 853e 36fa 023f
000000a0: 9fe3 bbbe 118b 9fbe 58fd 6d3e 6e2b b7be
000000b0: 66b6 36bf 4435 883c 519b cdbd 3c84 c7bd
000000c0: 999c 70be f3e5 a4bd 05dd 153e 709d acbe
000000d0: 5402 8abd 94a6 9cbe d62c 10bf e47a ae3d
000000e0: 4c0b 453b 7d89 35be 6f13 b1be 6da2 ad3e
000000f0: 7660 39be 510c 8f3e 82c0 3d3e 6ad4 e0be
00000100: 021f 8b3f 2feb 683f dac4 8c3e bc3e 90be
00000110: b256 d13c 9e65 2c3e fa25 1d3f 03ce 33be
00000120: 8e31 9bbe 6cb3 03bf 0ade ec3d 870f cebe
00000130: 6896 a0be cc2c 8cbd 009c c83d f9af cfbd
00000140: f325 debd f157 11be b789 083f b144 ba3e
00000150: b980 c03e 0a7d 26be f04f 303e 3137 233d
00000160: dbb1 643e b9e1 31be b871 c53e 7fab a8bd
00000170: f619 a53d 2584 7b3e 7af7 113f 38b3 423e
00000180: 82fc 76be 593f 503e 23e5 813e 2b0f a53d
00000190: 7261 a13d eb5a 9bbe ddd3 b5be 8926 e3be
000001a0: 1b31 07be 97f8 62be 3279 aebe 01bc 0abf
000001b0: 1c67 6cbe cdb5 a83d d707 083e 0a0b 3cbd
000001c0: 9d1d 1bbe 8a14 5f3e 14f9 3bbd 25ea cd3e
000001d0: 00f9 0f3e 33cc c73e c9c5 603e b8b5 fdbd
000001e0: c313 1a3f fac1 bb3e 791d e2be cc87 0d3f
000001f0: 91c4 a3bd 2b34 83be f8d5 8cbe 81c9 b2be
00000200: da22 e2be c5bd 4b3e e3ea 0abf af18 df3e
00000210: 73cf 873c d0f2 3fbd db04 04c0 b948 0d3f
00000220: 98cf 77bf 011b e63e 925b 513e 3800 9ebe
00000230: ee29 68bf 33b9 77bf 08ba 073f e2dd 79bf
00000240: d2dd 62bf ac4c 9bbf 7aea 56bf 3f56 d13e
00000250: c343 e0be fb73 3ebf 8efe 07bf 1411 40be
00000260: 227f 4ebe 8e4a e3bd 8d8a 423e 1672 0ebf
00000270: 490f a93d 250f c3be 9dbe cbbe 9272 54bf
00000280: c534 8c3e f809 e4bd e88b 083e 1a1a 303c
00000290: 1ca5 e6be a5c6 fabe f003 d7be 814d c2bb
000002a0: 2fdd 29bd c5b3 5fbe fc66 493f 17f3 a2bd
000002b0: d910 1c3f 8fb3 4a3e 6229 683e 1dd8 91bf
000002c0: fd01 813d d248 ad3d cbef 7cbd c903 9bbe
000002d0: 04d2 cf3e 48bc 03bd 3a10 63bf 9d7f ffbe
000002e0: 60ca 29be a477 abbe 5de0 f53d 60bd 77bc
000002f0: d949 41bf 1ba9 a43e 0b1c 0cbf 508c 0bbf
00000300: 3a71 2dbd 9c90 09be 382b 9abd a728 3c3e
00000310: 7aef 8cbd 11ac a93d de91 a0be 8fd6 9d3e
00000320: 9703 a53d 57aa 7abd 4cae 873e dd16 f33d
00000330: f1e1 f43d 12f4 4cbd e7f0 c9bd fee1 a3be
00000340: 037f 8abe 2458 e4bc 8d4a 64be cad7 a13e
00000350: ab9d b53e 69db 953d 7e02 b0bd 0dc3 a03b
00000360: e134 5d3e 0ef3 ae3d b3c5 77bd 5cbc aebe
00000370: e721 9bbd c526 a93e 4ac5 dfbb 931c 97be
00000380: 3b7f a43c f1a3 abbe 7ba3 4d3e 712f 81bd
00000390: 20b0 2abe c15c 6bbe e43f dfbd c847 9b3e
000003a0: a92e 82be 2fb9 f5bc b91c f5be 9e74 093e
000003b0: 1429 48be fc69 97bd 8477 aa3d ebd3 5fbe
000003c0: 24ef 80be 039d 67be cad7 07bd 9b0f 873e
000003d0: 6589 c3be b30d 4dbe 669a 223d 75e7 a7be
000003e0: 55e0 8f3e 62fe 583e 38c2 073e f821 adbe
000003f0: 90d9 5b3e 1e6e ecbd 7e88 ce3d 76d0 87bd
0.03523222 0.191963 -0.24435973 -0.12348249 0.49288172 -0.15227585 -0.26602858 0.20654176
-0.5395749 -0.15338618 0.17035872 -0.26209053 -0.35169655 0.10326655 0.33548903 -0.10541017
-0.4501308 0.4731526 0.49959883 -0.35272813 -0.26259232 -0.040387556 -0.23610087 0.097600296
0.20580381 0.45617428 0.41549402 0.07480367 0.021995226 -0.11393128 -0.28565994 0.0336739
-0.08059645 0.14934625 0.31983024 0.59019387 -0.68204814 0.3186773 0.2611607 0.5116304
-0.366971 -0.31160787 0.23241174 -0.35775322 -0.7137207 0.016626962 -0.1003939 -0.097420186
-0.23497237 -0.08051672 0.14635094 -0.33713865 -0.06738725 -0.3059584 -0.56318414 0.08519533
0.0030066548 -0.17728229 -0.3458514 0.33912984 -0.18103203 0.27939084 0.18530467 -0.4391206
1.0868838 0.9098386 0.27493936 -0.28172863 0.025554035 0.16835639 0.6138607 -0.17559056
-0.30311245 -0.5144565 0.11565788 -0.4024622 -0.3136475 -0.06844482 0.0979538 -0.10140986
-0.10847082 -0.14193703 0.53335136 0.36380532 0.37598208 -0.16258636 0.17217994 0.039847557
0.22333471 -0.17371263 0.38563323 -0.08235835 0.08061592 0.24562128 0.57018244 0.19013679
-0.24119762 0.20336665 0.2537013 0.08059534 0.07879914 -0.30342802 -0.355132 -0.44365337
-0.13202326 -0.22165142 -0.3407684 -0.5419312 -0.23086208 0.08237801 0.1328424 -0.045908965
-0.15148015 0.21785179 -0.045891836 0.402177 0.1405983 0.3902298 0.21950449 -0.12388176
0.60186404 0.3667143 -0.4416311 0.55285335 -0.079964764 -0.25625739 -0.27506995 -0.3491936
-0.44167215 0.1989661 -0.5426466 0.4357352 0.016578412 -0.046862423 -2.0627964 0.5518909
-0.9680114 0.44942477 0.20445088 -0.30859542 -0.9068898 -0.96766967 0.53018236 -0.9760419
-0.8861972 -1.2132773 -0.8395153 0.40886113 -0.43801698 -0.7439572 -0.53122795 -0.18756515
-0.20165685 -0.110982046 0.18998165 -0.5564283 0.082548685 -0.38097492 -0.39793864 -0.8298732
0.2738401 -0.11134714 0.1333462 0.010748411 -0.45047843 -0.4897968 -0.41995192 -0.0059296493
-0.041470703 -0.2184592 0.78672767 -0.07956522 0.6096321 0.19795059 0.22672036 -1.1394078
0.06299207 0.08461155 -0.061752122 -0.30276325 0.40589917 -0.03216198 -0.88696635 -0.4990205
-0.16581106 -0.33489716 0.120056845 -0.015120834 -0.7550331 0.32160267 -0.5473029 -0.54510975
-0.04234431 -0.1343407 -0.075277746 0.18374883 -0.06881614 0.08284772 -0.31361288 0.30827758
0.08057325 -0.061197605 0.26500165 0.11869595 0.119571574 -0.05003745 -0.098604016 -0.32008356
-0.27050027 -0.02787406 -0.22294064 0.31609946 0.35471854 0.0731724 -0.08594225 0.0049060644
0.21602203 0.08542453 -0.060491275 -0.34128082 -0.07574826 0.3303739 -0.0068289386 -0.29513988
0.0200802 -0.33523515 0.20081894 -0.06307877 -0.16668749 -0.22984602 -0.10900858 0.30328202
-0.25426224 -0.029995529 -0.47873476 0.13423392 -0.1954692 -0.07393262 0.08323577 -0.21858184
-0.2518245 -0.22618489 -0.033164777 0.26379094 -0.3819076 -0.20024757 0.039698027 -0.32793775
0.2810084 0.2119079 0.13257682 -0.3381498 0.21469712 -0.11544441 0.100846276 -0.06631558

conv3.nn.bias f4 [1024]
00000000: 4af4 1f3e a5be e93d eeca 733e bd14 c43d
00000010: 81c0 0abf 0b9a 51bd d381 cd3d db12 4b3d
00000020: 9b14 04bf a07c 5dbe 469b cbbe be7b bfbd
00000030: 6088 e93e 221f 283b d57e a53e a709 7cbe
00000040: 91bc a23e 7f11 183e 3051 63be 7ee1 063f
00000050: 6720 49be 024e 00bf 63d1 fcbe 20eb 253d
00000060: 4fa7 92be e50b ab3e 4cd9 44bd 8f8d 99be
00000070: 2d77 8e3d 3a06 ce3c b038 6cbc cc66 9bbe
00000080: cbc0 5c3f 56cc 19be 16a1 66bb d8ca 143f
00000090: 6883 d8be 0d25 05be 44da 28bf 8c74 19be
000000a0: 8c6d 22be a2f9 023f a783 2dbf 2aa6 963e
000000b0: b56e 933e 8b68 7ebe b88f 90bd d632 133f
000000c0: cc25 413e 5d1a 003f 22da bc3e 25f1 53be
000000d0: 469d a93e 9152 44bf 808e dcbe d66a 13bf
000000e0: 82ec fb3b a4ac d73d 9d9a 5fbe ac8f 6cbd
000000f0: c219 973e ec56 dbbe cfae d8be 1066 f2be
00000100: b1db 1bbf d0d7 02bf 6b36 913d 43b3 57be
00000110: fd10 15bf 86ec 583d cb76 4dbf ada0 23bf
00000120: f20c c0bf 2b9c be3d b470 dabe 0bda 07be
00000130: 4fa6 18bd 120a 95be b04b 333e 16c3 e4be
00000140: b880 13bf 5485 cf3b 3193 17bf cf17 3ebf
00000150: 7db4 cbbe 9784 c13d 2fa3 08bd 97b5 3cbf
00000160: 94cb f33c d0bd 08be 9cfc 85bc 9aa7 26bf
00000170: 2702 c0be 5525 fdbe 7c81 dabe 5e86 1dbf
00000180: 60f0 cfbd fdfe c23e 4931 06be 775f d4bd
00000190: 89fc 563d 7e74 debe 7d62 c4be 1686 87be
000001a0: c132 57be e521 39bd ce64 403e bd66 9e3d
000001b0: 2883 dbbc 138b 06be f424 a63e f632 3fbd
000001c0: 7a9f 073e ecb2 83be e5a8 323e 0b67 52be
000001d0: 90cc b5be f42e a6be 5acf 913e 2369 8a3e
000001e0: 43ea 44be f92c 5cbe e405 8abe 9d3a d53d
000001f0: 2340 83bc bfae 163e 0715 1ebe a286 873d
00000200: 223d 073f b8de 27be a01b 983e 675d 6abc
00000210: 3c33 d0be e0bf 093e 448a 693e 10ce 9d3c
00000220: 0374 823e ae35 453e 21b8 873e ebc3 84be
00000230: 9e7f 603e 90d2 0e3e 2853 4fbd c144 903e
00000240: a217 8d3e f60a d23e 3740 013f 6def 99be
00000250: 92c7 2d3e 859f db3e c63c a5bd 4a43 cabd
00000260: 6bc7 543e aff6 843e 1143 ea3c 7871 80be
00000270: fd06 c33e 8a57 2cbe bf7f b3be c67a be3e
00000280: 7a0c 473f d931 f6bd b2e2 4abd cb31 1c3f
00000290: 3390 7cbe 548d 0ebe 15be cabd 0ff8 99bd
000002a0: 000e 703b 77ab cf3d 20b5 833e 3127 bf3e
000002b0: f504 993c cc17 3c3e 77ff 553e 4e89 febc
000002c0: b37a d83e d59a 0e3e 02a4 9bbe f17e bd3d
000002d0: b0e6 023c d9cf c6be 18f0 283e 8925 373e
000002e0: cfed e2bd 1a7f d03d 9e37 043e 5329 443e
000002f0: 7010 25bd 856c 193f d7d7 e43d d711 15bc
00000300: b921 b73e be01 1d3f 34a9 f4bd 9974 183f
00000310: db3b e4be 44ad ffbd bc0c 82bc 021d 68be
00000320: 12a0 81bd 665f 2c3e 4e42 e53d a716 37be
00000330: 7cb0 2d3f da88 483d f719 88be b32a b83d
00000340: 4361 a73e 1b53 a33e c360 423e b756 04bd
00000350: bedc f73e 6ae9 42be 91d6 1c3e dc0a 9c3d
00000360: 9a8b 8f3d 1e78 85bb a108 9d3e ccb2 36be
00000370: 859d c03e 930c 92bd 3f4f 7a3e bb74 1f3e
00000380: bd27 94bf 7c27 193e fcdb bbbd 5522 0fbf
00000390: 260b 60be 0955 94be 61ba eebd 40ba 5abe
000003a0: 0304 2c3d 7e80 123e 02c3 d03d fa68 8a3d
000003b0: ed02 03bd d1a2 9c3e 483f 32be a793 323d
000003c0: 6a88 2abe 3e2f 703e 7534 90be 41a9 283e
000003d0: 0a47 01bf fabb 39bf 5b92 fc3d 2405 cdbe
000003e0: e323 cd3c 784d 813e 8a8c 5c3e 3bc3 d3be
000003f0: fad5 9cbe 866e 21bf bdc1 8cbe 17df ae3d
0.15620533 0.11413316 0.2380788 0.09574268 -0.5419999 -0.051172297 0.10034528 0.04957853
-0.5159394 -0.21629572 -0.39766902 -0.09349774 0.45611858 0.0025653322 0.32323328 -0.24613057
0.3178449 0.14850424 -0.2219894 0.52687824 -0.19641267 -0.5011903 -0.493785 0.040507436
-0.2864327 0.33407512 -0.048058793 -0.29990813 0.06956325 0.025149453 -0.014417812 -0.30351865
0.8623168 -0.15019354 -0.003519123 0.58122015 -0.42287755 -0.13002415 -0.65958047 -0.14985865
-0.15862101 0.5116216 -0.6777901 0.29423648 0.287954 -0.24844567 -0.07058662 0.57499444
0.18862075 0.5004023 0.36885172 -0.20697458 0.33127803 -0.76688486 -0.4307747 -0.57584894
0.007688106 0.105309755 -0.21836324 -0.057754204 0.2951184 -0.42839754 -0.42320868 -0.47343493
-0.608821 -0.51110554 0.070904575 -0.21064477 -0.5822905 0.05295994 -0.8025939 -0.63917047
-1.500395 0.093071304 -0.4266411 -0.1326677 -0.03726798 -0.29109246 0.17509341 -0.4468009
-0.57618284 0.0063330326 -0.5920897 -0.7425508 -0.3978614 0.09449118 -0.03335875 -0.73714584
0.02976016 -0.13353658 -0.016355805 -0.6509949 -0.37501642 -0.49442545 -0.42676914 -0.61533153
-0.1015327 0.38085166 -0.13104738 -0.10369771 0.05248693 -0.4344825 -0.3835639 -0.26469487
-0.21015455 -0.04519834 0.18788454 0.077344395 -0.026795939 -0.1313899 0.32450068 -0.04667946
0.13244429 -0.25722444 0.1744724 -0.2054712 -0.3550763 -0.32457697 0.2847851 0.27033338
-0.19229989 -0.2150153 -0.2695762 0.1041157 -0.016021794 0.14715098 -0.15437709 0.06617476
0.52827656 -0.16393554 0.29708576 -0.014304495 -0.4066409 0.13452101 0.2280665 0.019263297
0.25479135 0.19258758 0.26507667 -0.25930724 0.21923682 0.1394751 -0.050616413 0.28177455
0.27557093 0.41023988 0.5048861 -0.3006548 0.16970661 0.4289514 -0.08068232 -0.098761156
0.20779197 0.25969455 0.028596433 -0.2508657 0.3809127 -0.16830269 -0.350584 0.37203044
0.7775341 -0.120212264 -0.0495326 0.6101348 -0.24664383 -0.139211 -0.098995365 -0.075180165
0.0036629438 0.10140126 0.25724125 0.37334588 0.018679122 0.18368453 0.20898233 -0.031071331
0.42281112 0.13926251 -0.30398566 0.09252728 0.0079895705 -0.3883045 0.16497838 0.17885412
-0.11080515 0.10180493 0.12911841 0.19156389 -0.04029888 0.5993121 0.11173981 -0.009098492
0.35767916 0.61330783 -0.119463354 0.59552914 -0.44576916 -0.1248422 -0.015875213 -0.22667316
-0.06329359 0.16833267 0.11194287 -0.17879735 0.6784742 0.048958637 -0.2658231 0.08992519
0.32691392 0.31899342 0.18982224 -0.03230926 0.484106 -0.19034353 0.15316226 0.07619259
0.07009049 -0.004073157 0.30670646 -0.17841643 0.37620178 -0.071313046 0.24444292 0.15571873
-1.1574627 0.14956468 -0.09172818 -0.5591176 -0.21879253 -0.28971127 -0.11656643 -0.21360111
0.041996013 0.14306828 0.10193445 0.06758304 -0.031985212 0.3059297 -0.17406952 0.043597843
-0.166536 0.23455521 -0.28165022 0.16470815 -0.5049902 -0.72552454 0.123326026 -0.40042984
0.025041526 0.25254416 0.21537986 -0.41359887 -0.30632 -0.6305927 -0.2749156 0.08538645

conv3.lin.weight f4 [32, 32]
00000000: 286f 35be e69a f9be 9856 e4be 0922 e13d
00000010: 1932 3b3e 0b36 963e 1989 6a3e 1191 c33e
00000020: ba55 85bf cb96 3abf e767 b6be 1940 8e3f
00000030: 6d48 8dbf 7f89 5abd 2572 33be bffb 84bf
00000040: 1d32 87bf 99f6 46be 51ab e93d c4f8 20bf
00000050: c9ea cabe cc7d 83be 28b7 e5bd 0411 a6be
00000060: ce2b aa3d 8a97 5abf 4e5a 7cbe abe8 ba3e
00000070: ce38 c6bd 6d4c d2be d132 18bf 1c9d 2cbf
00000080: 088e 1ebd 660d 86be 39d4 82bf d6f5 ebbc
00000090: 50cd b4bc 8132 3f3d dfb7 363d 429e 82be
000000a0: dcce 7abe 7692 2bbd dafc 753e c986 923c
000000b0: ece9 903d 0fb2 da3d 7ca9 a8bd 44ad 513e
000000c0: 1b27 34bf 1517 b3bc 31be e9bd edb7 0fbd
000000d0: 3f40 0ebd f06d edbd cc0a 48be c583 6c3e
000000e0: 9c6b 24bd 8e04 1dbd dea4 383e 99ba 893c
000000f0: 1c14 6eba cbc4 3bbd 4009 8fbc 4157 b4bf
00000100: b5f2 133e 860f a73e 876e 05bf e3ac cebd
00000110: 0d0c 253e efb1 653d 6ca3 eb3d 2812 90bd
00000120: 641a b4bd de26 4abd 1835 e8bd 37c3 cabd
00000130: 4953 d0bc 10e5 053e b6e3 323d 61e7 7bbd
00000140: 8dd0 873c fc07 e53d d2ed d83d 910d 63be
00000150: 0c2b 4dbd 3e70 9cbd 8c7e e9bd eec7 4d3c
00000160: 04cb 7c3e 4a2a c1bd 0434 21bd 8db9 363e
00000170: f09c 5e3d feeb 05bd ef1e 903d a2df 36be
00000180: ab01 adbe 2dda da3d c02a 0bbd 6716 373d
00000190: ad9c 2bbc f857 2d3e e7b5 413e 15f3 7dbd
000001a0: 3032 f2bf ce7d dbbe 7eb3 87bf 9f64 c33e
000001b0: 4215 3cbd a147 2cbc 6416 49bd 2b6b 55bf
000001c0: 4cd2 88bf 85e5 853d 69f7 8a3e 1389 c5bd
000001d0: ea01 b4be 25e0 c5bd 7c65 6abf 25b5 7f3d
000001e0: 950e b83d bf4f 37be 9e62 0f3f d60e 083d
000001f0: af51 a3be c67d 93bd 54d4 30bf faec f0be
00000200: 5974 e8be af31 833d e54e 2cbf 2198 36bd
00000210: 9e9e 92bd 8c36 1cbf 3095 5ebe 37ff f33e
00000220: 84e9 de3d c5df f6bc b579 8dbd f775 32bf
00000230: 8bd6 b9bd c660 64bd c154 843e 3c9f 5b3f
00000240: 8ea9 c8bf f29c e0be ffb4 74bd 4cb7 80c0
00000250: f1b3 d23b b720 1f3f b762 6abe 0436 913e
00000260: 8c2d 80be 0ba1 d73e 4d3b 603f 70e1 90be
00000270: c33b eebc 021f 783d 672d 483d 268c 693f
00000280: 3c58 323e 2cd3 29bf 389f 8ebe a812 36be
00000290: 8a31 f63e 43c1 ce3d 872f 333f 1ec4 3bbf
000002a0: 7940 c43c 4f73 0f3e 0aee 8abd 64b7 383f
000002b0: 96f7 33bd a6a6 bc3d 00c6 563e 46a4 00be
000002c0: 9de9 36bf 5d98 5ebe dfac ba3e 9f5c 8dbe
000002d0: 0206 b83d 30d7 f3be a6b7 b13e 508e b2bc
000002e0: c4af 053e 190b 70bc fc9d b33d 3f5d d13e
000002f0: 4514 90bd f2c7 85be 3e07 88bd 18a5 1f3f
00000300: a503 00be 8fc8 67be f948 bfbe 7f1a 77bd
00000310: 1e67 c43d d09a 4a3c a710 1fba 764c 16be
00000320: c3d0 393e b677 06be d723 05be d9b9 d9bd
00000330: ce38 0fbe c8de 153e d8da 58bf b56d 83be
00000340: d1a3 2fbe 1cbd f1bd d1cf 5cbd e5fd 9cbe
00000350: 66dd eabc 3a45 05be b676 b93d c052 02be
00000360: 3bf9 54be 0eb2 a0bd 3ebf 46be d7ee 903c
00000370: 906e 60bb f9bb bbbd d38e ae3b 7e28 23bf
00000380: 5a7c b5be 34b1 073f 4afe 8fbe 8af4 9abd
00000390: 6661 283e 053b 10be 9b6b a13d 2bd7 073e
000003a0: b47b 213e beb3 eaba 8d6c d73e 7bd3 b63d
000003b0: 6140 cabd 93c8 13bd 483b e03d 5883 933e
000003c0: 939a 95bd 4777 0f3e 7ca6 82bd f430 2cbd
000003d0: cae9 9d3d 498a 2a3e a44f ca3e b4e7 08bd
000003e0: 13b4 37bd 72b4 133d ab00 a0bd 548b 803d
000003f0: 987c 9dbd 4362 3fbd ecca 143d 37eb 9abd
-0.17718184 -0.4875099 -0.44597316 0.1099282 0.1828083 0.29338107 0.22903861 0.38196614
-1.0416787 -0.7288634 -0.35626146 1.1113311 -1.1037728 -0.053353783 -0.17524011 -1.0389327
-1.0562168 -0.19430007 0.11409629 -0.62879586 -0.39632252 -0.25681913 -0.11216575 -0.32434857
0.08309136 -0.8538748 -0.24643824 0.36505637 -0.096788034 -0.41073933 -0.5945254 -0.6742723
-0.03870967 -0.26182097 -1.0221015 -0.028803747 -0.022070557 0.046679024 0.044608947 -0.25511366
-0.24492973 -0.041887723 0.24022236 0.017886536 0.07075867 0.10678493 -0.082354516 0.20476252
-0.7037217 -0.021861592 -0.11413229 -0.035087515 -0.03472924 -0.115932345 -0.19535369 0.23097141
-0.040141687 -0.03833442 0.18031642 0.01681261 -0.0009081976 -0.045841973 -0.017460465 -1.4089128
0.14448054 0.3262903 -0.52121776 -0.10091569 0.16117878 0.056077894 0.115057796 -0.07034713
-0.08794096 -0.049353473 -0.11338252 -0.099005155 -0.025430338 0.13075662 0.043674193 -0.061499957
0.016578937 0.111831635 0.105922356 -0.22173144 -0.05008988 -0.07638596 -0.1140109 0.012559874
0.2468682 -0.09431894 -0.039356247 0.1784422 0.054348886 -0.032695763 0.0703715 -0.17858747
-0.33790335 0.10686145 -0.033976316 0.0446991 -0.010474366 0.16928089 0.18917046 -0.0619994
-1.8921566 -0.4286942 -1.0601652 0.38162705 -0.04591871 -0.010515125 -0.04909362 -0.8336665
-1.0689178 0.06537918 0.27141884 -0.096452855 -0.3515771 -0.09661893 -0.915611 0.062428612
0.08987156 -0.17901514 0.5600985 0.033217274 -0.31898257 -0.07201724 -0.69073987 -0.470558
-0.45401266 0.06405961 -0.67307884 -0.044578675 -0.0715916 -0.6102073 -0.21736598 0.4765565
0.10884383 -0.030135999 -0.069079794 -0.6971125 -0.09074124 -0.055756353 0.25845912 0.8578985
-1.5676744 -0.4386974 -0.059742924 -4.022375 0.006430142 0.62159294 -0.22889219 0.28361523
-0.2503475 0.42115054 0.87590486 -0.28296995 -0.029081231 0.060576446 0.048871424 0.91229475
0.17416471 -0.6633785 -0.2785585 -0.17780554 0.4808467 0.100954555 0.69994396 -0.73346126
0.023956524 0.1400883 -0.067836836 0.7215483 -0.04393729 0.09211473 0.20973969 -0.12562665
-0.71450216 -0.2173781 0.36460015 -0.27609727 0.08985521 -0.47625113 0.34710425 -0.021796376
0.1305533 -0.014651083 0.087703675 0.40891454 -0.07035116 -0.2612911 -0.06642006 0.6236129
-0.1250139 -0.22635101 -0.3736036 -0.060328003 0.095899805 0.012366012 -0.000606785 -0.14677605
0.18146043 -0.13131604 -0.13001953 -0.10631151 -0.13986513 0.14635766 -0.8470893 -0.25669637
-0.17152335 -0.11803648 -0.053909127 -0.30662456 -0.028670024 -0.13014689 0.090558454 -0.12726879
-0.20798199 -0.07846461 -0.1940889 0.017692013 -0.0034245588 -0.09166712 0.0053270846 -0.6373366
-0.35446435 0.53004766 -0.28123695 -0.075661734 0.16443405 -0.14085014 0.07881852 0.13265674
0.15769845 -0.001790635 0.42075005 0.089270554 -0.098755606 -0.036079954 0.10948807 0.28811145
-0.07304873 0.14010344 -0.063794106 -0.042038873 0.07710607 0.16654314 0.39513886 -0.033424094
-0.044849467 0.036060758 -0.078126274 0.06276575 -0.0768978 -0.04672457 0.036326334 -0.07564395

conv4.bias f4 [32]
00000000: 7d27 7ebe 7971 f5be fd4c 243d 3dff 93be
00000010: 3fdb a9bd b890 6bbb d77d e43e 5fca 113f
00000020: 6049 4dbe b42a ba3e f6e1 203f 1aa2 c2be
00000030: 63ef f6be 53a2 1cbf d11d 98be 1d06 8a3e
00000040: b79d 46bf 7be5 a1be 1044 15be 1a73 dbbe
00000050: 01ff 10bf e494 333f b2df d1bc 841d 70be
00000060: 5c7b 0b3f 8586 1fbf 603c a63e f66b a7be
00000070: 74f0 eebd aea1 6a3e a289 36bd 24c4 c7bd
-0.24819751 -0.47938135 0.040112484 -0.2890567 -0.08293771 -0.0035944413 0.44627258 0.5694942
-0.20047522 0.36360705 0.6284479 -0.380143 -0.48229513 -0.6118519 -0.29710248 0.2695779
-0.77584404 -0.31620392 -0.14576745 -0.42861253 -0.56639105 0.70149064 -0.025619362 -0.2344876
0.54485106 -0.62314636 0.32467937 -0.32699555 -0.116669565 0.22913238 -0.04456485 -0.09754208

conv4.nn.weight f4 [1024, 2]
00000000: 2ebc 023e bdc7 3dbe 9eb6 4fbc e960 7ebe
00000010: fe89 2abe cfbe bd3d 0075 debe 4a6c 933e
00000020: eba1 6dbe ea8c 1cbf 2bb5 e2be da56 753e
00000030: c7a7 8bbe c4bc 1a3f e121 9cbd 5074 393f
00000040: f001 113e 8a48 3c3e cce1 2dbc 89f0 193e
00000050: a131 97be 4c06 2cbc 18e5 58be 3e24 7e3d
00000060: 0964 cfbd e630 de3d a88c 83bc e647 b53e
00000070: 0d07 15be 1aea e5bc 06c5 7c3e 7564 86be
00000080: 3f3e a9be c442 e63c 527d 0abe 1ed5 f43c
00000090: 18de 93be 1820 323f 1f31 60be efac c63e
000000a0: 47e5 07be 6af0 023e 9580 98be cb36 753d
000000b0: a97d 4ebf b672 a4bd 2483 6dbd b362 e0be
000000c0: 2848 fdbe 121e 8fbe 6b1e 23be 2204 a2bd
000000d0: 183b 2abe b908 433f 5dd9 5bbf d679 edbe
000000e0: 166e c33c 9543 c7be 74d9 4fbf 0023 5c3f
000000f0: 8d10 eebe 4d04 a7be c4d4 0fbf 57a8 debd
00000100: 7b6b 003e 5c5c 8fbe 437f e6be 4881 41be
00000110: 30be a53e 8ecf 253e 28c7 03be b25e f13e
00000120: 625a 67be 39bd 923e 95fb 18bf 3c07 3c3f
00000130: 2e82 96be 8e1f cfbe a27c 3ebe 1d71 49bf
00000140: 75c1 32bd 744e 2a3e a434 20be 3367 54be
00000150: dc02 33be 1c16 24be d9d5 9bbe 2743 1fbe
00000160: d051 8b3e 8ac5 163d 43f6 24bf 2c55 f3be
00000170: 3e69 233d 0e14 ffbe 6040 533e 4ec3 543e
00000180: a3a3 07bf bc48 333e 056b 47bd abbf 6dbe
00000190: e8fe de3d b66d f93e 8b40 19bd d2f2 173e
000001a0: ea5b bbbe 3388 f03e 65d4 783d ec40 2ebd
000001b0: c3a4 8fbc 1435 973e 801f 2cbe 14eb 80bc
000001c0: ad1c 503e f72a 86bd 65a5 3c3e e866 5dbd
000001d0: 9f58 68be c0a3 b83d 0376 363d 21bc a2be
000001e0: 8f6a 8ebe cb80 e8be 569e cfbe bba1 47be
000001f0: fd4c 6c3e d516 643e f07f 3fbe ccfc b53e
00000200: 1718 213e 6380 d8bd ad31 9c3e f26f 92ba
00000210: 9c36 3a3e 6003 9cbe fdc2 00be be2d b5be
00000220: 95df f63d fe9f b6bd 32bc 6ebd c9ec a53d
00000230: 377c 4fbe 4138 e53d c3c5 9dbd 84a1 923d
00000240: 77c6 ab3d 5833 d1be 10b6 c83d d117 8dbd
00000250: 5e0b cdbe 160b a93d eb85 8b3e 78bf c1be
00000260: 917b a2be a159 7abe d8ed bfbe a651 023e
00000270: 4758 483e 9591 05be 4589 233e fef9 65be
00000280: 83a0 113c d753 b53d 1b63 c03d 5330 c9be
00000290: b0b5 80be 66ca 5dbe 6c0d 2ebd 3b08 83be
000002a0: c9bc b6be bb8c 2d3d 973e 82be 84f8 8bbe
000002b0: 50e1 f5bd be5b 07be 154b 903e b4ac 213e
000002c0: 8d67 303e 390e 29be 99c4 4b3e aa45 f33c
000002d0: 5a37 0abe e094 6ebe 5afd 95be 6860 ef3d
000002e0: 8668 3c3e a273 c1be 0081 bebc 4650 b5be
000002f0: f189 433e 5f20 5c3d 113b b73c 7c5d 133d
00000300: d85b 40be 2177 0bbe e3e4 a93d e469 9bbd
00000310: 2116 8bbe 8fce 5bbf 3551 b4bd c726 ea3e
00000320: c3f7 59be a3df 1fbf 8919 c43d ad92 84bd
00000330: 1e89 c3be 48cd 54bd 1ac9 f6be aead 633f
00000340: df03 d0bd 1567 bebe 583b 823e 5a0e c93c
00000350: f27a 24bf bf16 eebc a35e 4fbe ee9e b63e
00000360: d72e 81be 340c 083e 9aa3 8ebf a297 a6bd
00000370: e778 60bb 8403 a63e 9169 553e 420f d7be
00000380: f912 f53e 24a4 81be 52c6 88bd d3d1 ebbc
00000390: ebb3 82be 4835 363f b139 cfbe 1c9f e73e
000003a0: 4b41 8c3e 279e a7be df79 493e 4bdf 2dbf
000003b0: 4745 2ebf 5e0f 29bf 3527 1ebc 28c9 1c3b
000003c0: 16ee f4bd 0c8c 99be c1eb 083f 967a 34bf
000003d0: 2ae8 673d 2b66 d2be 5960 263f 8dd5 0dbf
000003e0: df48 a93d 53ef 4ebe 78ea a5be 39da c6bc
000003f0: a262 54be f919 2abd e1dc 093e 0815 063f
0.12767097 -0.18533225 -0.012677817 -0.24841656 -0.16654202 0.092649095 -0.4344864 0.28793555
-0.23206298 -0.6115252 -0.44278845 0.23958912 -0.2727644 0.60444283 -0.076236494 0.72443104
0.14160895 0.18387046 -0.010612916 0.15033163 -0.2953005 -0.010499548 -0.21181142 0.062046282
-0.10126502 0.108491704 -0.016058281 0.35406417 -0.14553471 -0.02806573 0.24684533 -0.26248518
-0.33055303 0.028108008 -0.13524368 0.029886778 -0.28880382 0.6958022 -0.21893738 0.38803813
-0.13271056 0.12787023 -0.297856 0.059866708 -0.8066049 -0.08029692 -0.057986394 -0.43825302
-0.49469113 -0.2795263 -0.15929572 -0.079109445 -0.16624105 0.76185185 -0.85878545 -0.46382016
0.023856204 -0.38918748 -0.8119118 0.85990906 -0.46497002 -0.3262047 -0.5618403 -0.10871952
0.12541 -0.28000152 -0.45018968 -0.18896973 0.32371664 0.16192457 -0.12868941 0.4714256
-0.22593072 0.2865999 -0.59758884 0.7344854 -0.29396194 -0.40453762 -0.18602231 -0.7868822
-0.043641526 0.1663149 -0.15645081 -0.20742492 -0.1748156 -0.16024059 -0.3043659 -0.1555296
0.27210855 0.03680948 -0.64438266 -0.47525918 0.03989529 -0.49819988 0.20630026 0.20777628
-0.52984065 0.17508215 -0.048686046 -0.23217647 0.10888463 0.48716515 -0.03741507 0.14838722
-0.36593562 0.46978912 0.06074943 -0.042542383 -0.01753462 0.29532683 -0.16808891 -0.015737094
0.20323439 -0.06551164 0.18422468 -0.054053217 -0.22690056 0.09015608 0.04454614 -0.31784156
-0.27815673 -0.4541076 -0.40550488 -0.19495289 0.23076244 0.22274335 -0.18701148 0.3554443
0.15731846 -0.10571363 0.3050665 -0.0011172278 0.18184894 -0.30471325 -0.12574382 -0.3538646
0.12054364 -0.08917235 -0.058284946 0.08101804 -0.20262228 0.1119237 -0.07703736 0.07159713
0.083874635 -0.40859485 0.09800351 -0.06889308 -0.40047735 0.082540676 0.2725061 -0.37841392
-0.317349 -0.24448253 -0.37486148 0.12726459 0.19564925 -0.13043816 0.15970333 -0.22458646
0.008888367 0.08853882 0.09393903 -0.3929468 -0.25138617 -0.2165924 -0.04249327 -0.25592217
-0.35690907 0.04237054 -0.25438377 -0.2733804 -0.120058656 -0.1321859 0.28182283 0.15788537
0.17227001 -0.16509332 0.19899215 0.029696304 -0.13497677 -0.23298979 -0.29294854 0.1168831
0.18399248 -0.37783533 -0.023254871 -0.35412806 0.19095589 0.05374181 0.022367032 0.035977826
-0.18785036 -0.13619663 0.0829561 -0.075885564 -0.2716532 -0.8586206 -0.088045515 0.4573271
-0.2128592 -0.6245062 0.09575183 -0.06473289 -0.3819055 -0.051953584 -0.48200303 0.8893689
-0.10156988 -0.3718802 0.254359 0.024542976 -0.642501 -0.02906358 -0.20250945 0.3566813
-0.25231048 0.13285905 -1.1143677 -0.081343904 -0.003425175 0.32424557 0.20841052 -0.42003828
0.47866037 -0.25320542 -0.066784516 -0.028786575 -0.25527892 0.7117505 -0.40473703 0.45238578
0.27393565 -0.32737848 0.19675396 -0.67918843 -0.6807446 -0.66039073 -0.009652902 0.002392361
-0.11959474 -0.2998966 0.5348473 -0.7049955 0.056617893 -0.41093573 0.64990765 -0.5540398
0.08265852 -0.20208482 -0.32405448 -0.024273979 -0.2074075 -0.041528676 0.13463165 0.5237584
