ckpts/cyclicity.pt (torch, 82833 bytes, 24 tensors)

conv1.bias f4 [32]
000000 db 65 d2 bb 32 2d 43 3e ea 96 4d be 2e c5 fb bd
       -0.0064208335 0.1906021 -0.200771 -0.122934684
000010 04 6c 60 be 72 eb 80 3c 2a e1 7f be e3 16 13 3e
       -0.21916205 0.01573727 -0.24988237 0.143642
000020 a5 3f 72 bc b2 b0 ca bb 3e d1 c1 3d 07 45 5f be
       -0.014785682 -0.0061856145 0.09463738 -0.21803676
000030 30 1b f0 bd 10 33 7e be 3b 89 64 3d 48 09 94 3d
       -0.117239356 -0.24824166 0.055794936 0.07228333
000040 e5 6c 9c 3d 0f 26 b3 bd d2 b1 5f 3b d1 9e 25 3e
       0.076379575 -0.087474935 0.0034133089 0.16173865
000050 b8 e7 d8 3d 90 66 1a bd 1e 36 bd 3c 88 e4 83 3d
       0.10591072 -0.037695467 0.023097094 0.06440073
000060 5b 30 23 be 33 78 81 3c 1e af 0b 3b 6b 3a 4f bc
       -0.15936415 0.015804386 0.0021314095 -0.012648205
000070 6b 4d ae 3d 90 29 bb 3d f1 41 16 3d 48 2f dd bb
       0.0851086 0.09138787 0.03668398 -0.006750021

conv1.nn.weight f4 [32, 2]
000000 1e a9 86 be 6f 1c 4d 3e 95 e0 f6 be f8 2d 55 bd
       -0.263009 0.20030378 -0.48218217 -0.052045792
000010 98 8b 37 3e aa 75 b6 3e b1 37 2a 3e 64 79 af 3d
       0.17924345 0.35636646 0.16622807 0.08568075
000020 ff 88 d1 be a3 13 46 3d 76 11 3f be f2 2a 35 bc
       -0.40924832 0.04835857 -0.18659005 -0.011057602
000030 e6 15 2f be d4 de c7 3d 6b 57 98 3e ce d3 02 be
       -0.17098197 0.09759298 0.29754195 -0.1277611
000040 74 dd 1f bf b5 45 80 3e ae 3e 6d 3e c9 59 01 3e
       -0.62447286 0.25053182 0.23168442 0.12631907
000050 bd 92 81 be d4 21 22 be e0 e7 86 3e fe 48 b6 be
       -0.25307265 -0.15833217 0.26348782 -0.35602564
000060 f5 28 61 3d 61 19 27 3d 60 e0 0d 3f d3 6d 05 3e
       0.0549707 0.040795688 0.55420494 0.13030176
000070 db 52 8d 3e 59 cf c6 3e 31 6d 98 bd 84 d9 5b be
       0.27602276 0.3883007 -0.074427016 -0.21469694
000080 c0 51 b2 be bf 28 a8 bd 53 9b 43 be c4 ba 28 be
       -0.34827995 -0.08210897 -0.1910222 -0.16477495
000090 ce 37 79 3e 0a cb fe 3e 99 c0 fd 3d 2f 48 88 3e
       0.24337694 0.49764282 0.12390251 0.26617572
0000a0 b6 cc 8a be 4c 1f 47 be 1a 80 87 3e cc a0 de be
       -0.27109307 -0.19445533 0.2646492 -0.43482053
0000b0 c0 56 7e be 28 45 52 3e f8 38 86 bd 3e 41 17 be
       -0.2483778 0.20534194 -0.06553835 -0.14770982
0000c0 d7 93 85 bd 0c e1 30 3d 3a 55 e7 bd 45 8a 0c bd
       -0.06522339 0.04318337 -0.112955526 -0.03431155
0000d0 bd 74 68 3e 33 1e 94 3e ef 42 0c bf 07 8e 84 3c
       0.22700782 0.2892929 -0.5478963 0.016181005
0000e0 e9 e6 88 be 5f ca 73 bc 91 ea 79 be 4d b1 41 3e
       -0.2673867 -0.014879792 -0.24405886 0.18915291
0000f0 7f dd 15 bd c7 4b 46 bf a9 3e 8c be 0f 3e b4 be
       -0.03658819 -0.7745938 -0.27391556 -0.35203597

conv1.nn.bias f4 [32]
000000 16 63 f9 be 38 ab ba 3c d2 22 70 3b 75 50 1d 3e
       -0.4870841 0.022786722 0.0036641848 0.15362723
000010 a4 46 a1 3e f3 2a a7 3e bc 71 1d 3e d7 af 95 be
       0.31499207 0.32649955 0.15375417 -0.29235718
000020 a5 df ed be a8 cc c6 bd 33 46 67 3d ec da 41 bc
       -0.4645969 -0.09707004 0.05646343 -0.01183198
000030 44 68 b7 bd 17 03 42 be 2f a7 c8 be fe 8a e6 bd
       -0.08955434 -0.18946491 -0.3919005 -0.112569794
000040 6f 89 fc 3d 9d dd aa 3d 4e 73 8b be 8f bb 70 be
       0.12330901 0.08343051 -0.27236408 -0.23509048
000050 8c 49 a5 3b de c6 db bd d0 67 10 bd 8b 99 c1 be
       0.005044168 -0.1073129 -0.035255253 -0.37812456
000060 e2 4d 72 bc a5 0e 04 3c 99 fc 9d 3e f5 2d 9f be
       -0.0147890765 0.008060132 0.3085678 -0.3108975
000070 41 9f a1 be ad e7 da bd 6b 7c b1 3d df 45 8f 3e
       -0.31566814 -0.1068872 0.08666309 0.27982995

conv1.lin.weight f4 [32, 1]
000000 bd 17 ac bd 8a dd 31 3f e8 12 0f bf f5 cb 2d bf
       -0.08402965 0.69478667 -0.55888224 -0.6788934
000010 96 fe 0a bf 67 67 7c be 87 57 b8 bc 69 3f 2b 3f
       -0.5429472 -0.2464882 -0.022502674 0.6689363
000020 7d 0e 1a 3f bb 0a a3 be 15 43 7d bd de 19 a6 be
       0.6017836 -0.31844124 -0.061831553 -0.3244161
000030 ab 7c fc 3d 8d 69 e6 be 55 ac 35 be 82 bf 3e 3e
       0.12328466 -0.45002404 -0.1774152 0.18627742
000040 4c f7 ae be ac 75 f3 3e 0a 3a 11 bf 05 11 d6 be
       -0.34173048 0.47550714 -0.56729186 -0.4180986
000050 a0 21 90 3d e3 59 00 bf e4 9a 86 be fc 08 e3 3e
       0.070376635 -0.50137156 -0.26290047 0.44342792
000060 1a 28 20 be 69 99 70 bd 71 6d 1b bf f2 6d 68 be
       -0.15640298 -0.058740053 -0.6071387 -0.22698191
000070 f1 4c 09 be e8 32 13 3f 7e ef 96 3e 9b fc 88 bd
       -0.13408257 0.5749955 0.29479593 -0.06688806

conv2.bias f4 [32]
000000 60 7b 28 be 75 e2 35 bd 62 6e 8b be f8 c3 a0 3d
       -0.16453314 -0.04440542 -0.27232653 0.07849878
000010 b8 be 98 3c 76 08 5a 3e dc 40 4c 3e 13 cd fa 3d
       0.01864563 0.2129229 0.19946617 0.12246146
000020 c5 24 b1 3b 61 06 47 be 04 51 ce 3d 5e 49 a3 be
       0.0054059946 -0.19436027 0.10074046 -0.31891912
000030 ed 00 96 3e cb 44 15 3e 26 34 c4 bd 95 9a 4b bb
       0.2929758 0.14577024 -0.09580259 -0.003106748
000040 4b fb da be 5e 05 24 be 3c c9 42 be 0a b9 85 3e
       -0.42769846 -0.16017672 -0.19022077 0.26117736
000050 1b 94 2f 3e b1 b4 d4 3d 61 7d 0d 3e cd ec 77 bc
       0.17146342 0.10386027 0.1381736 -0.015132141
000060 9d 4c 0f be 4d 03 d0 bc 6a e3 4d 3e 0a 1b 56 be
       -0.1399407 -0.025392199 0.20106283 -0.20908752
000070 c0 ec 81 be fb e9 45 bc b9 b0 96 3d 45 22 90 bd
       -0.25375938 -0.012079711 0.07357926 -0.070377864

conv2.nn.weight f4 [1024, 2]
000000 eb 66 9e 3e df 60 c8 bd 27 6e d5 bd d1 20 f3 be
       0.30937895 -0.09784102 -0.104214005 -0.47485974
000010 82 44 e6 3e 2a ed 8f 3c 22 91 30 be 4d 6a ba bd
       0.44974142 0.017569143 -0.17242864 -0.091023065
000020 ea 54 c9 be 41 67 e3 3e 3b cb 92 be d1 05 16 3e
       -0.39322597 0.44414714 -0.28670678 0.14650656
000030 b0 77 85 3e ee 36 0d 3d 64 3b c5 3e 8a fe ca be
       0.26067877 0.034476213 0.38521874 -0.39647323
000040 7d 83 a9 be 57 6e 8c 3e 58 3e 6a 3d ce d6 47 bd
       -0.3310813 0.27427933 0.057188362 -0.048788838
000050 ea 3c 77 3d 06 d8 a6 bd 68 28 02 bd 84 35 36 3e
       0.060360827 -0.08146672 -0.031776816 0.17793852
000060 84 06 d8 be e5 87 ff bd 5e d8 8f 3e 45 53 35 be
       -0.4219247 -0.12477092 0.28094763 -0.17707546
000070 49 eb 65 bd f8 1e 6c be cc 27 d7 be 1b 96 2d 3f
       -0.05613259 -0.23058689 -0.4202255 0.6780717
000080 cd 6d 06 3e e2 41 39 be 46 39 db 3e 23 fe 95 bd
       0.13127823 -0.18091539 0.42817134 -0.07323863
000090 e2 2f f1 3d dc 66 bb be a5 d0 a3 3b 0b fa 31 3e
       0.11776711 -0.36601913 0.0049992376 0.1738054
0000a0 ca 3a 04 bf 35 f7 91 3e b9 77 93 3e 99 94 d4 3d
       -0.51652205 0.28508916 0.2880228 0.10379905
0000b0 d0 a5 8b be 5a 4c b2 3e 7f e8 cc 3e 68 a6 01 be
       -0.27274942 0.34823877 0.4002113 -0.12661135
0000c0 98 b7 c1 be 0e 9a d0 3e 46 01 ba bb ed eb b0 bd
       -0.37835383 0.40742534 -0.0056764213 -0.08638749
0000d0 5f ca 86 3d 69 12 81 bd 2d 5f bd be 10 d5 5b 3d
       0.06581568 -0.063023396 -0.36986676 0.05366999
0000e0 0a 17 16 bd cd 84 e4 3c 73 4e 04 bf aa 58 27 3f
       -0.036643066 0.027895356 -0.51682204 0.65369666
0000f0 9b 54 fb 3e 0d d2 82 be 4c d9 e3 bd 15 d8 04 be
       0.49087986 -0.2555088 -0.111254305 -0.12973054
000100 18 55 68 be 79 47 ca be d1 0b f6 3d 7b bb ee bd
       -0.2268871 -0.39507654 0.120139726 -0.11656853
000110 0d 2f 80 bf 8e aa 76 be 30 02 51 bf 39 88 93 3d
       -1.0014359 -0.24088499 -0.8164396 0.07203717
000120 d2 77 a1 be a2 ae 88 3e 72 10 85 3b 5e f5 9d be
       -0.31536728 0.26695734 0.0040607983 -0.30851263
000130 20 14 83 3e a6 f3 de 3d 06 4d 9f 3e a7 d3 4b be
       0.25601292 0.10886316 0.31113452 -0.19904958
000140 41 77 64 3d 09 eb c1 3e 0c 5b 94 be b4 88 52 3e
       0.055777792 0.3787463 -0.28975713 0.2055996
000150 7b b9 05 3f 78 91 f4 3d 4e 29 8d bf e8 3b 68 be
       0.52236146 0.119418085 -1.102823 -0.22679102
000160 3b b7 e4 3e 32 ff a2 be 98 d7 c9 3e 0d 99 d1 be
       0.44671044 -0.31835324 0.39422297 -0.4093708
000170 52 af af 3d 8c 78 36 3e 00 ba b4 bf 5f 00 91 bd
       0.085783616 0.17819422 -1.4119263 -0.07080149
000180 a4 a8 96 be 6b 00 2e 3e 5a ab 28 be 62 6a 72 38
       -0.29425538 0.16992347 -0.16471615 5.7796373e-05
000190 2d 9b 55 3d f9 1e 0c bf 3c 56 8f 3f 45 e0 b3 bc
       0.05214994 -0.5473476 1.1198192 -0.021957526
0001a0 5d c2 af 3e 36 58 80 3e 3a 43 83 bf e9 ea 01 be
       0.34327975 0.250673 -1.0254891 -0.12687267
0001b0 a0 41 1f 3f fa ab 0a bd 3c 19 a1 3e 35 f0 8a 3e
       0.6220951 -0.033855416 0.31464565 0.27136388
0001c0 f0 8f 31 bf bb 42 89 3e 15 48 80 bf d3 da a6 be
       -0.69360256 0.26808724 -1.0021998 -0.32588825
0001d0 96 9b 58 3f dc 63 10 bf 61 c8 11 be 24 76 4f bc
       0.84612405 -0.56402373 -0.14236595 -0.012662444
0001e0 a8 2e 50 bf 73 a1 a0 3e 39 79 50 bf 85 e6 e6 3e
       -0.8132119 0.31373176 -0.8143497 0.45097747
0001f0 f4 d3 0f 3f df cc 13 be c1 70 4e be 0e 38 dd bd
       0.5618279 -0.14433621 -0.201602 -0.10801707
000200 bd 4a f1 be 59 82 fb 3e 5f 93 d0 be 97 63 8d be
       -0.47127333 0.49122885 -0.40737435 -0.27615044
000210 b7 6e 9d be d0 74 65 3e 46 39 ee be 33 03 ad bd
       -0.3074853 0.22407842 -0.4652807 -0.08447876
000220 ae 64 a5 be dd 96 ad be 8c bc bc 3d 22 d4 95 be
       -0.32303375 -0.33904162 0.0921565 -0.29263407
000230 df 29 1f be 09 e8 8e 3d 9f b4 13 3f a7 06 90 be
       -0.15543316 0.06977851 0.5769748 -0.28130075
000240 aa ea 92 3e fb ea a2 bb 7f f2 df 3d 40 1f 28 be
       0.2869466 -0.0049718595 0.10934924 -0.16418171
000250 5d 87 96 bf 3d 03 47 be e7 e3 cd bb 5a 60 72 bd
       -1.176006 -0.19434829 -0.0062832716 -0.05917392
000260 e0 a0 48 3e e8 9f bf 3e 82 02 1b bf 3c 64 1c bd
       0.19592619 0.37426686 -0.605507 -0.03818153
000270 bb 02 9f 3e 9c c4 96 3d e7 2d 52 be 6e 57 07 3e
       0.3105677 0.07361719 -0.20525323 0.13216946
000280 62 de 7c 3e 24 b0 57 3d 91 f2 ca be f0 e6 0b 3f
       0.24694207 0.052658215 -0.39638188 0.5464926
000290 62 40 e8 bd e9 5d 0e 3e 8d 80 06 3f 9b f6 99 be
       -0.11340405 0.13903011 0.525399 -0.30070958
0002a0 95 04 6a be fd 1e cb 3d 32 48 a3 3d 43 14 10 bd
       -0.2285331 0.0991802 0.079727545 -0.035175573
0002b0 33 68 23 bf 8b c8 01 bf 6c 55 a4 3e 9d 1e 8c 3e
       -0.6383087 -0.5069663 0.32096422 0.27367106
0002c0 02 dd 23 3e 29 2d af 3e 61 5e a9 be 3b f2 4b be
       0.16002277 0.34214142 -0.33079818 -0.19916622
0002d0 39 57 c3 3e f6 5b d2 bd b2 ee 29 bf 53 65 9e be
       0.38152483 -0.102714464 -0.66379845 -0.3093668
0002e0 5d 8e 3a be 76 18 5b 3d 8e 0f 8b bd e1 6b 86 bd
       -0.1821837 0.053490125 -0.06790076 -0.06563545
0002f0 4b 4c 19 3e 7c 8a 60 3d ec 85 91 be 2e f4 fd 3b
       0.1497051 0.05481957 -0.28422487 0.0077500558
000300 00 66 aa bd b0 83 83 be 77 37 33 bf 28 92 1e 3f
       -0.08320236 -0.25686407 -0.7000651 0.61941767
000310 79 69 9c be e5 78 a3 3e a3 e9 a7 be 32 80 1c be
       -0.3054922 0.31928173 -0.32795438 -0.15283278
000320 82 89 77 3c 4f be 5a be 4c 0e d5 3e 8e b3 15 3e
       0.015108468 -0.2136166 0.4161247 0.14619276
000330 d1 3e 4a 3e 07 bc 2a bf 9a c4 da 3e b4 d1 b0 be
       0.19750525 -0.66693157 0.4272812 -0.3453499
000340 e0 7f 01 3f dd 2e 93 3e 8a 83 b0 3d cc 6c 1a bd
       0.50585747 0.2874669 0.08618839 -0.037701413
000350 19 4d df 3d 65 b0 9f 3d 7f 5f 83 3e ac f6 37 bd
       0.10903377 0.077973165 0.25658795 -0.04491298
000360 ec 4e a2 3e 40 8a 9d 3e 3e d0 3b bf 0a 7a fa be
       0.31700838 0.3076954 -0.7336463 -0.48921233
000370 b4 38 8a 3e 51 ac 73 be b9 1e 40 3d 64 b8 1a bf
       0.26996386 -0.23796202 0.0469043 -0.6043761
000380 1b 15 28 3e 15 2e 8c be cd 95 c2 be cd f9 56 3e
       0.16414301 -0.27378908 -0.38004914 0.20993729
000390 62 c4 43 bf 3b 5a bf 3e ba 1f 4f be d8 de 91 bd
       -0.7647153 0.37373528 -0.20226946 -0.07122582
0003a0 5d ac c0 be f4 c1 f1 bd fa f1 c6 3d 32 dc fc 3d
       -0.37631503 -0.11804572 0.09714122 0.123466864
0003b0 94 9b 13 bf 9e cb 4e bf 63 cb fc bd a0 ff c7 3e
       -0.5765927 -0.80779445 -0.123434804 0.39062214
0003c0 94 04 2f 3d 6f b1 b3 3e f9 3d d2 be 27 e6 3c bf
       0.042728975 0.3509631 -0.41062906 -0.73788685
0003d0 3b 5f 95 be 18 1c 2e 3e 1e bb 02 bf aa d2 1c 3e
       -0.29174218 0.17002904 -0.5106677 0.15314737
0003e0 35 10 32 be ce 22 ef 3e 5d 6e 79 be f8 6c 85 be
       -0.17388995 0.4670624 -0.24358507 -0.260597
0003f0 ec 0c d3 be b0 c9 25 be 13 bb c8 be 9c 46 94 be
       -0.41220796 -0.16190219 -0.39205226 -0.2896012

conv2.nn.bias f4 [1024]
000000 58 db 9c be e0 66 bf be aa 4f 05 3f 03 d5 33 be
       -0.30636096 -0.37383175 0.5207468 -0.17561726
000010 44 d2 83 be 1a f1 01 be cc b0 25 3e 3a 3b cd be
       -0.25746357 -0.12689629 0.16180724 -0.4008425
000020 b7 e5 4c be ab d4 ea bd a3 b6 f6 3b 0b 5e 70 3d
       -0.20009504 -0.114663444 0.007529096 0.058683436
000030 f6 7f d5 bd 26 de c8 3e 06 a2 43 3d fe a0 1a 3e
       -0.10424797 0.39231986 0.04776194 0.15100476
000040 ea 43 0b 3f 22 11 4e 3e f3 10 08 3f 82 ef 06 3e
       0.54400504 0.20123723 0.5315086 0.13177302
000050 81 69 2c 3e 24 31 93 be d3 df 0a 3f 62 58 dc 3e
       0.16837122 -0.2874843 0.5424778 0.4303618
000060 d9 70 e3 bd f5 82 00 bf 75 56 f8 3c 46 2c c1 bb
       -0.11105508 -0.50199825 0.030314663 -0.0058951704
000070 b5 34 dc 3e a6 5a 8b bd eb d3 27 3e e6 2c d8 3e
       0.43008962 -0.06804399 0.16389434 0.42221755
000080 2d 11 8c be fc b3 a6 be a0 46 fa 3d 98 83 c2 bd
       -0.27356854 -0.32559192 0.12220502 -0.09497756
000090 1d 92 7f 3e fc 62 bb 3e 7f 62 b1 be 1c 50 87 be
       0.24958082 0.36598957 -0.3464546 -0.26428306
0000a0 9d e6 72 be d3 08 62 3e 7f 43 3c be 8e 05 7f be
       -0.23720784 0.22073679 -0.18385123 -0.24904463
0000b0 19 11 36 3e e3 44 07 be e3 24 18 3e 1c d3 dd be
       0.1777996 -0.13209872 0.14857821 -0.43325126
0000c0 84 95 26 be c2 56 cb bd 30 2d 92 be b6 2e 81 3e
       -0.16267973 -0.09928657 -0.285501 0.2523095
0000d0 45 9b d1 bc b2 11 99 be b9 76 50 be 28 16 1c be
       -0.025586734 -0.29896313 -0.20357789 -0.15242827
0000e0 d5 ee 16 bf 46 ac 34 be 9b 76 b1 3e 80 8b 3c bd
       -0.5895818 -0.17643842 0.346608 -0.046031475
0000f0 69 10 15 bf 0e 60 a2 be d1 04 6a be 6e 67 a0 bd
       -0.58228165 -0.3171391 -0.228534 -0.07832228
000100 46 5e bf 3d d9 1e cd bd d0 a3 ac be d0 d1 86 3e
       0.09344153 -0.10015649 -0.3371873 0.2633195
000110 cf fa ba be 23 57 96 3c 06 0b 2d bf 90 10 89 3c
       -0.36519477 0.018352097 -0.67594945 0.01673153
000120 6f 79 5b 3e 15 2c 15 3e e6 9a 00 bf b7 48 ac bd
       0.21433042 0.14567597 -0.50236356 -0.08412307
000130 fa de b6 be ea 7e 0c bf 3d 1c ef be d9 27 8e bd
       -0.35716993 -0.54881155 -0.46701232 -0.06941194
000140 55 49 f3 be 45 b5 dc bc 87 c0 3e 3d df 6d ab 3a
       -0.47516885 -0.026941905 0.046570327 0.0013079009
000150 3c 82 6e be 2a 8f f3 be 5a 0b a5 be 90 e1 d0 3d
       -0.23291868 -0.47570163 -0.32235223 0.10199273
000160 7b e7 09 be 56 35 b6 bd 11 21 8f 3d bd 2d 04 be
       -0.13467209 -0.08896892 0.06988729 -0.12908073
000170 ef 2d 98 bc 0e f7 93 3e 6b 79 8b be f7 28 8f bb
       -0.01857659 0.28899425 -0.27241072 -0.004368897
000180 fc 81 75 be 85 90 04 bd ab 62 73 be ae fc 39 3e
       -0.23975366 -0.032364387 -0.23768108 0.18162796
000190 cc a5 e3 be 78 92 5b be 49 d8 50 be 08 ad 84 be
       -0.4446243 -0.21442592 -0.20395006 -0.25913262
0001a0 eb e7 b1 be 1a 92 89 be 0b d8 0a bf 07 84 b7 3e
       -0.34747252 -0.2686928 -0.54235905 0.35842916
0001b0 2f 84 cf be 28 52 8a be db 45 27 be 0b f1 ad be
       -0.40530536 -0.27015805 -0.16335241 -0.33972964
0001c0 d7 15 bc 3d e8 e3 06 3f 82 76 08 bf 97 93 f2 3d
       0.09183853 0.5269151 -0.5330583 0.11844557
0001d0 ac 70 5d 3e 3e 05 25 be 48 fd 86 bf a4 69 84 be
       0.21625012 -0.16115281 -1.0546045 -0.25861847
0001e0 2e e9 aa 3e db ac f4 3d b7 a4 72 3e 0c d1 18 3d
       0.33381027 0.11947032 0.23695646 0.037308738
0001f0 f4 20 aa 3d 41 9c 69 3e 0a 42 8c bc a4 38 08 bf
       0.083070666 0.22813512 -0.017121334 -0.53211427
000200 ad a4 52 3e 91 9f e2 3e a1 ff 90 be 4a c7 a3 3e
       0.20570631 0.44262365 -0.2832003 0.31987983
000210 36 12 b4 be 30 f4 04 bf 9e 61 41 3d 48 95 67 3e
       -0.35170144 -0.519351 0.047212236 0.2261554
000220 f1 90 bb 3e 55 ed 64 bd 8d 63 08 3d c0 5b 0e 3e
       0.3663402 -0.0558904 0.033298064 0.13902187
000230 e8 16 2c 3e 75 c2 4c be 4a cf ba 3d 86 88 e4 3d
       0.16805613 -0.19996054 0.091215685 0.11158852
000240 e1 fa 24 3e 20 e2 b8 3e 2a 9b b0 be c7 8c 6c bd
       0.16111328 0.3611002 -0.3449338 -0.057751443
000250 0f ff bf 3e fc 7f 00 3f 08 17 7e 3d 72 6c 3f be
       0.37499282 0.5019529 0.062033683 -0.18693712
000260 ec 6f a8 bd f8 a2 e2 bd be c3 bc be e4 d7 48 3c
       -0.082244724 -0.1106624 -0.3686809 0.012258504
000270 dd a0 db be 08 f9 ac 3c 15 c6 33 be 09 c3 d0 3e
       -0.42896166 0.021114841 -0.17556031 0.407738
000280 8c 25 3c be f8 16 91 be 43 1c 03 be a7 62 07 3e
       -0.18373698 -0.28337836 -0.1280375 0.13221227
000290 d5 5d f8 bd 72 71 1b 3e cd d7 70 bd 09 f0 a0 be
       -0.12127272 0.15179995 -0.058799554 -0.31433132
0002a0 3f 96 94 3e 9e 34 a5 3d ac 0c 7c be 4a 04 24 3e
       0.2902088 0.080666766 -0.24614209 0.16017261
0002b0 e7 06 14 3e a4 30 f4 be 2d 6d 83 3e 7b 55 41 3e
       0.14455758 -0.4769336 0.25669232 0.18880264
0002c0 fe 80 7a be 41 85 93 3e 29 4a 0a bf a2 ae cb be
       -0.24463269 0.28812602 -0.5401941 -0.39781672
0002d0 74 f9 e8 3e 00 56 83 3e e9 68 85 3e a2 30 a6 3e
       0.45502818 0.2565155 0.26056603 0.3245898
0002e0 a5 42 94 be e8 82 d0 bd 29 fa 8f bd 6c 31 cb 3e
       -0.28957096 -0.101812184 -0.07030136 0.39686143
0002f0 94 1c e8 be 90 b5 dc be ce 25 df be 02 02 1b bf
       -0.45334303 -0.4310727 -0.4358353 -0.6054994
000300 9c 24 64 be e1 a8 24 3d 1c 13 da be e0 04 1e 3e
       -0.2227959 0.040200118 -0.42592704 0.15431547
000310 29 7e bf bd 62 d5 bb 3e d7 23 8c be 40 39 f9 3d
       -0.09350235 0.36686236 -0.27371094 0.12169123
000320 41 93 61 bd 18 2c df 3e 5a 55 d5 be 38 b7 a0 3e
       -0.055072073 0.43588328 -0.4166668 0.31389785
000330 19 1f 4c be 11 7c 27 bf ec 80 12 be f7 5e 32 be
       -0.19933738 -0.65423685 -0.14306992 -0.17419039
000340 86 1a 7a be 06 b0 a7 3d 44 e3 87 be f1 df b4 3e
       -0.2442418 0.08187871 -0.26540577 0.35327104
000350 e8 9c ef 3d 74 d8 fd bd d7 fa 60 3c 2d f8 de be
       0.11699849 -0.12394801 0.01373168 -0.43548718
000360 43 08 d8 be ab 25 23 bd f4 4b ac 3d 25 50 dc be
       -0.42193803 -0.039830845 0.084129244 -0.43029895
000370 ee 29 be 3d 9e 3f b1 3e 3f 6b 32 bd a5 5b 1f bf
       0.09285341 0.3461885 -0.04355931 -0.62249213
000380 cc 06 bb be c9 4c 2d 3b 7d 28 04 be a1 5f f2 3e
       -0.36528623 0.0026443473 -0.1290607 0.47338584
000390 7a 10 8f 3d 96 1f 3b be d3 e9 08 bd 57 4f 76 3e
       0.069855645 -0.18273768 -0.033426117 0.24053703
0003a0 19 5c 98 be c9 fe 0d bf db fe 12 3e 32 6a b4 3d
       -0.29757765 -0.55466896 0.14355032 0.08809318
0003b0 40 67 44 3e a9 27 4a be 5e dd c3 be a1 49 94 3e
       0.19180012 -0.19741692 -0.38254827 0.28962424
0003c0 2a e4 ad be 9d 49 b6 be e9 71 8c be 7b 56 bc 3e
       -0.33963138 -0.35603037 -0.27430657 0.3678473
0003d0 25 33 f3 3e db 05 a5 3c 1e a3 d6 be b3 7d b9 3e
       0.47499958 0.020144394 -0.41921324 0.36228713
0003e0 ef 5e a8 be a6 02 a8 be 7f 85 b2 3e 06 86 5e be
       -0.3288493 -0.3281452 0.34867474 -0.21730813
0003f0 39 e7 73 bd 2a b9 0a 3f 31 bb ed be 0c 90 5b 3e
       -0.059546683 0.5418879 -0.46431878 0.21441668

conv2.lin.weight f4 [32, 32]
000000 cb 4c c3 3d 03 a2 8f be cc 07 e8 3c 6e aa 61 bc
       0.095361315 -0.28053293 0.02832403 -0.013773544
000010 01 34 ff 3d b9 db 77 bd fd 5f 01 3e ca 7f c6 be
       0.12461091 -0.06051228 0.12634273 -0.3876937
000020 9a ac 3e be 0c 8e 13 3d fc ce 2f 3e 0b c4 f1 be
       -0.1862053 0.03602414 0.17168802 -0.4721988
000030 83 dd 2c be 6d d0 46 be 16 c2 cb 3d 12 f6 e7 bc
       -0.16881375 -0.19415446 0.09949128 -0.028315578
000040 5e ab 79 3e de 86 4e be 21 32 2b 3e 7a 9f c6 bc
       0.24381778 -0.20168635 0.16718341 -0.024245966
000050 9e f2 24 3d b9 ac 7c be 72 a2 4c 3e ce 77 e0 bd
       0.04027044 -0.24675263 0.19983843 -0.10960351
000060 98 6a 08 3e 6c 32 79 bd 6c c0 82 bd 27 a6 6b bb
       0.13321912 -0.0608391 -0.06384358 -0.0035957189
000070 6c fe 9c 3c aa 1e 4e be a9 d4 fb 3a c0 d8 20 3e
       0.019164287 -0.20128885 0.0019213158 0.15707684
000080 3c 14 9a 3d 87 98 74 3d a6 09 c0 bd df 21 2e be
       0.07523391 0.059715774 -0.0937684 -0.17005108
000090 6c 32 1a bd 53 51 20 be 5e eb ad bd 1c e7 4b 3e
       -0.037645742 -0.15656023 -0.08492158 0.1991238
0000a0 b1 3a 1b 3e 2a f5 02 be ea fd 8b 3c aa 83 93 3e
       0.15159108 -0.12788835 0.01708885 0.2881139
0000b0 99 1e a7 bd 79 71 83 3e 26 88 5b bd a8 ab af bc
       -0.08160133 0.2567251 -0.05359664 -0.021444157
0000c0 eb 0b 01 3e e6 c2 cb bd 7f 65 2d 3d bc 0c 2c 3d
       0.12602203 -0.09949283 0.042333122 0.042004332
0000d0 94 7f 4b 3d ea 3e 49 3b c3 17 9d be ba 09 3a ba
       0.049682215 0.0030707666 -0.3068219 -0.0007096786
0000e0 14 97 bc bd b2 a0 9f bd 3d ab 02 be 3f 77 83 3c
       -0.09208503 -0.07794322 -0.12760635 0.016048072
0000f0 8f 8b ff 3c 79 ec c1 bd 0d fe 9d be ad 92 04 3e
       0.031194476 -0.09468932 -0.30857888 0.12946577
000100 6a ab 64 3e 73 33 76 be 1d db 7d 3e 8e 3e 39 3e
       0.22331014 -0.24043064 0.24790616 0.18090269
000110 36 cc 68 3e 23 a2 52 bd 5d 0b 34 be 10 3f 43 3e
       0.2273415 -0.051424157 -0.1758246 0.19067025
000120 3c f3 3a 3e c2 4c 2d 3e 59 ef 8b 3e f2 3e ff 3e
       0.18256849 0.16923812 0.27331045 0.4985271
000130 2a 36 28 3b f7 4b be 3e 33 91 98 3c 77 d2 4d 3e
       0.002566705 0.37167332 0.018623924 0.20099817
000140 7d 87 28 3e ff 50 c0 bd 8f 16 86 3e ee 90 88 3e
       0.16457935 -0.09390449 0.26189086 0.26673073
000150 b6 1f 31 3e 9b a9 5a 3e 10 38 79 3e 4b 99 29 3d
       0.17297253 0.21353762 0.24337792 0.041405957
000160 39 72 31 3e 7f cc 1f 3d 96 a3 01 be da c4 13 3e
       0.17328729 0.039013382 -0.1266006 0.14430562
000170 a1 7c a1 3d 92 34 63 be 64 f5 08 be f8 91 1c 3d
       0.07885099 -0.22188023 -0.13374859 0.038225144
000180 ac ad a7 bd 79 a2 d9 bc 1a ca 53 3e b9 73 c6 3d
       -0.08187422 -0.02656673 0.20682564 0.09690041
000190 a1 20 25 be b5 8e 16 3e c7 29 d5 3d a8 0d 2e bc
       -0.16125728 0.14702876 0.10408359 -0.010623373
0001a0 44 e5 e9 be ea e7 1c 3b be ff 26 bc dd 92 b9 bd
       -0.45682728 0.0023941942 -0.01019281 -0.09061215
0001b0 a9 e4 87 bd d9 b0 9f bc 93 cd 0b be 3a a0 03 be
       -0.0663541 -0.019493507 -0.13652639 -0.1285409
0001c0 f6 41 0e 3d 52 3e 36 3c a8 e1 6a bd 93 36 76 bd
       0.034730874 0.011123257 -0.05734411 -0.06011064
0001d0 c3 a8 11 be 9b f7 ec be 86 7d 17 be 74 29 c4 bd
       -0.14224534 -0.46282658 -0.14793977 -0.09578219
0001e0 47 92 0d 3e a4 47 c6 3b 28 31 21 3d ba e2 f4 bd
       0.13825332 0.0060510207 0.03935352 -0.11957307
0001f0 e3 4a 0b be aa a6 bd 3d e9 65 03 be 28 28 7c be
       -0.13602786 0.09260304 -0.12831844 -0.24624693
000200 f4 f2 aa 3d d8 fc df 3c f4 1e 8e be 2a a1 c6 bb
       0.08347121 0.027342245 -0.2775799 -0.0060616927
000210 9b 07 d8 be ce bc a2 3d 8e 7f 1a 3d cf c5 d9 be
       -0.42193303 0.07946168 0.037719302 -0.42533728
000220 9f 08 2f 3f da 03 62 bc ac 34 a6 bc 7c e6 c6 bd
       0.6837253 -0.013794864 -0.020288788 -0.0971193
000230 54 24 94 3d 2a b0 49 bd f6 61 25 3d fb 0d 0b bd
       0.072334915 -0.04924027 0.040376626 -0.03394888
000240 c8 2f 65 bd fd e4 ac 3c 61 7a 75 bd 65 d0 83 bd
       -0.05595377 0.021105284 -0.059931163 -0.064362325
000250 42 04 2c 3c 9e 2e 92 3d 67 30 e2 bc e9 ee ea 3d
       0.010499062 0.07137798 -0.02761097 0.1147135
000260 30 2d e9 3d 00 10 cc 3d 3e 4c 8e 3d a4 27 8a bd
       0.11385572 0.09963989 0.06948136 -0.06745842
000270 15 dd 3d bd 9f cf 9c 3d a0 a5 8d be 05 72 1a bd
       -0.04635342 0.07656788 -0.27665424 -0.037706394
000280 5a f5 5e be 7a c9 38 3e 40 3c 14 3d 26 8f c6 bd
       -0.21773282 0.18045607 0.03619027 -0.09695272
000290 a6 e1 da 3d 7d 37 c4 3c 4c 9b 54 3d c1 55 91 3e
       0.1068757 0.02395224 0.051905915 0.28385738
0002a0 0f 0d 01 bf 45 71 93 3d 23 7a 4c be 1a 51 64 bd
       -0.5041055 0.07199339 -0.19968466 -0.055741407
0002b0 48 42 11 3e cf 47 b9 bc 58 64 f5 bd b3 07 48 bd
       0.1418544 -0.022617249 -0.1198203 -0.048835468
0002c0 04 73 46 be b8 2a 97 3e 33 a6 47 bd 9f 0a 30 be
       -0.19379812 0.2952478 -0.048742484 -0.17191552
0002d0 94 f4 c8 bd 9b f2 b9 be 70 78 80 be 68 15 0d bd
       -0.098122746 -0.36317906 -0.25091887 -0.034444243
0002e0 f3 01 03 3e 86 65 24 be 99 ce 8f 3d af a1 0d be
       0.12793712 -0.16054353 0.07021827 -0.13831209
0002f0 9d 12 1b be 7b a8 ad 3d 23 7f ca 3e db c5 7d be
       -0.15143819 0.08479401 0.39550123 -0.24782507
000300 e8 ed 59 3d 09 f1 34 3e 0c d7 b5 be 47 07 4a bf
       0.0532054 0.17670073 -0.3551563 -0.78917354
000310 e5 c1 7f be ea b7 15 3e 0a 91 12 3e bf 3b e2 bd
       -0.24976309 0.14620939 0.1431314 -0.11046552
000320 f4 1b c0 3e da df 71 be 82 1b 0a be 08 4d 3a be
       0.37521327 -0.23620549 -0.13487056 -0.18193448
000330 f8 d6 35 3e 08 af 47 be 51 84 2e be 1d e7 12 bd
       0.17757785 -0.19500363 -0.17042662 -0.035864938
000340 dd a4 59 be bc 0d 29 3e a1 1c 2f be 7e c0 9e bd
       -0.21254297 0.16509145 -0.17100765 -0.07751559
000350 eb 0e bf 3c 29 e6 a0 bd 27 63 c6 3c 4f a7 81 bd
       0.023322543 -0.078563996 0.024217201 -0.0633074
000360 af 80 0a 3d 6d d1 1f bc 3e cf 43 be 79 5f 87 bd
       0.03381413 -0.009754521 -0.19122025 -0.06610007
000370 20 bc d6 bc 1b 1c d9 3d 6f 49 55 3e 9c ce 46 be
       -0.026212752 0.10601064 0.20828794 -0.19414753
000380 d2 f1 c9 bc da 5b a7 3e dd 23 38 be a4 17 10 be
       -0.024651442 0.32687265 -0.17982431 -0.14071518
000390 54 46 0a bf 39 15 83 3d 05 f5 e2 3d 9c 4b 43 3d
       -0.5401356 0.06400532 0.1108189 0.04767953
0003a0 1b f1 b8 3e 93 46 f5 be b1 04 df 3d 59 14 6e be
       0.3612145 -0.47905406 0.10889567 -0.2324995
0003b0 f8 53 26 bc 99 b8 18 bf 07 77 73 be 52 a4 a8 3c
       -0.010151856 -0.59656674 -0.23775874 0.020586167
0003c0 c9 bd 87 bd 78 c6 92 3b 8f b6 61 3d 40 7b fb 3c
       -0.066279955 0.0044792257 0.055105742 0.030698419
0003d0 f1 32 14 3e e7 fa b1 bd f0 2e b6 be ca f7 40 3e
       0.14472558 -0.08690434 -0.35582685 0.18844524
0003e0 70 53 17 be 1e 65 51 3d 51 29 01 be d2 c2 37 bd
       -0.14777923 0.051121823 -0.12613417 -0.04486353
0003f0 ac 7a 6a bd 46 c4 23 3e 58 fc a1 be db 0e 24 bb
       -0.057245895 0.15992841 -0.31637836 -0.0025033269

conv3.bias f4 [32]
000000 fc 52 83 be 9e d9 f6 bd 46 17 0c bd a0 4b 13 3e
       -0.2564925 -0.12053226 -0.034201883 0.14384317
000010 6c 07 e7 bb c2 85 ff bd 3f 10 45 3e 93 71 6d be
       -0.0070504453 -0.12476684 0.19244479 -0.23187856
000020 da ac eb 3e c1 b7 3f bd 92 b0 b2 be 45 8b 14 be
       0.46030313 -0.0468061 -0.34900337 -0.14506252
000030 65 35 44 be 76 68 e8 bd d2 60 1d be 7a a8 bb bd
       -0.19160993 -0.11348049 -0.15368965 -0.09162994
000040 8a c5 6d be 8e 09 15 be 3f 8a 77 bd 56 37 07 bc
       -0.23219886 -0.14554426 -0.060434576 -0.008252939
000050 f3 f7 3a bd f1 23 39 be d0 1a 24 3e d6 7a 15 bb
       -0.04564662 -0.18080117 0.16025853 -0.0022808812
000060 40 ba 61 be 40 dd 6c bd ce e1 ed 3d 50 7e d4 bd
       -0.22043705 -0.057828188 0.116153345 -0.10375655
000070 8c b6 b5 be b2 73 3e be 71 6d 2a 3f 27 9d 5f bd
       -0.35490835 -0.18598822 0.66573244 -0.05459323

conv3.nn.weight f4 [1024, 2]
000000 2f dc 0f be 10 fc ce 3e 68 8a bc be 40 20 66 bd
       -0.14048837 0.40426683 -0.36824346 -0.0561831
000010 e7 0f 1a 3f 87 95 73 bd bb 33 a5 bc d5 04 79 3d
       0.60180515 -0.059468772 -0.020166269 0.060795624
000020 68 9d 5a 3e ac fd ab 3e b9 d2 dd 3e 89 49 15 3e
       0.21349108 0.33591974 0.4332483 0.14578833
000030 64 0f 57 bc ab 06 f3 3d 9b 07 13 3f 22 4f 8d 3e
       -0.013126228 0.11866506 0.5743348 0.27599436
000040 e3 31 99 be 8b 6f 87 3e dc 24 27 3f e6 a1 c1 be
       -0.29920873 0.26452288 0.6529062 -0.3781883
000050 cc 3f 7f be 2d 00 84 3e 70 ae 97 3d cc 15 4f 3d
       -0.2492668 0.25781384 0.07406318 0.050557896
000060 01 c4 c8 3e d8 e2 bf 3e 9f c1 db 3e e3 5d 23 3f
       0.3921204 0.37477756 0.4292116 0.63815135
000070 97 37 8e 3e 29 9b af bd b7 0d e5 be b9 29 11 3f
       0.27776787 -0.08574516 -0.44737026 0.5670429
000080 2f 85 ba bd 96 c6 b6 3d c5 5b 78 3e 43 bf 33 3e
       -0.09107434 0.08924596 0.24253757 0.1755343
000090 34 76 dd be 3f 76 f6 3e 84 af 26 3e c3 1b 18 3f
       -0.43254244 0.4813709 0.16277891 0.5941736
0000a0 ed 40 8b be 89 c6 c4 be 44 19 2b 3f f2 df 0e 3d
       -0.27197972 -0.3843272 0.6683543 0.03488154
0000b0 06 da f4 bd 0e a3 85 3e 7f b5 38 be fe 08 49 3e
       -0.11955647 0.26100963 -0.18037985 0.19632336
0000c0 b8 3b 53 3e e4 e6 bd 3e 1d 98 5e bd 93 01 4c be
       0.2062825 0.37090218 -0.054344285 -0.19922476
0000d0 f3 54 88 3e b7 a3 b6 be d7 60 4b be 83 d4 85 3e
       0.2662731 -0.3567178 -0.1986116 0.26138696
0000e0 9d d6 dc be b3 cb b3 3d b5 72 18 be cb a8 c8 3d
       -0.43132487 0.08779087 -0.14887507 0.0979782
0000f0 a3 9b fc bb 18 aa b9 3e 1e d0 ba 3e bc 36 2b be
       -0.007708983 0.36262584 0.36486906 -0.16720098
000100 08 c8 e1 3e ab b7 47 3f 0d 2d 02 3e 39 a2 68 3d
       0.44097924 0.7801463 0.12712498 0.056795333
000110 f0 bd 92 bc aa 51 96 3d ef 4e eb 3d 53 af 77 3e
       -0.017912835 0.07339795 0.11489665 0.24187975
000120 c2 32 b4 3e c9 57 c6 bc 88 f5 35 be 2e 03 b9 be
       0.35194975 -0.024211781 -0.17769444 -0.36135238
000130 5f 49 0d 3f 9f 65 ea bd 7b 3d 07 3e ea 1c 75 3e
       0.5519008 -0.11445164 0.13207047 0.23936811
000140 8d a7 1d 3d ca 87 ad be 07 e5 57 3e 08 b5 37 3e
       0.038489867 -0.3389266 0.21083461 0.17940152
000150 22 7b b8 3e 04 17 d1 3e b7 44 17 3f 06 c6 97 3e
       0.36031443 0.40837872 0.59089226 0.29643267
000160 24 31 d5 3d 41 a1 77 3e 67 48 0a 3f b7 38 9b 3e
       0.104097635 0.24182607 0.5401673 0.30316707
000170 04 1e 4a 3f e0 01 de 3e 49 3f 22 bc 45 81 33 bf
       0.7895205 0.43360806 -0.009902784 -0.70119125
000180 1a 58 98 3e 73 b4 1e 3d fb 95 6c 3d 39 1f 6b be
       0.29754716 0.03874631 0.05776022 -0.22961129
000190 52 bc 9a bd 3e 0a aa be 09 15 29 be 1e a9 64 be
       -0.075554505 -0.3321094 -0.1651193 -0.22330138
0001a0 ca 37 30 bd e5 c3 88 be c0 eb 31 be 45 da a8 bc
       -0.043021955 -0.26711956 -0.17375088 -0.020611892
0001b0 d6 71 7d bc 9c 4d 9f 3c 7c 6a f6 3e 39 e2 81 bc
       -0.015469035 0.019446187 0.48128116 -0.015854942
0001c0 45 45 7f bd e4 2a 43 bd d6 8b 2d 3e 96 91 f4 3e
       -0.06232192 -0.047648326 0.16947874 0.47767323
0001d0 b2 69 8b 3e bd 5b c2 3e ee f4 5e bd 44 3c 33 3e
       0.27229077 0.37960616 -0.054432802 0.17503458
0001e0 44 da 25 3e 89 57 24 3f 72 23 d2 be ca 5b 19 3f
       0.16196543 0.6419607 -0.41042668 0.59905684
0001f0 de 38 1a be 38 ac 91 bd fc 1d c4 be 43 39 53 bd
       -0.15060756 -0.07112926 -0.38304126 -0.05156828
000200 e4 6b 8b 3e e6 b1 e8 3d 64 a9 6e bd 2e 3a 2c bd
       0.27230752 0.113620564 -0.058267012 -0.042047672
000210 be 29 ac 3e 37 4d 8e bd 79 3c 3a bd 06 5c 97 be
       0.33625597 -0.06948321 -0.045467827 -0.29562396
000220 81 2f 5f 3d cf 1a c3 bd 67 5c e7 3e b1 e2 69 be
       0.054488663 -0.09526598 0.45187685 -0.22840382
000230 4a c7 c5 be cf 2e 27 be 8b 02 ef 3e 42 84 e0 be
       -0.38628608 -0.1632645 0.46681628 -0.43850905
000240 43 5f be be 81 08 3b be 43 aa 35 be b4 bc a3 3e
       -0.37182054 -0.18264963 -0.17740731 0.31979907
000250 2a 03 b4 be 22 fe 9d be 0d 9d bf bd 14 01 c7 bc
       -0.35158664 -0.3085795 -0.09356127 -0.024292506
000260 27 93 e8 3e 90 c1 c7 3d b6 e7 38 3d d6 8f 20 be
       0.45424768 0.09753716 0.04514285 -0.15679869
000270 11 da ea 3e 24 ff 02 bf 95 4d 84 3e de 79 13 be
       0.45869496 -0.51170564 0.2584044 -0.14401957
000280 8c 44 16 3f 7b bd 10 3f 0b f9 a7 3e 20 c5 eb 3d
       0.58698344 0.56539124 0.32807192 0.11512208
000290 b6 b7 fc 3e db f8 94 3e ba 59 63 3e 35 64 05 3f
       0.4935891 0.29096112 0.22202197 0.5210603
0002a0 62 c4 68 be 4d e7 86 3e 81 80 85 3e 90 3e af bc
       -0.22731164 0.26348343 0.26074603 -0.021392137
0002b0 f7 70 8a 3d 3e 25 20 3f bf 62 e5 3e 62 36 7d be
       0.067598276 0.6255683 0.448019 -0.24727777
0002c0 1d 21 c3 3e fc e1 0b 3e 04 d6 28 be 5a d7 99 3e
       0.381112 0.13660425 -0.1648789 0.30047113
0002d0 63 f1 47 3e 14 44 13 be c1 4d 67 bd ac 35 ee be
       0.19525675 -0.14381438 -0.056470636 -0.46525323
0002e0 3f 62 66 3d 7c c4 b8 3c 01 1d af 3e 7c 36 37 3e
       0.05624604 0.022554629 0.34201816 0.17891878
0002f0 2f 13 10 be e0 5e b4 3e 9c 6e 9b be ab 4f a3 bd
       -0.14069818 0.35228634 -0.30357826 -0.0797418
000300 a3 01 bb 3c 4c f4 a4 be c7 74 58 be 29 ec b9 be
       0.022827929 -0.32217634 -0.21138297 -0.36312988
000310 43 e6 1d be 99 48 ca bd f1 00 ed be 63 96 d4 3e
       -0.15419869 -0.09877128 -0.4628978 0.41520986
000320 6c 05 86 be 68 cd 9f 3d 49 89 4c 3e e8 64 65 be
       -0.26176012 0.0780285 0.19974245 -0.22401774
000330 e1 35 78 3e 5d c1 d8 be 44 f9 d3 bd 6d 2b 78 be
       0.24239303 -0.42335024 -0.10350278 -0.24235316
000340 15 a9 75 be dd 1d ff 3e c5 a6 07 bf 8a c4 01 3f
       -0.23990281 0.4982747 -0.52988845 0.5069052
000350 73 52 b2 be b6 8c 0b 3e bc ca 80 be cc 91 48 be
       -0.3482853 0.13627896 -0.25154674 -0.19586867
000360 c6 e0 38 bd 81 2a 28 be 89 fc b5 bd 57 b4 01 bf
       -0.045136236 -0.16422464 -0.08886058 -0.506658
000370 b8 80 aa be 40 96 e7 3e 27 21 84 3d 39 68 32 bf
       -0.3330133 0.4523182 0.06451636 -0.6969028
000380 70 fd df bd e2 e8 f6 be c8 76 5c 3e 5f 55 20 3e
       -0.10937011 -0.4822455 0.21529686 0.15657566
000390 02 9c dc bd f5 e2 0d bf 45 7e 7d bb 5e cd 90 3e
       -0.10771944 -0.55424434 -0.0038679999 0.28281683
0003a0 ce 62 97 be 30 bc 0d be ed 11 03 bf dc 14 46 be
       -0.2956757 -0.13841319 -0.5119923 -0.19343895
0003b0 37 3a ba be 13 17 a6 bd c1 5d 9c bd 72 d8 13 bf
       -0.3637254 -0.0810987 -0.0763507 -0.57752144
0003c0 1d 87 cc be 74 04 30 be 7e dc 53 3d 50 17 29 bd
       -0.39946833 -0.17189199 0.05172395 -0.041282
0003d0 c2 7d e7 be de da 22 bf 4d 90 93 bb 82 08 0a bf
       -0.45213133 -0.63615215 -0.004503286 -0.5391923
0003e0 01 f1 4b 3e 01 7c c3 3e 3a c6 8a be a1 82 af 3d
       0.19916154 0.38180545 -0.2710436 0.08569837
0003f0 b2 2a 40 3d f4 fe 8c bd 36 47 85 bb 4d 88 1a be
       0.046915717 -0.06884566 -0.004067327 -0.15091057

conv3.nn.bias f4 [1024]
000000 15 7e 8c 3e 90 0d fb 3d 7a 76 ba 3e 3f e5 06 3e
       0.27439943 0.12258446 0.36418515 0.13173388
000010 f5 d9 8c 3e 38 ca f7 3e 2e aa e6 3e 9c 47 ee 3e
       0.27510038 0.48396468 0.45051712 0.4653901
000020 34 d5 10 bf 4a 59 ab be 46 bb 99 be 3d fc 2b 3e
       -0.5657532 -0.3346656 -0.3002569 0.1679544
000030 3a 06 e8 3e 33 41 cb 3e 18 b0 f9 3e 68 68 3a bd
       0.4531725 0.3969818 0.4876716 -0.045509726
000040 00 97 08 3f 0b 7d 60 be 97 25 2e be 6b b4 01 3f
       0.5335541 -0.219227 -0.17006527 0.5066592
000050 67 d1 c1 3c c8 df 08 be f0 79 f7 3d 80 28 77 3e
       0.023659421 -0.13366616 0.120838046 0.24136543
000060 33 e1 c1 3e d3 5c de 3e 45 8f 13 3e f1 99 d4 3d
       0.37867126 0.43430194 0.14410122 0.103809245
000070 93 ef 85 bd 5c 1d 81 3e 2e b2 5a 3e fb b7 08 bd
       -0.06539836 0.25217712 0.21357033 -0.033378582
000080 80 48 39 3f 03 99 a2 be 80 f5 40 be cd a0 b9 3e
       0.7237625 -0.31757364 -0.18843651 0.36255494
000090 f2 48 80 3e f4 03 93 be 01 c1 85 bd ea 37 42 bb
       0.25055653 -0.28713953 -0.06530953 -0.0029635378
0000a0 5a 51 57 be b8 25 81 3e 86 f8 ef be 15 b1 20 3f
       -0.21027127 0.2522409 -0.46869296 0.62770206
0000b0 fc 11 08 3f 42 1e a3 3d c4 9e 83 3e 57 5f 1d bf
       0.5315244 0.079647556 0.25707066 -0.614736
0000c0 ac 3f b3 3e 95 4f e4 3e c2 4a b1 3e 5a 64 90 3d
       0.35009515 0.44591966 0.34627348 0.070503905
0000d0 a6 4b 0f 3f 1c 02 ae be 88 c0 80 be 47 f8 e4 be
       0.55974805 -0.33985984 -0.2514689 -0.4472067
0000e0 d8 ce d4 bd b1 0d 2f 3e 85 1c bd be a6 03 11 bd
       -0.10391015 0.17095067 -0.3693582 -0.03540387
0000f0 b9 ab 65 3e d1 ec 6b be 95 c6 e1 be e2 8d b9 be
       0.22428788 -0.23039557 -0.4409682 -0.3624106
000100 89 5f ae bd ca 3c 56 be 25 1c 4b 3e 5c 8b b0 3e
       -0.08514316 -0.20921627 0.19834955 0.34481323
000110 06 21 7e bc 29 f7 b0 3e 5d f6 28 3c 0a c9 c2 be
       -0.015510803 0.34563568 0.010312644 -0.38044006
000120 a9 01 3a be 97 4e 72 3e 87 02 4c 3e b1 a5 a2 3e
       -0.18164696 0.23662792 0.19922839 0.31767038
000130 5b 9e 09 3f 82 f4 07 3e 3c 44 c3 3e 03 99 93 3e
       0.53757256 0.13276866 0.38137996 0.28827676
000140 3c 23 3c bd 38 e1 b8 3e 01 4e c5 3d ab f1 84 be
       -0.04593204 0.36109328 0.09634019 -0.25965628
000150 7d 40 6d 3c 91 c8 cd 3b 76 3d 85 bd 06 ef 9c bc
       0.014480707 0.006280013 -0.06505863 -0.019156944
000160 26 05 31 3e e8 b6 a8 3e 4e bd b7 bd e7 ee 51 3c
       0.1728712 0.32952046 -0.08971654 0.012813306
000170 b9 d3 fb bc 38 fd d3 be 5c 76 c1 be 26 2e 78 bd
       -0.030740606 -0.41404128 -0.37785614 -0.060590886
000180 df be 3f be cc c5 99 3e f1 49 72 be 68 81 74 bd
       -0.18725155 0.3003372 -0.23661019 -0.059693724
000190 74 f1 db 3d 16 64 37 bf cc da e5 be 2c 0d 7b be
       0.10739413 -0.71637094 -0.4489349 -0.24516743
0001a0 dc 5d 82 bd cb fc 78 bd a9 56 83 bb 44 7d ed bd
       -0.063655585 -0.060787957 -0.0040081334 -0.11596158
0001b0 ff 32 a8 be bb 35 6a be 23 cf 9b 3e 4a 19 d4 bc
       -0.32851407 -0.22872059 0.3043147 -0.025890965
0001c0 72 28 60 3e a5 2e 84 be f3 b8 7a 3e 70 26 7a be
       0.21890429 -0.25816837 0.24484615 -0.24428725
0001d0 96 e2 fb be 77 ff f7 be fd 33 9c 3e ab 0b ef 3d
       -0.4919631 -0.48437092 0.30508414 0.11672147
0001e0 0e bc 90 be b4 d5 a0 be 6b 2c f3 be f2 b1 ba 3d
       -0.28268474 -0.31413043 -0.47494826 0.091159716
0001f0 9d 8f 22 39 4e 9e 87 bd a0 20 b8 be 80 70 a2 bd
       0.00015503024 -0.06621991 -0.3596239 -0.07931614
000200 96 38 2e bf 3a 23 93 3e 03 72 92 3e d1 70 07 bf
       -0.68055093 0.28737813 0.2860261 -0.5290652
000210 e4 6e 75 3e ba b1 ab 3e d7 de 2a be cb 99 b7 be
       0.23968083 0.33534032 -0.16686569 -0.35859522
000220 3d c5 b8 3c 71 c7 a9 3e c1 87 70 3e e5 3a 8a bb
       0.022554988 0.33159974 0.23489286 -0.0042184466
000230 fe 17 47 3e 06 ba 7d 3e 1c 89 c2 be f2 eb da bc
       0.19442746 0.24777994 -0.3799523 -0.026723836
000240 cf 10 05 be 00 23 4e bd d4 26 e2 3e 62 43 84 be
       -0.12994693 -0.050326347 0.44170249 -0.2583266
000250 6a 22 55 3e b7 35 95 3d 40 b9 74 be 06 95 27 bf
       0.20813909 0.07285636 -0.23898792 -0.65461767
000260 61 52 6e bf c5 f1 06 3f fb 77 4d 3e 93 0b 8a be
       -0.9309445 0.5271266 0.200653 -0.26961955
000270 01 92 db 3e ff 39 89 bf 12 07 98 be 39 1f 1b 3f
       0.4288483 -1.0720824 -0.29692894 0.60594517
000280 e0 88 25 3e d2 35 a9 be 63 d6 30 be 9b 2b 5f 3e
       0.16165495 -0.33048874 -0.17269282 0.21793978
000290 35 67 be 3e 90 1d 11 bf 11 39 75 bc 82 20 44 bd
       0.37188116 -0.56685734 -0.014967219 -0.047882564
0002a0 08 83 95 3e 9c b3 2b 3e ff d4 bb 3e 96 a1 ae 3e
       0.2920153 0.16767734 0.3668594 0.34107655
0002b0 e5 2e 7d be 22 27 98 3d 4f 83 28 3e 2e 43 ff bd
       -0.2472492 0.07429339 0.1645634 -0.124639854
0002c0 b8 13 6d be cd c0 e5 bd 96 2e c7 be 39 9c 30 be
       -0.23152053 -0.112184145 -0.3890273 -0.17247094
0002d0 24 e9 a7 be b2 24 56 bf 93 5f 49 3e a3 e5 b9 bd
       -0.3279506 -0.8364974 0.19665365 -0.09077003
0002e0 e0 b4 45 be 3c 02 d2 3d 9b 64 2a 3e 31 eb cc 3e
       -0.1930728 0.102543324 0.1663994 0.40023187
0002f0 66 53 3b be 19 61 cc 3d 2e 05 37 3e 9a a0 65 bd
       -0.18293533 0.099794574 0.1787307 -0.056061365
000300 90 3b 00 bd 16 47 e6 3e c4 ab 9c bd 35 3f c2 3d
       -0.031306803 0.4497611 -0.07649949 0.09484712
000310 f8 89 9f 3e ce 42 10 bd 30 e8 4d 3e 6c 32 cc be
       0.3115995 -0.03521996 0.20108104 -0.3988222
000320 37 95 df 3d 2e d0 0f 3f 20 0a 4f be cc 44 d5 3c
       0.10917132 0.5617703 -0.20218706 0.026033781
000330 bd 43 fc 3e b0 91 4e 3e 70 20 b9 be 3c 2e f2 bd
       0.4927043 0.20172763 -0.3615756 -0.11825225
000340 0f 0e 05 bf 23 03 06 3f 4a 13 9b 3d df d1 3a 3e
       -0.51974577 0.52348536 0.075720385 0.18244122
000350 49 87 e9 3e a8 03 2b bf 3f 96 f3 3e 71 c4 09 bd
       0.45611027 -0.66802454 0.47575566 -0.033634607
000360 71 fe e1 be a2 f4 0b be 63 da 89 3e 4c 6c f6 be
       -0.44139436 -0.13667539 0.26924428 -0.481295
000370 3f 62 dd 3e f6 b4 c8 be 4a 68 78 3e 48 04 dc 3e
       0.43239018 -0.39200562 0.24258533 0.42972016
000380 2a 47 46 be a6 08 bf 3e b1 8b b9 bd 97 17 cd be
       -0.19363084 0.37311286 -0.09059847 -0.4005706
000390 4e ad 00 bf 39 c0 49 be ff cd 3e 3d 2d 40 81 be
       -0.5026444 -0.19702233 0.046583172 -0.25244275
0003a0 7a 97 e4 3d 3c db 19 3e 0f af 99 3e 0f 8d cd bd
       0.11161704 0.15025038 0.30016372 -0.100366704
0003b0 07 8f 7d 3e da 68 d0 3e 6d da 46 be 95 8b d6 3d
       0.24761592 0.40704995 -0.1941926 0.10475842
0003c0 97 e7 d0 be c8 62 0b 3f 80 50 39 bd 96 6a ea 3e
       -0.4080169 0.54447603 -0.045242786 0.45784444
0003d0 7a 56 ba bd b0 3e 4b bf 79 4b 70 3e bb 8e d9 be
       -0.09098525 -0.7939253 0.2346629 -0.42491707
0003e0 f9 6b d8 be 99 6c 95 3e 28 d3 a6 3e 68 a1 10 3d
       -0.42269877 0.29184416 0.32582974 0.03531018
0003f0 b1 a1 5b be 8f b3 25 be 45 20 b5 3d 52 a4 b9 3e
       -0.21448399 -0.16181777 0.088440455 0.3625818

conv3.lin.weight f4 [32, 32]
000000 d7 e9 68 3e 9d de 81 3e f0 b1 2a 3c 06 1b 9c bc
       0.22745453 0.25365153 0.0104184 -0.019055855
000010 d4 8c 9f bd 15 24 15 be ed 41 8e 3c 0b 9b cd 3d
       -0.07790533 -0.14564545 0.01736542 0.10039338
000020 ab e2 8e bd 75 61 da bd 08 6f 66 be e1 22 8b be
       -0.06976827 -0.1066312 -0.22503293 -0.27175048
000030 16 7e 5a be 3e 09 1f 3e b3 70 ee bc b8 e5 0f bd
       -0.2133716 0.1553087 -0.029106474 -0.035131186
000040 89 7d 05 3d 21 14 04 3e 68 35 8f 3d 8d b4 99 3d
       0.032590423 0.12898304 0.06992608 0.075051405
000050 ee cf 4f 3d 13 da 1c bd 42 fe 47 3c 6a 70 36 be
       0.050735407 -0.03829391 0.012206616 -0.1781632
000060 82 4a e4 3d 72 0a b6 bd d0 5e ed 3c 46 f7 82 3e
       0.11147024 -0.08888711 0.028975874 0.2557928
000070 5e ed 78 3d 2d 26 7b be d1 b2 46 be 1d 93 bf 3d
       0.060773246 -0.24526282 -0.1940415 0.093542315
000080 bc 7e 83 3d 9a a9 b6 3e 9f c7 e3 3d 31 73 96 bd
       0.06420657 0.3567627 0.11122059 -0.0734619
000090 17 2e b8 be 81 cc 49 bd 3a d0 10 3e e7 f6 91 be
       -0.35972664 -0.049267296 0.14141932 -0.28508684
0000a0 37 fa 06 3e f7 1b 9d be 3c 75 2e bd 00 ba 93 be
       0.13181387 -0.30685398 -0.042592272 -0.28852844
0000b0 04 bb e5 bc b7 60 31 3e 26 4e 31 3e 83 ec d0 3e
       -0.028043278 0.1732205 0.17314968 0.40805444
0000c0 82 d5 20 3e 28 da 21 bd f9 c2 49 3e a3 76 05 bf
       0.15706447 -0.03951469 0.19703282 -0.5213415
0000d0 5e 3b 00 be 54 14 ea bd f8 47 a0 3e 35 eb 1e bd
       -0.12522647 -0.114296585 0.31304908 -0.03879853
0000e0 3a aa 7f bd 5b 4e 9b 3e ed 13 93 be 9f 0b a1 3e
       -0.0624182 0.30333218 -0.2872614 0.3145418
0000f0 1d 04 7d bc bd be 90 3e 90 bc d3 bb 2e 36 4f 3e
       -0.015442875 0.28270522 -0.0064616874 0.20235512
000100 ea bc 5a 3d db b2 08 be c9 a5 b1 3d 66 6b 6f be
       0.05340282 -0.13349478 0.08674199 -0.23380813
000110 25 ec aa 3e 09 9a 45 be 51 af a4 3d ef ed 95 3d
       0.3338329 -0.19297041 0.080412515 0.07320773
000120 2f e6 b2 be 5a 2a b8 be 9f 0b 66 3e f9 44 93 be
       -0.3494124 -0.35969812 0.2246537 -0.2876356
000130 20 55 0b 3e f4 c1 ca 3d 4c 98 a9 3d a0 3f 24 bd
       0.13606691 0.09900275 0.082810014 -0.04009974
000140 e7 17 0d 3e 75 f4 97 3c db 3b 77 3d 76 8f 3a 3e
       0.1377865 0.018549183 0.060359817 0.18218789
000150 9e 50 65 3c 30 9a 5b be d5 84 e5 bd 20 fb 53 3c
       0.013996271 -0.21445537 -0.11206976 0.012938291
000160 be 1d 38 3e a5 d1 22 be 33 ac b5 be 50 43 10 3e
       0.17980096 -0.15900286 -0.3548294 0.14088178
000170 2b 20 b9 bc b2 c6 94 be 94 4c f8 3c c1 31 85 3d
       -0.022598347 -0.29057842 0.030309953 0.065036304
000180 f4 de a9 3d 09 4a 4b 3e a3 3b 87 3d ce 94 1a be
       0.08294478 0.19852461 0.06603172 -0.15095827
000190 b5 20 85 3b ab ff 08 bf b9 63 ea 3e 4b 89 bf 3e
       0.004062737 -0.5351512 0.45779207 0.37409434
0001a0 cc 78 99 bd d1 83 c8 bd 02 a4 86 3e 09 3e e4 be
       -0.07493743 -0.09790767 0.26297003 -0.4457858
0001b0 a2 d0 36 bc c1 55 6e 3e 2e e7 d7 bd a0 ee a8 be
       -0.01115814 0.232749 -0.10542141 -0.32994556
0001c0 bf 2d 41 bc 17 7b 56 3e 27 11 18 3e ed b7 36 3e
       -0.011790692 0.20945393 0.14850293 0.178436
0001d0 fa 55 65 3c 97 42 e0 3c a6 48 32 3f fd e9 30 be
       0.013997549 0.027375503 0.696421 -0.1727676
0001e0 20 25 b4 3d 32 51 ab be c4 91 a2 3e 40 6f b6 3d
       0.087961435 -0.33460385 0.31751835 0.08907938
0001f0 b9 28 91 3e 35 81 88 be 56 61 22 3d 7c 62 62 3d
       0.2835138 -0.26661077 0.039643608 0.055269703
000200 af f4 04 3e 58 b7 bb 3e 71 45 04 3d c9 75 47 bd
       0.12983964 0.36663318 0.032292787 -0.048696313
000210 0f 9b 49 3d b7 7c 41 bc 34 7b 5a 3c 51 d4 51 be
       0.04922014 -0.0118095195 0.013335038 -0.20491149
000220 90 b1 8a 3e 83 e8 93 bd e5 1b 82 3e 62 6e 8a be
       0.27088594 -0.072220825 0.25411907 -0.2703734
000230 ea 52 62 bd 76 f6 a8 3e 49 cf 44 3e 21 21 03 3e
       -0.055254854 0.33000535 0.19219698 0.12805606
000240 e1 a7 4d 3d 0f 96 63 3c ad 67 8a 3e cf 14 9c 3b
       0.05020893 0.013890757 0.27032223 0.0047632228
000250 0f 14 86 3d 99 68 d7 be d0 a3 a3 be 9b 78 71 3d
       0.065467946 -0.4207199 -0.31960917 0.05895291
000260 10 32 3c 3e f1 f4 0a be cc 15 0a 3e d7 08 a2 3e
       0.18378472 -0.1357 0.13484877 0.3164737
000270 1b f9 16 3b 1e 4f 8e 3e 58 dc 19 bf 37 4e 41 3e
       0.0023036662 0.27794737 -0.6010184 0.18877493
000280 bb 63 19 3e 9e 6b 57 3e 01 7a 01 be 72 e8 a0 be
       0.1497945 0.21037146 -0.12644197 -0.31427342
000290 96 ef 94 3c e6 e2 98 be 89 02 1e 3f d6 69 fb bd
       0.01818065 -0.2986061 0.6172262 -0.12276046
0002a0 4e 55 e6 3b 1f ca 04 3c ce b7 66 be 34 85 84 3a
       0.007029212 0.00810483 -0.22531053 0.0010110498
0002b0 8f e3 3a be 55 ff 1b bd 22 b8 a3 bd 74 20 9b be
       -0.18250869 -0.0380853 -0.07994105 -0.30298197
0002c0 fd 98 de bd d8 81 6b 3e 03 bd 9c 3e 84 7c 0f be
       -0.10869024 0.2299875 0.30612954 -0.14012343
0002d0 be 17 4a be 3f d0 06 be 96 02 94 3e ff ff b9 be
       -0.1973562 -0.13165377 0.28908223 -0.36328122
0002e0 90 b4 94 3e 73 47 52 bc b9 d2 80 be d3 80 ac 3d
       0.29044008 -0.012834418 -0.2516077 0.08423009
0002f0 a5 fc 1b 3d c4 4b ab be f8 4f 3f 3d ef a2 4b 3e
       0.038082737 -0.33456242 0.046707124 0.19886373
000300 0d 2b fe 3d 35 57 a3 3c b2 57 58 bd e7 ba ac 3d
       0.12410555 0.019939044 -0.052818008 0.08434086
000310 e7 62 3f be cb 8e b1 3c b3 e6 0c be b7 17 56 3e
       -0.18690072 0.021674534 -0.1375988 0.20907484
000320 fc 73 4d 3d b8 cb 9b bd b6 00 b0 3e 7e ac 8a 3e
       0.05015944 -0.07607216 0.34375542 0.27084726
000330 b6 b6 91 3d 9f e0 3a 3f 9b d9 6e be 76 7d 8b be
       0.071149275 0.72998995 -0.23325197 -0.27244157
000340 9c 4b 9c bc cd ef 8a 3e e4 55 ba bd 7c bb ff 39
       -0.019079022 0.27136078 -0.090984136 0.00048777077
000350 ba 2f be bb 0d 24 c8 3e 5e 85 d4 bd a0 ce 91 3b
       -0.0058040293 0.39090005 -0.10377 0.0044496804
000360 9b 07 ed 3d 87 6d 74 be 38 5f b4 bc 1d 8f 6d be
       0.11573716 -0.23869906 -0.02201806 -0.23199125
000370 29 53 fb 3e b2 55 8e bd c5 73 72 3c a3 8b 06 3c
       0.49086884 -0.06949939 0.014798109 0.008212003
000380 a1 28 57 3e e5 5b 0d 3e 2a dc 15 3e 86 ad a4 bd
       0.21011592 0.13804586 0.14634767 -0.080409095
000390 14 92 dd 3d e0 75 1a bf 00 dc 46 3e 99 be ee 3d
       0.10818878 -0.6033611 0.19419861 0.11657447
0003a0 21 92 0c be a1 7d d5 bc 67 a3 0e 3e 1d 32 86 bd
       -0.13727619 -0.026060881 0.1392952 -0.06552527
0003b0 12 f2 74 bb 80 9d 5c 3d d4 1c da 3d 07 ce 63 3e
       -0.003737573 0.05386114 0.1065003 0.22246562
0003c0 df 8f c6 3e 75 55 85 3e ae ce 24 3e eb 34 67 bd
       0.3878164 0.2604176 0.16094467 -0.05644695
0003d0 ff a7 37 be ee 44 f6 bd 07 9a 48 3e 35 a9 b3 bd
       -0.17935179 -0.12024866 0.19590007 -0.08772508
0003e0 5c b3 29 3e 5e 7a 47 bc 44 65 86 be 3e 00 6d 3e
       0.16572326 -0.012175171 -0.26249135 0.23144624
0003f0 c7 c3 21 bd 67 88 15 bd d1 5f 56 be 4c bb 3e 3e
       -0.03949335 -0.036507037 -0.20934989 0.18626136

conv4.bias f4 [32]
000000 36 25 32 be c1 6f 69 bd 0b e3 d5 bd 56 9b 78 3d
       -0.17397007 -0.056991342 -0.10443696 0.060695015
000010 27 21 40 be 96 ed aa be 9e b7 d3 be 6f 7d e0 bd
       -0.18762647 -0.3338439 -0.41351026 -0.109614246
000020 01 ee 5e be 5e 4f ac bc b9 f6 81 bd 3b 71 87 3e
       -0.21770479 -0.021033939 -0.06345887 0.26453575
000030 d2 e5 f5 bd 57 26 cb bd 55 c9 88 3d d9 9f 38 be
       -0.12006725 -0.09919422 0.06679026 -0.18029727
000040 ec 70 30 be f4 ae a4 bc fa 89 c0 be d8 a8 ba bd
       -0.17230576 -0.020102955 -0.37605268 -0.09114236
000050 f1 f3 2c be f5 4c eb be 13 79 39 bd 8a 80 a8 be
       -0.16889931 -0.4595715 -0.04528148 -0.32910568
000060 06 fa 78 3e e1 4d 06 bd 94 c0 8f be f6 7f 29 be
       0.24314126 -0.032789115 -0.28076613 -0.1655272
000070 54 9f 74 3e bd de 9e be 3f 27 9e bd ca 36 52 3d
       0.23888904 -0.3102931 -0.07722329 0.051321782
