ckpts/motif_gcn_64x3.pt (torch, 72859 bytes, 10 tensors)

conv.convs.0.bias f4 [64]
000000 e4 d5 0b 3d 2f 35 7e bc 62 16 91 3c 9e 7a 8d 3d
       0.03413953 -0.01551561 0.017710868 0.06908153
000010 41 5d 02 3d 6d 8c 75 ba 3f 85 35 3b fe 24 a4 bc
       0.031827215 -0.00093669334 0.002769783 -0.02003717
000020 e4 66 99 3c e7 ec 3c 3d b7 48 cb bc ca 9b 13 3d
       0.01872582 0.046124365 -0.024814947 0.036037244
000030 3e b9 b0 3c 1b ec 00 3c 7f d8 6d 3c 67 8a 50 3d
       0.021572705 0.007868792 0.014516949 0.05091324
000040 c8 cf 2c bd b5 14 cc 3c 96 4a 41 bc af f5 80 3c
       -0.042190343 0.024912218 -0.011797568 0.015742151
000050 a9 ac 10 bd 51 9a 98 3c 41 11 17 bd 4d f0 d7 bc
       -0.03532091 0.018628271 -0.03688169 -0.026359702
000060 3e 0e f1 bb d8 bc aa 3c 4c 0a 68 3d 3a bb 2e bb
       -0.007356434 0.020842 0.056650445 -0.0026661889
000070 7e be 1d 3d de 0a 20 3d 8a 04 04 3d 1f 79 b3 3c
       0.038511746 0.039072864 0.03223089 0.021908341
000080 22 e6 96 3c 26 12 9f 3d e3 43 f5 bb 69 90 40 bd
       0.018420283 0.077671334 -0.0074848994 -0.04701272
000090 5d 57 43 3c 22 82 0f 3d 80 e0 b8 3c 3d 31 33 3d
       0.0119226845 0.035036214 0.022567987 0.04374813
0000a0 b4 1b 64 3d 5e 09 d3 3a 6f d6 b6 3d 6e 5a ed 3c
       0.055690482 0.0016100814 0.08927619 0.028973784
0000b0 d8 5e 23 bd 15 1a 82 3d 7d 08 d8 bc 23 41 0a 3e
       -0.039885372 0.06352631 -0.026371235 0.1350141
0000c0 10 84 72 bc 9a 24 c9 bb 5f 0e 13 bd ee 3c 8d b9
       -0.014801994 -0.0061383964 -0.035902377 -0.00026939012
0000d0 29 39 50 bd 6a b2 62 bd 1f 9f e6 3c 20 2d 14 bd
       -0.050835762 -0.05534593 0.028152047 -0.036175847
0000e0 8c 27 2d bc 00 49 37 3c f5 30 27 bd af 8e 9f bc
       -0.010568511 0.011186838 -0.040818173 -0.019477217
0000f0 a3 cb 06 bd 80 76 73 bb b9 be b4 3c bb aa b7 3d
       -0.032909047 -0.003714949 0.0220636 0.08968111

conv.convs.0.lin.weight f4 [64, 5]
000000 fa 2a a1 bf eb cc c8 3e 66 d6 3c 3e 3d e5 46 3e
       -1.259124 0.3921884 0.18441162 0.19423385
000010 f1 7e d2 3d 92 0a 03 3e df c0 c8 be f3 cf 19 3e
       0.102781184 0.12797001 -0.3920965 0.15020733
000020 c5 48 37 3d 8b 5a 60 3e fb 12 91 3e dc 28 19 3e
       0.044747133 0.2190954 0.28334793 0.14956993
000030 f1 91 a1 3d 27 24 8a 3e 49 c8 71 3c af 52 71 3e
       0.07889164 0.26980707 0.014757224 0.23566698
000040 17 a4 28 3e 44 2d 95 bf 5e c6 2a 3e 6f cc 3e be
       0.16468845 -1.1654439 0.16677234 -0.18632673
000050 f2 4d 78 3e 1b d9 e7 bc a3 1b 73 be b7 b7 94 bd
       0.24248484 -0.028301766 -0.23741011 -0.07261603
000060 e6 11 b8 bd 45 46 64 3e ed c2 70 be 8e c6 3e 3e
       -0.08987789 0.2229243 -0.23511858 0.1863043
000070 96 ac db be 74 65 a2 3d 6e cb 06 bf 71 9a 40 3e
       -0.4290511 0.07929507 -0.5265416 0.18808915
000080 31 09 8b bd 89 8b e1 3e 9c f1 98 be b6 c7 85 3e
       -0.067888625 0.4405177 -0.29871833 0.2612893
000090 9d 55 6a 3d 3e 0f c7 3d 09 68 9f be 15 26 57 3e
       0.057210553 0.09719704 -0.3113406 0.21010621
0000a0 e3 19 4d be d2 94 0c 3d cc c8 5a bd dc c3 c0 3d
       -0.20029406 0.034321614 -0.05341415 0.09412357
0000b0 f9 90 88 3e d5 1b 79 bd 95 5b 90 be b3 2f 45 be
       0.26673105 -0.06081756 -0.28194872 -0.19256477
0000c0 0c 9b a8 3e 0c 22 3b 3e 26 49 96 be e5 ef 23 3e
       0.3293079 0.18274707 -0.29352683 0.16009481
0000d0 a3 35 87 3e 92 25 6c 3e 53 88 6b bd 51 b4 02 3f
       0.2640811 0.23061207 -0.057503056 0.5105639
0000e0 0d 9d 35 bf 9c ab a5 bd 7e c0 a2 3d d9 f9 e8 bd
       -0.70942765 -0.080893725 0.07946871 -0.1137578
0000f0 40 60 32 be af 1f 68 be 0e 01 c8 bd ea 6a c4 3e
       -0.17419529 -0.22668336 -0.09765826 0.3836282
000100 c5 b1 e7 bd 45 6d 6a 3e 34 89 b8 be 57 d0 53 3e
       -0.11313204 0.22893246 -0.36042178 0.20684944
000110 fd 1a a7 be 9f 38 a1 bc 71 10 0f be be 1e f2 3d
       -0.32637778 -0.01968032 -0.13971116 0.1182227
000120 ee 65 3f be 57 79 82 3e fc 94 8f 3e 76 59 e8 3d
       -0.18691227 0.254832 0.28043354 0.11345188
000130 00 30 b4 3e 2a 11 4f be e3 c2 87 bd e4 a9 fa be
       0.3519287 -0.20221391 -0.066289686 -0.4895774
000140 45 92 b8 3d 54 06 7c be 49 0e 81 3e b3 04 2f bf
       0.09012274 -0.24611789 0.2520621 -0.68366545
000150 a6 19 c1 3e 2e c8 4f 3e e2 b5 bd bd e3 cc 11 3e
       0.3771488 0.20291206 -0.09263207 0.14238314
000160 f7 07 13 be 60 a7 f1 bd d4 28 62 bd f7 6d 10 bd
       -0.14358507 -0.117995024 -0.055214718 -0.03526112
000170 ea 51 ce 3e 97 4c 87 be f7 8a 50 bd 87 c4 86 3c
       0.4029687 -0.2642562 -0.050913777 0.016451133
000180 f1 c2 76 3d 2e 7d db bd 07 ee 08 3e 5d 15 87 3e
       0.060244504 -0.107172355 0.1337205 0.26383486
000190 af e4 6f be 28 8d 95 bd c3 ed a5 be 7a 09 33 3e
       -0.2342708 -0.07302314 -0.3240796 0.17484084
0001a0 2d 2d b2 be 26 47 37 be bc c3 12 be 6e e9 a6 3d
       -0.3480009 -0.17898235 -0.14332479 0.08149992
0001b0 68 0d fa 3b 1b d9 87 3e 83 b9 98 bb bd 76 11 3d
       0.0076309927 0.26532826 -0.0046607866 0.03551363
0001c0 9e a5 86 3e 3f c2 0c be 24 97 12 bc e9 a9 f0 be
       0.2629823 -0.13745974 -0.008947168 -0.4700463
0001d0 0a b6 8a 3e f4 e1 0c be da 5e 49 3e bf 85 da bc
       0.2709201 -0.1375807 0.19665089 -0.026675103
0001e0 5a df c8 3b 5c 4f 92 be a2 2c 50 3e 2c a6 0a be
       0.006130141 -0.2857617 0.20329526 -0.13539952
0001f0 a9 01 6c 3e 29 13 bd 3e a9 a5 8a bd 7e fc ed be
       0.23047508 0.3692868 -0.067698784 -0.464817
000200 76 e3 eb be e2 05 65 be ae 77 4b 3e 9e 21 cc be
       -0.46071976 -0.22365525 0.19869873 -0.39869398
000210 fc 67 f4 bd 44 cf 74 be 65 45 29 3e 58 f1 5a 3d
       -0.11933896 -0.2390719 0.16530378 0.05345282
000220 0f 51 6f 3e a3 e0 70 3d 28 64 88 3e be 1b 62 bf
       0.23370765 0.05880798 0.26638913 -0.8832358
000230 ca d7 60 be 5c 29 35 be d7 cd da 3d d6 37 a9 be
       -0.21957317 -0.17691559 0.10683792 -0.33050412
000240 88 c8 82 3e 5d 93 5d bf 4b 50 ef 3e 17 2a 12 be
       0.25543618 -0.86552984 0.46740946 -0.14273869
000250 09 ff 4a 3d e1 07 56 bd 65 a1 51 3e c6 52 b8 3e
       0.049559627 -0.052253608 0.20471723 0.3600065
000260 3e b0 89 be 94 03 c4 be 81 80 c1 bd db 93 b7 3c
       -0.26892275 -0.3828398 -0.09448338 0.02240937
000270 ca 35 55 3e a0 78 52 3e 3a 38 0e 3e de f4 77 bf
       0.208213 0.20553827 0.13888636 -0.9685801
000280 ca dd 68 bd 42 34 39 be 86 46 c2 3e d2 52 62 be
       -0.05685214 -0.18086341 0.3794443 -0.22101906
000290 7f 25 2a be 19 74 05 3e 7b e2 92 3e 8f 5f 57 bf
       -0.16615866 0.13032569 0.28688416 -0.84130186
0002a0 58 96 a5 be 23 76 c0 3e 50 10 09 bd ae 64 62 3e
       -0.32341266 0.3759013 -0.033462822 0.22108719
0002b0 5d 70 64 3e 12 9d d3 bc 11 7a b2 be f2 eb a3 3e
       0.22308488 -0.025831733 -0.34858754 0.3201595
0002c0 8a 13 25 be 93 5e 84 be 8e f6 19 3e b0 1f cb 3d
       -0.16120735 -0.25853404 0.1503546 0.09918153
0002d0 a8 3a 8f 3d 32 8e bc 3d ec 91 82 be 63 95 70 be
       0.0699361 0.09206809 -0.25501955 -0.23494487
0002e0 fb b9 a2 3e 82 9e 58 3e dc 80 22 3e 2d ab 0c bd
       0.31782517 0.21154216 0.15869468 -0.034342933
0002f0 8e 00 a2 3d 0a 7c f1 bc 94 22 85 be 5c 76 ff bd
       0.07910262 -0.029478092 -0.26002944 -0.12473747
000300 e3 56 39 3e 19 db 38 3c a5 e5 a5 3e 82 01 56 3e
       0.18099551 0.011282706 0.32401767 0.20899013
000310 79 66 32 3e 4c d9 1a 3d 6a b6 62 bf a8 23 d1 ba
       0.17421903 0.037804887 -0.8855959 -0.0015956061
000320 42 1f c8 bd b0 d7 66 be 75 9e 58 3d f1 9a af bd
       -0.09771587 -0.22543216 0.05288549 -0.085744746
000330 8f b5 3c be 57 68 ad 3d 4f 80 00 3e 40 c9 8d be
       -0.18428634 0.08467167 0.12548946 -0.27692604
000340 16 3b 8d be 2a b2 bb 3e d9 bb 01 3e 82 10 1e 3e
       -0.27584141 0.36659366 0.12669314 0.15435985
000350 e1 b6 89 3e 99 1b c9 bf 11 fe 1c 3e 97 ca 89 3d
       0.26897338 -1.5711547 0.15331294 0.06728094
000360 0e 67 35 be 10 a2 96 be 29 e0 87 3e a2 79 cf bc
       -0.17715093 -0.2942052 0.26538208 -0.025326554
000370 ad 13 6e bc 62 45 2f be 74 f3 ff 3c 8b d4 c6 3c
       -0.014531058 -0.17116311 0.031244017 0.02427127
000380 5f 4c 87 be fd be 9a be f2 70 9d be be 54 be bd
       -0.26425454 -0.30223837 -0.30750233 -0.09293507
000390 13 e1 ef 3e fc 4e 8f be 3e 90 81 bd 76 17 ff 3d
       0.46851406 -0.27989948 -0.0632634 0.12455647
0003a0 22 91 ad 3d b0 00 09 3d 72 b5 46 bd b8 d2 29 be
       0.084749475 0.03344792 -0.048512883 -0.16584289
0003b0 f5 60 a6 3d dd 0f f2 bf 92 6a a4 3e 81 7c 04 3f
       0.08123962 -1.8911091 0.32112557 0.5175248
0003c0 dd 43 c2 be 84 ad b5 3e 1c 1b 97 3d 7f 7f 59 bd
       -0.379424 0.35483944 0.073782176 -0.053100105
0003d0 17 36 c7 3c 5d 9c 4b 3d 8d 65 6a 3d 94 e5 fa bd
       0.024317784 0.049709667 0.057225753 -0.1225082
0003e0 9f 5e 5f 3d 08 db eb 3c d0 04 ae 3d 5f 19 30 be
       0.054533597 0.028790966 0.08497012 -0.17197178
0003f0 87 51 0d be 2f 88 8b 3e af 71 ca 3b 3e 20 9e 3d
       -0.13800631 0.27252337 0.006178103 0.077209935

conv.convs.1.bias f4 [64]
000000 88 25 fa 3b bf 0e ba 3b c4 3d d8 bb a7 3d ef bc
       0.0076338686 0.0056780274 -0.00659916 -0.029204203
000010 da 6e 68 3b 16 51 63 bd ab 12 c8 3c f5 cc c2 bb
       0.0035466463 -0.05549725 0.024422964 -0.005944843
000020 25 33 20 bd b4 49 5c 3c 24 2f 6e bc c8 c5 c0 3c
       -0.039111275 0.013445307 -0.014537606 0.02353181
000030 5e 1a 4a bd 6d 42 d4 bc 34 99 f4 3c d3 44 81 bc
       -0.049341552 -0.02591058 0.02985821 -0.015779888
000040 ce 2f 71 bc 10 3a 17 3c 27 0a 10 3d 95 95 eb 3d
       -0.01472087 0.009230152 0.035165932 0.1150314
000050 55 38 dd 3c 2b a4 32 3c 96 fd b1 3d b2 4b e4 bb
       0.0270044 0.0109033985 0.08690946 -0.0069670314
000060 95 bd 46 bb dc 25 a1 bc c3 10 e3 3c 31 12 a9 3d
       -0.0030325402 -0.019671373 0.027717954 0.08255423
000070 e5 d1 a9 3b cf ea 82 bc 7e 24 33 bd 5a e7 85 3d
       0.005182492 -0.015981106 -0.043735974 0.065382674
000080 e8 a5 42 3d 75 2f 8f bc 79 b3 36 bb 34 85 2b 3d
       0.0475215 -0.017478684 -0.002787797 0.04187508
000090 5d 58 53 3d 10 19 55 bd dc 05 0e bd 96 c3 08 bd
       0.05159794 -0.052025855 -0.034673557 -0.03338965
0000a0 52 47 9d 3a b2 20 f8 bc c1 a0 d8 bc 08 ad 1f bc
       0.0011999405 -0.030289028 -0.026443841 -0.009745844
0000b0 65 21 fb 3a 75 77 fd bc 90 b1 15 bd fc be 5e 3b
       0.0019159733 -0.03094075 -0.03654629 0.0033988347
0000c0 7d 59 96 bb 0d cc 49 bd d6 dd d3 3b ed e7 12 3d
       -0.0045883046 -0.049266864 0.006465654 0.035865713
0000d0 1d 08 ca bc 9b b6 ff bc 5f bb 52 bc 4e db 53 bc
       -0.024662072 -0.031215003 -0.012862056 -0.012930704
0000e0 13 20 47 bb 94 85 c1 3c 64 13 2a 3c ab 79 0d bc
       -0.0030384108 0.023623265 0.0103806 -0.008634965
0000f0 ef 41 35 bc ab 68 53 bc a5 77 78 bc 88 75 9a 3c
       -0.011063083 -0.012903373 -0.015165244 0.018854871

conv.convs.1.lin.weight f4 [64, 64]
000000 de e6 5c 3d d4 46 99 ba 14 4e 40 3e 57 d4 1d be
       0.05393111 -0.0011694082 0.18779784 -0.15413032
000010 2f 26 36 bd b2 fd 40 bd aa ff aa 3d 56 5f be 3d
       -0.04447001 -0.047116943 0.08349545 0.09295528
000020 d0 1e 49 be 84 22 58 be e3 c7 df 3c dd 82 fa bc
       -0.1964066 -0.21106917 0.027316993 -0.030579979
000030 95 81 2b be c4 56 5e be 3f dd cf 3d 94 a3 c4 bd
       -0.1674865 -0.21712786 0.10149621 -0.096015126
000040 f6 9f f8 3c 10 87 08 be 99 b1 3b bd 43 62 cb 3c
       0.030349713 -0.13332772 -0.045823667 0.024827128
000050 0b f2 21 bd eb ea 12 be a2 df 92 3d 98 f3 c6 bd
       -0.03953747 -0.14347427 0.07171561 -0.097144306
000060 9a 41 89 3b 9d 14 75 bd 80 4e 4f 3b fa f4 ec bb
       0.0041887285 -0.05983411 0.0031632483 -0.007231352
000070 1f 1f 22 be 09 2b be 3d 68 9a 20 3d 09 11 95 bd
       -0.15832184 0.09285552 0.039209753 -0.0727864
000080 92 ad 4c be a1 0a 7a bc 49 91 12 3d 98 28 de bc
       -0.19988087 -0.015261323 0.035783086 -0.027118966
000090 80 4a 02 bb d7 60 89 bd 5c 10 81 3d 8c f0 36 be
       -0.0019880831 -0.06707924 0.063019484 -0.17865199
0000a0 7e 90 96 bd 06 97 56 bd ef dd 5f be e0 55 29 be
       -0.073517784 -0.05239012 -0.21862005 -0.16536665
0000b0 a3 1d 00 be 41 52 8a bd f5 9f 1e 3d d7 63 0a bd
       -0.12511306 -0.0675397 0.038726766 -0.03378662
0000c0 c9 93 45 be 74 16 46 3e 69 bb 31 3d 34 05 06 be
       -0.19294657 0.19344503 0.04339162 -0.13087922
0000d0 f3 18 37 3e 4a 91 4d bc 92 c5 a8 3d 0d b3 12 be
       0.17880611 -0.012546847 0.082408085 -0.14326115
0000e0 56 28 48 3e d9 a2 04 be 5e d3 2d bd f5 2c f8 3c
       0.19546637 -0.12952746 -0.042437904 0.030294875
0000f0 21 38 8d 3d a1 78 6c bd c6 31 b7 3a 3d 83 3c 3d
       0.06895471 -0.05773223 0.0013976626 0.046023596
000100 bf 4c 13 bd 2d 0f 8c be 33 c9 eb 3c e4 8c f3 bb
       -0.035961863 -0.27355328 0.028782463 -0.007432567
000110 11 e9 4e be a4 ad e2 bd 6f 42 3a 3d 62 d5 61 be
       -0.20206095 -0.110682756 0.045473512 -0.22054055
000120 b1 15 b5 bd 1d b9 86 be 67 b0 8b bd fc 59 99 3b
       -0.08842028 -0.26313105 -0.068207555 0.0046799164
000130 9c e4 7a be cb 2c 66 be 3d 2b 46 bd 30 32 e7 3d
       -0.2450127 -0.22478025 -0.04838108 0.112888694
000140 5d 13 cd 3d f2 65 94 bd 21 2a ac bb 03 09 68 be
       0.10013459 -0.07246007 -0.0052540456 -0.22659688
000150 b4 a0 14 3e f9 2c cc be 34 5f 2d be 52 f3 33 bd
       0.14514428 -0.3987806 -0.16930848 -0.04393322
000160 a8 72 b9 be 4a 53 89 be af d8 08 bc b4 d5 b8 3b
       -0.36220288 -0.26821357 -0.008352443 0.00564071
000170 c2 4a c4 3d 66 6f 96 bd 6b 7c 14 3e dd c9 f1 3d
       0.095845714 -0.07345466 0.14500587 0.118060805
000180 ca 23 9d 3d 78 78 47 be 74 d6 42 be a0 15 ee bc
       0.07672842 -0.19479549 -0.1902712 -0.029063046
000190 c1 28 fd be 07 fa 01 bd 60 c6 b5 be 75 4b 04 3e
       -0.49445155 -0.031732585 -0.3550291 0.1291941
0001a0 54 16 14 3d 2b 61 c0 be 7d 8a 1c 3d 89 d5 28 bc
       0.036154106 -0.37574133 0.03821801 -0.010304817
0001b0 5e a3 58 bd 1f b9 78 3c 8e 21 3b 3e 3b 4c b2 bc
       -0.052890174 0.015180855 0.18274519 -0.021764865
0001c0 43 8c fc bd 93 11 e0 bd 4a b9 87 3d 81 82 01 be
       -0.1233144 -0.10940852 0.06627138 -0.1264744
0001d0 d8 ea d9 bd 50 c3 a3 bd 95 88 09 be 34 92 5c bd
       -0.10640496 -0.07996237 -0.13431008 -0.053850368
0001e0 06 b3 7a be 41 1a 02 3e 14 49 c7 bd 6e 04 82 be
       -0.24482355 0.12705328 -0.097307354 -0.25394005
0001f0 fd 9e 08 3c 96 86 a6 be 8e 80 ae bd 16 f3 17 3e
       0.008338687 -0.32524556 -0.085206136 0.14838824
000200 6d ab 98 3d 75 de 48 3c 7a f6 bd bd d9 14 ce bb
       0.07454572 0.012260069 -0.09275527 -0.0062891063
000210 4c dd c4 3d 53 a6 af be d8 46 9c 3d 79 25 b3 bd
       0.096125215 -0.34306583 0.076307 -0.08747382
000220 90 69 46 3e 7a e6 a5 3d b0 e1 50 3e 58 d8 53 be
       0.19376206 0.081006005 0.20398593 -0.20687997
000230 9b ca 4e be 8d 9b a1 bc 86 35 42 3e 6b fb 01 3e
       -0.20194475 -0.019727493 0.1896573 0.12693565
000240 6e 88 9a be 30 aa 26 3d d3 aa aa 3d 7f 11 71 bd
       -0.30182213 0.040689647 0.083333634 -0.058854576
000250 01 91 08 bf d5 da 51 3e 98 7c 1c be 52 65 b9 3c
       -0.5334626 0.20493634 -0.15281904 0.022631321
000260 6a 3c b4 3d 1f 22 6f 3e 85 d1 4c be 92 04 81 bd
       0.088005856 0.2335286 -0.200018 -0.062997
000270 2f 83 26 bd 97 b7 0c 3e 59 5c eb bc 61 bc 47 be
       -0.04065245 0.13741909 -0.028730558 -0.19505455
000280 96 ec 5e be fb e9 87 be 98 b9 20 be 67 d6 d2 3d
       -0.21769938 -0.265457 -0.15695798 0.102948
000290 70 28 dd be b7 b4 db bd f6 8e a0 3d be a5 f8 bd
       -0.43194914 -0.10727828 0.07839768 -0.12140988
0002a0 79 3d b9 3d 2b 47 76 be 80 51 7f be e4 f5 57 be
       0.09044928 -0.24050586 -0.24933434 -0.21089894
0002b0 11 d0 18 3e 52 59 8b be c6 b9 83 bd cc ca 2f be
       0.14923121 -0.27216583 -0.06431918 -0.17167205
0002c0 9d 55 ce 3d 06 78 d0 3d d6 db 90 bd 94 9b 43 be
       0.10074923 0.10179143 -0.070731804 -0.19102317
0002d0 78 75 4d be a9 9f 75 3e 05 41 4e bc 22 2c a8 bd
       -0.20064342 0.23986687 -0.012588744 -0.08211543
0002e0 3e 57 80 be fc 4b 9b be ff 41 2b be 6e 72 89 bc
       -0.2506656 -0.3033141 -0.16724394 -0.016778197
0002f0 d9 86 d4 3d 07 c7 37 bc f3 df 53 bb 8a 1c a9 bb
       0.10377283 -0.011216885 -0.003232953 -0.005160873
000300 29 d5 63 3d 3c 22 af bd ec 43 30 be 74 7b 88 3d
       0.055623207 -0.085514516 -0.1721341 0.06664172
000310 bb b9 70 be d0 af 44 3c f1 4d 9e bd d7 a4 f1 3d
       -0.2350835 0.012004808 -0.0772971 0.11799019
000320 94 82 e0 3d e3 2b 9c bd 22 dd cf bd a2 dd f5 bc
       0.10962406 -0.07625558 -0.101495996 -0.03001291
000330 df de 00 be 17 c4 8d bd 0f d5 2d 3e ec 00 43 3c
       -0.12585019 -0.06922167 0.16975807 0.011902075
000340 c7 de 8e be 6c b3 81 be 05 72 4c bd 4e 48 26 be
       -0.2790434 -0.253322 -0.049913425 -0.1623852
000350 9a c4 1e 3e a4 cf 05 be 81 14 05 be 10 a5 4d 3e
       0.15504685 -0.1306749 -0.12996103 0.20082498
000360 6d 70 7f be 1b 9b 9e be d3 98 c8 3d 49 75 4a bc
       -0.24945231 -0.3097771 0.09794774 -0.0123570645
000370 5d ac 4e be 1a 31 a6 3d f9 47 1a 3e c7 0d 96 bd
       -0.20182939 0.08114834 0.15066518 -0.073268466
000380 ef 0e ef bd fa 5c d1 3c 6f 69 a3 3d 1a 13 33 be
       -0.1167277 0.02555703 0.07979094 -0.17487755
000390 a4 29 bd 3d 9a a8 22 bd d5 1d 0f 3d 21 41 69 bc
       0.09236458 -0.039711572 0.03494056 -0.014236719
0003a0 fc 37 e4 bc 12 c9 cb 3c a2 51 3f bd 96 f7 a3 bd
       -0.027858727 0.024876151 -0.04670871 -0.08006208
0003b0 8d 5b 2e be e0 69 c0 3d 3b 6b 03 3e b9 16 ce bd
       -0.17027111 0.09395194 0.12833874 -0.10062928
0003c0 dc 3d 05 3e ba 83 95 3d 0e 1b 2a 3e 6c 64 24 3e
       0.13011879 0.073005155 0.16611883 0.16053933
0003d0 0a f0 1e be a0 2a 98 3c 10 21 d3 bd 74 9d 8d bc
       -0.15521255 0.018575013 -0.103090405 -0.017286994
0003e0 4a 1e fb 3d 6b d7 3a bd bf da 5e bd 35 ee 54 be
       0.122616366 -0.045615595 -0.05440783 -0.20793994
0003f0 6a bc 7b 3d 51 5b 68 bd de 8d 28 3e 4f d2 7a bd
       0.061458983 -0.05672771 0.16460368 -0.061235722

conv.convs.2.bias f4 [64]
000000 df e6 9c ba 8f 0d 6d bc b4 b9 01 3c 85 6e 59 3b
       -0.001197066 -0.014468565 0.00791781 0.0033177447
000010 db 04 b1 3d ab a5 13 be 45 91 d9 3b f3 dd 86 bd
       0.08643504 -0.14418666 0.006639632 -0.06585302
000020 cd b6 b1 3b 28 f4 29 3d 1c 3a a0 bb 9d 5b 1f bd
       0.005423403 0.04149261 -0.0048897397 -0.03890573
000030 81 d8 32 3d b9 18 26 3b 31 34 95 3b 7d 5f bc 3b
       0.043663505 0.0025344326 0.004553341 0.005748688
000040 e0 16 fc bb 5f 12 d1 bc d7 2e 53 3c a3 c8 39 3a
       -0.0076931566 -0.025521455 0.012889585 0.0007087087
000050 ac 10 d2 bb e5 ed 5b bb fd e8 2e ba 39 ea 99 bc
       -0.006410679 -0.0033558544 -0.0006672291 -0.018788444
000060 21 fc 9b bc c6 fc ee 3c b9 47 d4 bc 93 22 2b 3c
       -0.019041123 0.029173266 -0.025913106 0.010445255
000070 bf de 8a 3b e4 33 4b 3c c2 ef 87 bc 33 3b 98 bd
       0.004237979 0.012402508 -0.016593818 -0.07433166
000080 bf 25 ed bb 77 20 ae bd 80 31 54 3d af 34 64 bb
       -0.0072371657 -0.08502286 0.05180502 -0.003482144
000090 2a b0 24 3d e7 a8 5c bc 0a 72 41 3c 85 83 ef bb
       0.040207066 -0.013468004 0.011806974 -0.0073093795
0000a0 c6 c9 cb 3c bb 53 e7 3d fe 63 3a 3b 14 f9 24 bc
       0.024876487 0.11295267 0.0028440948 -0.0100691505
0000b0 c4 92 06 bc 59 0d 36 bc be 28 0a 3c e0 33 5f bc
       -0.008213703 -0.011111581 0.008432565 -0.013623208
0000c0 ee fd 1a ba a5 e2 0a 3c 38 37 a4 3b 1c bb b8 bc
       -0.0005912472 0.008476888 0.0050114654 -0.022550158
0000d0 d1 a5 95 ba ad 31 58 bd 27 be 97 bc dc 06 bb bc
       -0.0011417215 -0.05278175 -0.018523289 -0.02283042
0000e0 56 ab 3a 3c 10 1f 80 3c 5d 41 da bb b2 f1 07 3b
       0.011393389 0.015639812 -0.006660624 0.0020743427
0000f0 cc 1d e0 3a 63 fe 94 bb 30 c9 db bc af 09 ee 39
       0.0017098724 -0.004546927 -0.026829332 0.00045402112

conv.convs.2.lin.weight f4 [64, 64]
000000 7e 9c 30 bd 1c f6 79 3e 2f 8f 40 3e d2 d5 14 be
       -0.043117993 0.2441029 0.1880462 -0.14534691
000010 23 8d 98 3e 24 b8 f3 bd 6a 08 8f be 84 f5 a3 bc
       0.2979518 -0.119003564 -0.27936107 -0.020014532
000020 a7 b8 0f 3b 14 92 13 bd 72 8d 80 bd 82 58 27 3e
       0.002193013 -0.036027983 -0.062769786 0.16342357
000030 7f 81 fd bd 14 49 02 3e fb 06 14 3d 34 25 51 3e
       -0.12378215 0.1272319 0.03613947 0.20424348
000040 3d e2 2f be 7e 4e bb 3e cd 5d f6 3c 9c dd ad 3e
       -0.17176147 0.36583322 0.030074025 0.33958137
000050 84 f1 96 bd 12 10 44 3c cd 3c 1e 3f 54 b5 b8 3d
       -0.07370284 0.011966722 0.61811525 0.090189606
000060 7d 2a 04 be 55 0a bf 3c 83 27 fb bd 34 3e 95 bf
       -0.12906833 0.023320356 -0.12263396 -1.1659608
000070 9f cb 08 be 65 3d b3 bc 70 6a 70 be ff 47 4a 3f
       -0.13358925 -0.021879861 -0.23478103 0.7901611
000080 6a ad 8c 3e 70 9f 2d be 62 f0 9a bd 4c d5 c6 3e
       0.27476054 -0.16955352 -0.07565381 0.38834608
000090 fc 79 77 bf 93 b2 28 be 9f 0e 80 bc 3a 6a 1d bd
       -0.9667051 -0.1647437 -0.015631972 -0.038431384
0000a0 a1 e5 b6 3d 56 91 15 be a5 3b e1 bd 5d 96 28 3e
       0.08930517 -0.14606223 -0.109977044 0.16463609
0000b0 9b 5b 3a 3e fd 0d 63 3c 66 af 5c 3d 26 8b 23 3e
       0.18199007 0.013858316 0.05387821 0.1597105
0000c0 4d 2f 19 3e d1 f1 e2 3d 61 38 90 3d c6 4c 11 be
       0.1495945 0.11081279 0.070420034 -0.14189443
0000d0 90 35 27 3e 38 a6 17 3e a8 3b 1c bc e6 69 0a be
       0.16329026 0.14809501 -0.0095357075 -0.1351696
0000e0 fd 3c 08 3e 3b ce f9 bd eb e2 8d be 8c be ee bd
       0.13304515 -0.121975385 -0.27712187 -0.11657438
0000f0 c1 c6 5c 3d 3d 0c eb bd 30 1a 26 bd 17 f9 56 3e
       0.053900484 -0.11476944 -0.040552318 0.20993458
000100 5d f9 64 3e 64 83 03 3e 15 7e d5 3e 3b f6 9b be
       0.2236075 0.1284309 0.41697755 -0.30461296
000110 d6 e6 31 3e 14 a1 81 be 02 28 b0 be b1 69 53 bd
       0.17373213 -0.25318205 -0.34405524 -0.051614467
000120 52 75 0c 3e 39 37 a3 3d cd 32 bc 3d 81 79 01 3e
       0.13716629 0.07969517 0.09189377 0.12644006
000130 7f ed 1b 3d 5b 8d 0a be 20 46 82 bc 53 72 09 bd
       0.03806829 -0.13530485 -0.015902579 -0.033556294
000140 4c cf 02 3e 15 78 b0 3e 2b 73 b9 3c 68 b7 36 3f
       0.1277439 0.34466615 0.022637924 0.71373606
000150 03 61 84 bd 50 4c 63 3e c1 ef 2f 3e c9 32 61 3d
       -0.06463816 0.2219708 0.17181303 0.054980073
000160 31 cc 26 3d 73 97 84 3d 0b 05 86 bd 14 06 8f bf
       0.040722076 0.06474199 -0.065439306 -1.117373
000170 7e 14 94 3d bf c2 17 3e 9a a9 89 be 74 b4 88 3e
       0.07230471 0.14820383 -0.26887208 0.26700175
000180 60 aa ce 3d 1d 9f 34 be 6f 77 26 be 96 b6 03 3f
       0.1009109 -0.17638822 -0.16256498 0.5145048
000190 22 71 94 bf f4 d4 14 be a0 f5 c9 bd 00 6c 81 be
       -1.1597025 -0.1453436 -0.098613024 -0.2527771
0001a0 22 e0 46 3d 63 ec b7 be e0 ba 34 3e 44 c3 26 3d
       0.048553593 -0.35922536 0.17649412 0.040713564
0001b0 da 82 06 3e 2b e1 b1 bd f0 e0 84 3d b4 13 71 3d
       0.13135853 -0.086855255 0.06488216 0.05885668
0001c0 36 9d 44 bd fd bc 29 be 44 21 6e 3d d7 be 04 3e
       -0.04800149 -0.16576 0.058137193 0.12963425
0001d0 d1 f2 d5 bd 66 df 04 3d 7a d5 b4 bc d9 27 33 3d
       -0.10446704 0.03243961 -0.02207445 0.043739174
0001e0 99 44 e6 bd 34 54 2a 3d 45 0b c0 bd b5 0d 9c 3c
       -0.11243553 0.04158421 -0.093771495 0.019049505
0001f0 9d b1 ca bc c3 7d 50 3e 7a 5a 9e bd cc be f8 3e
       -0.024742896 0.20360474 -0.07732101 0.48583066
000200 a5 2e f0 3d b6 03 8b be 17 b0 42 be dc 2e db 3d
       0.11727647 -0.2715127 -0.19012485 0.10702297
000210 f1 aa fc be 72 82 a3 bd f1 f4 d6 3c 7d 45 c1 3d
       -0.49349168 -0.07983865 0.026239844 0.09437082
000220 0b cf ef 3d 84 46 50 3e 43 50 67 3d 65 7f 4e bf
       0.11709412 0.203394 0.056473028 -0.8066314
000230 f6 71 22 be 1a b1 8b bc a4 16 49 3d 8c 94 96 bd
       -0.15863785 -0.017052222 0.049093857 -0.07352552
000240 35 56 ee bd 3e 1d 2c 3e 37 94 f4 3c 99 94 03 3f
       -0.116375364 0.1680803 0.02985583 0.5139862
000250 00 ec 25 bf 68 12 8e 3c 43 18 0c 3e 8b d4 f6 bd
       -0.6481323 0.017342761 0.1368113 -0.12052258
000260 9d 23 fe bd d7 84 66 bd ba d6 eb be 71 5d 88 3e
       -0.124091364 -0.05627903 -0.4606226 0.2663379
000270 0f 3a 9b bd 20 6c d5 bd 9f 04 65 3e dd 30 18 3f
       -0.07579433 -0.10421014 0.22365044 0.5944956
000280 3b 5f 74 3d 0f 51 4d 3d a5 4b 3c 3d 83 74 ca 3e
       0.05966113 0.05012613 0.045970578 0.39542016
000290 97 79 28 3e 39 8b 9a 3d cf 22 11 3e 7f 66 0f 3e
       0.16452633 0.07546086 0.14173435 0.14003943
0002a0 2a bb 0b be 63 13 69 3d e9 24 22 3e e7 15 0b be
       -0.13645616 0.056903254 0.15834393 -0.13582574
0002b0 ea 29 bb bd 97 86 74 3d 11 cd 09 3a 78 6a ec 3d
       -0.09138854 0.059698667 0.00052566925 0.11543745
0002c0 90 ae 62 bd 80 ff b8 3d ef d9 40 3e b1 f7 de bb
       -0.055342257 0.09033108 0.18833135 -0.0068044295
0002d0 26 bb a0 bc d5 54 fc 3d 5b 6b 0d 3e dc b9 d5 3c
       -0.01962049 0.12320868 0.13810484 0.026089601
0002e0 c4 7d ff 3d 2d 8c 45 be 26 f4 40 be e0 a0 0f 3e
       0.1247516 -0.19291754 -0.18843135 0.14026213
0002f0 b4 4d 9c 3d e6 5b a9 3c e4 13 47 bd 5a e0 5a 39
       0.07632008 0.020673703 -0.048602954 0.00020873678
000300 b7 c4 94 3c 13 dd 56 3d 60 f1 72 3e c7 f1 34 bd
       0.018160207 0.052456927 0.2372489 -0.04417589
000310 31 03 d0 3c 99 c1 4d bb 75 75 0e be 17 e0 98 bd
       0.025392147 -0.003139591 -0.13911994 -0.07464617
000320 7d ae 5e be 71 5c c9 bd 9a 06 5b 3e be a4 20 3e
       -0.2174625 -0.09832085 0.21389237 0.15687844
000330 1e 31 e3 bd 4f 72 2d be 52 3c 27 3e d0 69 fa bc
       -0.11093353 -0.16938137 0.16331604 -0.030568033
000340 fd 54 0b be 65 92 3a 3e 62 36 be 3c f0 ed 4e bf
       -0.13606639 0.18219908 0.023219291 -0.80831814
000350 56 b6 72 be 1f 46 cc 3e 47 65 91 3f 50 aa d7 bd
       -0.23702368 0.39897248 1.1359032 -0.105305314
000360 5f ac ca bd 7d cc d7 3d 59 1a 4d be 0e a5 5f bf
       -0.098961584 0.1053705 -0.20029582 -0.8736123
000370 09 92 67 3e d2 23 a6 3c 3c 00 1b 3b 48 a7 88 3f
       0.22614302 0.020280752 0.0023651263 1.067605
000380 85 39 c5 be 31 00 a5 bd a6 c0 26 be 41 44 76 be
       -0.38520446 -0.08056677 -0.16284427 -0.24049474
000390 0f 83 c5 be a9 f8 9f bd e4 3d f7 bc bc df 36 3d
       -0.38576552 -0.078111 -0.030180879 0.044646963
0003a0 f4 ae 16 3e 79 65 40 3e 2d 31 8b bd 9d bb 34 3f
       0.14715177 0.18788709 -0.06796489 0.70598775
0003b0 ac 0c 39 bd 7e e9 82 3d 48 93 3d 3e d3 be 94 bc
       -0.0451781 0.06392191 0.18513215 -0.018157398
0003c0 9a 8c fa bd 5b 53 96 bd f0 46 7b be bc 58 9c be
       -0.12233849 -0.073401175 -0.2453878 -0.3053645
0003d0 e7 cd 89 bd bf b4 2a bc f0 cf 8d 3d b5 dc 23 be
       -0.06728726 -0.01041907 0.069244266 -0.16002162
0003e0 5a 5f 6c 3d 2c 11 8e bd 0d 00 05 be 95 ae 02 3e
       0.05770812 -0.06936869 -0.129883 0.1276191
0003f0 c1 4f 24 be eb 89 c2 3d a3 2e 0e be 07 9a 59 be
       -0.16046049 0.09498962 -0.13884978 -0.21250163

lin.weight f4 [64, 128]
000000 92 19 bd 3e e9 97 17 3e 08 29 0d 3e c3 d8 b6 be
       0.3693357 0.14804043 0.13785183 -0.3571225
000010 7b 7b 35 bd 56 ea 16 bd 89 88 ef be ec 6f b2 bd
       -0.044307213 -0.036844574 -0.46783856 -0.08712754
000020 2a 8c 89 bd da fd 2b 3d af f6 af 3e 07 03 bc bd
       -0.06716187 0.04199014 0.34367892 -0.09180265
000030 b3 32 cc 3d 12 19 49 3e 41 9b 2c 3e a8 e7 c1 3e
       0.099706076 0.1963847 0.168561 0.37872052
000040 ab 57 14 bf e7 e8 35 be 80 4b ad be fe b8 16 3f
       -0.5794627 -0.17764626 -0.33846664 0.58876026
000050 c1 6e 2d be c8 43 e5 bd cb d6 09 bf 0b f5 d4 bd
       -0.1693678 -0.11194569 -0.53843373 -0.10398301
000060 d8 61 b4 3d d8 f6 11 3e 70 ac 3e 3e dc 5b 69 3d
       0.08807725 0.1425432 0.18620467 0.05697237
000070 1c b2 ad 3d b2 1a 7b be a9 a1 ac 3d fd 65 81 3c
       0.08481237 -0.24521902 0.08429272 0.015795702
000080 15 f2 33 3f e5 27 04 3d f3 25 09 3d 3a 93 c1 3b
       0.7029126 0.03226461 0.033483457 0.0059074434
000090 da e7 18 be 03 37 27 be 89 45 44 3e f0 0f 3c 3d
       -0.14932194 -0.16329579 0.1916715 0.045913637
0000a0 81 31 7b bd d5 b1 0a 3d 0d 82 b3 be 5c aa 98 be
       -0.061326507 0.033861 -0.35060158 -0.29817474
0000b0 4b ff 19 3e 29 f5 75 bc db 18 98 3e e7 a9 15 bd
       0.15038793 -0.015012064 0.29706463 -0.036538985
0000c0 c0 98 02 bf 0a e7 21 3e fd 4b 8b 3e 0c 57 f4 3d
       -0.5101433 0.1581079 0.27206412 0.119306654
0000d0 e2 96 ac be 96 f2 fc 3c 39 35 ae 3c cd 2e ab 3d
       -0.33708864 0.030877393 0.021265613 0.08358536
0000e0 68 30 d8 be 50 81 f2 3d 3b 4f bf 3e f1 a6 a0 3e
       -0.4222443 0.11841071 0.37365136 0.31377366
0000f0 22 40 db bd aa b8 f0 3d 00 5c da 3d 8d 57 30 be
       -0.10705592 0.11753972 0.10662079 -0.17220898
000100 b4 ad 53 3e 1c 0e 0d 3f 20 87 8b be 81 26 62 bf
       0.20671731 0.55099654 -0.2725153 -0.8834
000110 82 90 ce be 7b ec e8 3e 8e 31 0c bf 18 af ab 3e
       -0.40344626 0.4549292 -0.54763114 0.33532023
000120 00 7b db 3c af 5e b7 be f1 13 30 3f 50 1a 9d 3e
       0.02679205 -0.35814425 0.6878043 0.30684137
000130 52 7b 38 be 57 fc 1e 3f cb 35 8b be 2d ee b3 3e
       -0.18015793 0.6210379 -0.27189478 0.3514265
000140 c9 cb 07 be 7e 8a 31 3e 38 7f b7 be a6 bf de 3e
       -0.13261332 0.17337987 -0.35839248 0.4350559
000150 14 78 63 bd 4b a1 0a 3e a4 84 cd be ab 9b 6f 3e
       -0.055534437 0.13538091 -0.4014026 0.23399226
000160 66 e6 e0 3e c7 c7 cc be 5f 0b 1f 3f bb 57 0b 3f
       0.4392578 -0.39996168 0.62126726 0.5443074
000170 ae 35 90 be fe 28 40 bf 2a 05 23 3f 88 91 03 3f
       -0.28165954 -0.7506255 0.63679755 0.5139394
000180 01 91 a4 3f 8b 6f c9 3e ad 59 93 be 83 1f 4c 3e
       1.2856752 0.39342913 -0.28779355 0.19933896
000190 67 23 02 bf 87 45 c0 3e 85 77 65 be 1c b1 d7 3e
       -0.5083527 0.37553045 -0.22408874 0.4212731
0001a0 ca cd d9 be 88 05 82 be c3 cb 3a bf 4f 39 9f 3d
       -0.42539817 -0.25394845 -0.72967166 0.077746026
0001b0 d1 6c 07 3f 85 c3 d4 3e 3f 61 ff bd 01 dd 78 3e
       0.52900416 0.4155542 -0.1246972 0.24303056
0001c0 27 50 4f be 0f 3c 9a be e5 a5 b3 bd 29 f4 1d 3f
       -0.2024542 -0.30123946 -0.08771876 0.61700684
0001d0 86 00 14 be f0 aa d5 3e b3 96 9b 3e 5e db 05 3f
       -0.14453325 0.41731977 0.30388412 0.5228785
0001e0 84 cf bd be 46 27 57 3c 2f 22 1a bd 7c 84 9d 3c
       -0.37072384 0.013131922 -0.037630256 0.019228213
0001f0 9b ca 26 bf 7b 5a f4 3e 72 a2 fd 3e ce c1 bb 3e
       -0.651529 0.4772528 0.49537998 0.366713
000200 fa 5f 22 3e 6c 90 a7 3d 38 6b 1b be 86 25 70 3e
       0.15856925 0.08181843 -0.1517762 0.23451814
000210 c7 cc 3b 3d 4d 14 86 bd e8 ad 67 3e ff cb f1 bc
       0.045849588 -0.06546841 0.22624934 -0.029516218
000220 87 92 bf bd 75 af 5a bd a3 18 63 bd 85 44 d3 bc
       -0.0935412 -0.053389985 -0.055443417 -0.025789509
000230 b6 6c 30 bd 57 e2 02 bd f7 80 f9 3c 04 5c 4c be
       -0.043072425 -0.031954136 0.030457003 -0.19956976
000240 37 c4 21 3d 08 a2 87 bc 96 68 2e 3d 6b 90 e3 bd
       0.039493766 -0.016556755 0.04258021 -0.1111153
000250 d8 b3 9c 3e a1 67 5a 3e a9 d9 0a 3e 9c 52 f1 3d
       0.3060596 0.21328594 0.13559593 0.117833346
000260 41 a2 be bc 40 1e 21 3e ec 58 00 bc 02 7c a9 be
       -0.023270728 0.15734196 -0.007833701 -0.33102423
000270 be eb 77 be 38 d6 d2 3e 3e 24 10 be 2a bd 9a bd
       -0.24211022 0.4117906 -0.14076325 -0.075556114
000280 42 06 03 bf 2f 1d b4 bd 29 c9 3a bc a2 2a f9 3e
       -0.51181424 -0.08794629 -0.011400499 0.4866534
000290 84 f8 a5 3d aa 8e d0 bd 06 02 06 3d fa f0 05 be
       0.08104041 -0.10183461 0.032716773 -0.13080207
0002a0 a8 be 18 3e cc 6a de 3c f4 e2 5f 3e e5 5d 0e be
       0.1491648 0.027150534 0.2186392 -0.13903005
0002b0 3c 6c 11 be ea e9 ac be 27 2f 5e be ac 9b e6 3d
       -0.14201444 -0.33772212 -0.21697675 0.11260161
0002c0 21 17 31 3e d2 a1 db 3d 08 b0 e5 bd 63 1f 0e be
       0.17293979 0.10724224 -0.11215216 -0.1387916
0002d0 9f 37 99 3e 36 ce 72 bd ce a1 28 3e 72 e3 65 bd
       0.29925248 -0.05927869 0.16467974 -0.056125112
0002e0 7c b4 f0 3d 07 58 40 be f6 46 e9 bd bd 26 15 be
       0.11753175 -0.1878358 -0.11390488 -0.14565559
0002f0 7b f8 91 3e fc fc 61 be f6 4e 1f bd 3e 1b 2e 3d
       0.28509888 -0.22069162 -0.038893662 0.04250645
000300 14 75 44 3e 58 ec 56 be 86 2a 9f 3c 2c 94 cc 3e
       0.19185287 -0.20988595 0.019429456 0.39956796
000310 e6 cf d8 3d 76 eb bb bd cc 0b 5c 3e 08 2c 8f be
       0.105865285 -0.0917577 0.21488875 -0.2796328
000320 6f 5f 30 bd ff ee 5b 3e 36 fc c3 bc 78 49 99 be
       -0.043059763 0.21477889 -0.023923974 -0.29938865
000330 ab 35 84 3e ca 35 84 3b 39 02 7e 3e 91 e5 1a be
       0.25822195 0.0040347325 0.24805535 -0.15126635
000340 d5 33 2a bf 23 7d 0d be 57 1c 07 3e bb 65 8c 3e
       -0.6648534 -0.13817267 0.13194405 0.27421364
000350 52 d9 92 3e f8 75 a0 bd 77 4c 62 3e 60 aa c3 bd
       0.28681427 -0.07835001 0.22099482 -0.09553981
000360 8b f9 30 be ed 61 b3 3e 69 13 26 be 0e 79 9c be
       -0.17282693 0.3503565 -0.16218342 -0.30561107
000370 1f 53 b8 bd 51 1a d1 3e 6f f6 27 be fc f9 24 be
       -0.09000229 0.4084039 -0.164026 -0.16110986
000380 aa a0 06 bf aa 50 77 be 09 66 67 3d 5b 29 e8 3e
       -0.52588904 -0.24151865 0.056493793 0.45344052
000390 5c f4 d3 3d 36 77 61 be 09 31 7c 3e dd 90 85 be
       0.10349342 -0.22018132 0.2462808 -0.26087084
0003a0 e9 be ac 3e ca 20 fe 3d ad e3 37 3e d7 ea b5 be
       0.33739403 0.12408598 0.17957945 -0.3553073
0003b0 e6 b6 86 be 27 59 f9 be a1 c2 16 bd e6 59 ae bc
       -0.26311415 -0.4870083 -0.036806706 -0.021283101
0003c0 2a b7 54 bd ed 98 dd 3e 6c f7 9e 3e 92 ba a3 be
       -0.05193249 0.43280736 0.31048143 -0.3197828
0003d0 f9 7f f4 3d 2a 25 5a be 74 1b 00 3e 88 ff b9 bd
       0.11938471 -0.2130324 0.12510473 -0.09081942
0003e0 f5 c4 a0 be 14 81 6b bd f9 be 04 3e be cb 2b be
       -0.31400266 -0.057496145 0.12963475 -0.1677694
0003f0 87 99 2f 3e 14 d5 d0 bd 2e 0b 88 be d2 04 46 be
       0.1714841 -0.101968914 -0.2657103 -0.19337776

lin.bias f4 [64]
000000 6c 88 a0 be 0b da 60 3e a1 2f 82 3d 6e 7d e7 3e
       -0.31354082 0.21958177 0.06356741 0.45212883
000010 e9 f2 41 bd cc c2 57 3e 1b 7e 96 3f 44 f3 1f 3f
       -0.047350798 0.21070403 1.1757234 0.6248057
000020 f6 79 30 be 84 55 85 bd e4 10 54 be 6a 63 0c 3f
       -0.17234024 -0.065104514 -0.20709568 0.54839194
000030 6d ee 6c be 8a c6 b8 3c f4 cc ff 3d 8c a8 df 3e
       -0.23137827 0.022555608 0.124902636 0.4368328
000040 4d 73 45 bd 62 2a a8 bd c4 d5 50 3f d5 f6 4d bb
       -0.048205663 -0.08211209 0.8157618 -0.003142764
000050 56 4d a3 bd 74 bf db 3e a0 89 0a bd 86 60 e2 3e
       -0.07973735 0.42919505 -0.033822656 0.44214267
000060 6d f4 e9 3d d2 4a 34 3f de 57 6d 3d 6a 8c f0 3e
       0.11423574 0.70426667 0.057945125 0.46982127
000070 00 f0 39 be a6 11 69 3d 45 08 4d 3f ae 3f 52 bf
       -0.18157959 0.056901596 0.80090743 -0.8212842
000080 25 0b fa 3e de 52 df 3d 33 49 8c 3e 0e fc 8d bd
       0.48836628 0.109044775 0.27399597 -0.06932841
000090 72 69 6c 3e 0b 8b 92 be 58 1c 4d 3c 80 13 11 3e
       0.23087099 -0.28621706 0.012518965 0.14167595
0000a0 42 c4 08 bf d5 77 7e be 96 86 f4 3e e3 b9 bb bd
       -0.53424466 -0.248504 0.4775893 -0.091663145
0000b0 fa f9 40 be 00 b7 64 3d 6a ce cd 3e 96 74 0e 3c
       -0.18845358 0.055838585 0.40196544 0.008694788
0000c0 f5 20 f0 3e 07 2a c3 3e 99 f1 f1 3d 48 e1 33 3f
       0.46900144 0.38118002 0.11813659 0.70265627
0000d0 b6 f2 ca 3e 7f 53 7e 3f 51 56 48 3e e8 89 a1 bd
       0.396383 0.99346155 0.19564177 -0.07887632
0000e0 8b 08 04 3f d6 f3 aa 3c f0 e1 8f 3a b8 5e 01 3f
       0.51575536 0.020868223 0.0010977369 0.50535154
0000f0 33 dd d3 3c 09 13 d8 3e 3a bb 92 3d 2d 17 49 bd
       0.025862312 0.42202023 0.07164617 -0.049094368

out.weight f4 [5, 64]
000000 7a 98 35 3e 2c fc 6d bb 07 84 c6 bd 60 40 02 3e
       0.17733946 -0.0036313636 -0.09693151 0.1271987
000010 c3 e4 9c 3c fe 46 1f bc d6 7b fb 3e c7 b9 d9 3e
       0.01915205 -0.009721516 0.49117917 0.4252455
000020 a2 30 74 bc f9 67 f3 3b 54 28 ef 3b 00 dd a6 3e
       -0.014904173 0.007428166 0.0072985087 0.32590485
000030 19 bc 29 be 59 79 26 bc a7 68 a3 bd 1a c7 4c 3e
       -0.1657566 -0.0101607675 -0.07978945 0.19997826
000040 50 b1 0b be 03 65 93 3d e9 33 3d 3e c4 2d 58 bc
       -0.13641858 0.07197001 0.18476833 -0.013194505
000050 e4 2f d5 bc fe d5 b5 3e e4 1e 7d 3d 6d d2 18 3e
       -0.026023813 0.35514826 0.061797038 0.14924021
000060 d2 a8 b3 3c 2a 3f 65 3e 50 b6 1e bd 3d f2 8f 3e
       0.021931086 0.22387376 -0.038748085 0.281145
000070 ab 7a 99 3e b0 fa 16 3c ff 43 3d 3e 92 50 48 be
       0.299764 0.009215042 0.1848297 -0.19561985
000080 48 95 91 3e 07 29 92 bd c4 f8 d1 3c fd ff 32 bd
       0.28434205 -0.071367316 0.025631316 -0.04370116
000090 06 69 e5 3d c2 64 b0 be d6 70 58 3c ca 0b 2c bd
       0.11201672 -0.34451872 0.013210496 -0.04200343
0000a0 a2 a1 8f be e4 30 ef bd 83 7c 11 3e 08 f5 ec bc
       -0.28053004 -0.11679247 0.14207654 -0.028925434
0000b0 42 53 87 3e b0 b6 70 3a 82 47 04 3e 83 71 a3 3c
       0.26430708 0.0009182496 0.12917903 0.019951588
0000c0 6e 36 d3 3c 38 84 00 3d 7a 15 c8 3d 6e 19 2e 3e
       0.02578279 0.031376094 0.09769721 0.17001888
0000d0 c1 93 8f 3e ad 51 3e 3f 61 3e 9b 3c a5 c4 bb bd
       0.28042415 0.7434338 0.018950643 -0.09168366
0000e0 9a 5e 83 3d c4 93 b9 3d f2 a2 10 bc e1 bd 2e 3e
       0.06414528 0.09061387 -0.008827912 0.1706462
0000f0 3e 67 4e bd 0c e9 10 bc 2c fd a6 3d 6e 19 c3 bc
       -0.05039143 -0.008844625 0.081537575 -0.023815837
000100 7e 2d 49 be b4 dc e8 be 4d 39 08 bf bb 71 7a 3e
       -0.1964626 -0.45480883 -0.53212434 0.24457447
000110 26 e7 87 ba 44 10 7c bb 86 e9 6b 3e 53 4b 9c be
       -0.001036857 -0.0038461844 0.23038301 -0.30526218
000120 e8 1e e4 bd cc 7f de bd 67 ec d2 bc 7b 33 2c 3e
       -0.111387074 -0.10864219 -0.025747491 0.16816513
000130 69 2e 70 3e b4 90 bd 3d c3 8f cb be 0f 13 32 bf
       0.23455204 0.092561156 -0.3975812 -0.6956033
000140 12 27 c1 be 6a c5 c0 bd 54 29 a5 3e 78 92 7b 3e
       -0.3772512 -0.09412654 0.32258093 0.24567592
000150 d4 43 cb bd 14 e5 1e bf 96 a1 17 bd 58 71 27 3e
       -0.099250466 -0.62068295 -0.037019335 0.16351831
000160 01 b5 04 3e 6a d0 8f be f9 cb 43 3c 95 aa 01 bf
       0.12959673 -0.28088695 0.011950486 -0.5065091
000170 b8 a8 07 bf e1 9f 17 bd a0 4a a4 3d 15 43 0d 3e
       -0.5299182 -0.037017707 0.08022046 0.13795121
000180 d7 e6 e1 be a3 0c 63 be 72 d4 3c 3e ea 4a e2 bd
       -0.4412143 -0.2217279 0.18440416 -0.11049445
000190 9a 32 9c 3e 05 bf 41 bd 88 f8 81 3d 59 e5 ce be
       0.30507356 -0.04730131 0.06346232 -0.40409353
0001a0 e6 3e 9a be e6 84 ab bd 82 55 70 3d 16 48 20 3d
       -0.30126113 -0.08374958 0.058675297 0.039131247
0001b0 00 18 e6 be ef 12 ce bb 96 a1 40 bd 7c dd 62 bd
       -0.44940186 -0.006288878 -0.0470291 -0.055387005
0001c0 ff a4 a8 bd f5 4c f5 3d 3b 35 5c bd 81 4b 47 3e
       -0.082345955 0.11977569 -0.053761702 0.19462396
0001d0 07 2b d9 be 1e 74 5b bf 0d 8e 8f 3e 1a 13 65 3d
       -0.4241564 -0.85724056 0.28038064 0.05592642
0001e0 47 fa c7 3e 64 ed aa bc 19 9a 8f bd 40 fc c9 3e
       0.39058134 -0.02086515 -0.07011814 0.39450264
0001f0 85 9b 44 3d 18 3c 21 3e 2e f7 c4 bc 63 ee 3c bd
       0.047999877 0.1574558 -0.024043646 -0.04612578
000200 15 25 14 bf ba 60 98 3e d1 07 9e 3e 76 5c 95 be
       -0.5786908 0.29761297 0.30865338 -0.29172105
000210 cc 4f 50 3d be 8d c5 3b c5 ad 15 bf 70 54 6c 3e
       0.05085735 0.00602886 -0.58468276 0.23079085
000220 cb 08 82 be 80 25 2b 3b 90 bc 99 be 8e 0e 89 bf
       -0.25397334 0.002611488 -0.30026674 -1.0707567
000230 cf 09 1e be 87 24 a5 bd 42 41 6c 3e 63 8f 97 3e
       -0.15433429 -0.08063608 0.23071769 0.29601583
000240 8e da 8a 3e 32 67 f9 3a 08 8e fe be 33 92 f8 be
       0.2711987 0.0019027947 -0.49717736 -0.4854904
000250 68 1e be 3d 15 f6 5c bf fa 5b 5a 3d 73 e7 6e 3b
       0.09283143 -0.8631299 0.053310372 0.0036453872
000260 64 7a dd 3d 4b 0b 67 3e 55 9a df bc f3 67 2e bf
       0.1081436 0.22562902 -0.027295271 -0.68127364
000270 5c e6 5d bf 4a b5 75 3d cf fd a7 bd 42 c0 38 bc
       -0.86679626 0.059987344 -0.08202707 -0.011276307
000280 12 75 7e 3e a1 0b 4e 3e 2b f4 42 bd 8f 70 a3 3d
       0.24849346 0.20121624 -0.047596138 0.07980453
000290 cc 36 19 be 2b bb df bb 1e c0 dc bd f8 0f be 3e
       -0.1496231 -0.006827732 -0.10778831 0.37121558
0002a0 50 b8 19 3e 01 6f 3f 3e a3 e3 38 be 92 9c f0 bd
       0.15011716 0.18694688 -0.18055587 -0.117486134
0002b0 45 56 21 bf 5a 5c 70 3d 52 db 44 3e 8f 9d d8 3d
       -0.6302226 0.058681823 0.19224289 0.10576927
0002c0 11 14 08 bc 1b 92 aa 3d b3 e5 98 be 9a 13 e8 3b
       -0.008305565 0.08328649 -0.29862747 0.007082415
0002d0 a5 e2 58 bf f1 0c 15 3f 23 27 19 be 18 4a d8 3d
       -0.8472083 0.5822287 -0.14956336 0.10561007
0002e0 3d f8 d1 be 43 49 ab bd a5 17 29 3d ce bc d7 be
       -0.41009703 -0.08363583 0.041282315 -0.42136234
0002f0 92 22 9d bd 4e af 21 bf 05 ee d7 3d c7 d2 9f be
       -0.076726094 -0.6315812 0.105434455 -0.31215498
000300 b4 dc f5 bd 43 a7 a3 3e 8f e0 66 3e 5d e9 ce be
       -0.120049864 0.31963548 0.225466 -0.40412417
000310 04 33 ad 3d ae d0 3a 3e 50 f5 84 bf 1f ad 09 bf
       0.08456996 0.18243667 -1.0387363 -0.53779787
000320 a1 48 6b 3e 30 c5 d4 3c 44 a9 80 be b9 f0 43 3e
       0.22976924 0.025972933 -0.2512914 0.19134797
000330 9e f7 2b be f3 ce 80 bd 0b fc 93 3e 7f 65 3c bf
       -0.16793677 -0.062894724 0.2890323 -0.7359237
000340 ae f8 13 bd c1 08 89 3a b7 eb 17 bf df e8 29 be
       -0.03612583 0.0010454879 -0.5934405 -0.1659274
000350 d5 2c 80 3d a3 6e 8e 3e 07 df 39 bc ed b8 07 3e
       0.06258551 0.27818784 -0.011344678 0.13254137
000360 20 4f 7d be 82 88 4c 3c 2f f2 84 bd 8b ce 91 3e
       -0.24737215 0.012483718 -0.06491505 0.28477892
000370 5c 86 a9 be 51 a3 7b bd af 88 dd be 1b 65 8d 3e
       -0.3311032 -0.061435048 -0.43268344 0.276162
000380 32 75 f0 3d 8b ac 60 3e c9 e1 ba be d1 15 6f 3c
       0.11741103 0.2194082 -0.36500385 0.014592604
000390 ee d6 ef be 30 48 d7 3e 2e d4 6a 3d de 16 c5 3c
       -0.46843666 0.42047262 0.057331257 0.024058755
0003a0 56 30 37 3e 90 b8 bc be 50 76 fc be 26 14 ea bc
       0.17889532 -0.3685956 -0.49309015 -0.02857406
0003b0 a8 47 78 be 7a 22 4d 3e ab 93 dd be be 48 e0 bd
       -0.24246085 0.20032683 -0.43276724 -0.109513745
0003c0 03 0e b8 3d 14 a6 c1 be ac 1d 8e 3e 2e ec d4 be
       0.089870475 -0.3782202 0.27757013 -0.4158644
0003d0 b6 3f 91 3e 3d ec 0c bf b6 d3 dd 3c 8f ba b3 bd
       0.2836892 -0.5504797 0.02707849 -0.087758176
0003e0 3a 51 c5 be b9 03 05 3c d6 0e 3a 3d d5 c9 a4 be
       -0.38538533 0.008118563 0.045424305 -0.32185236
0003f0 79 58 14 3d 2a ff 07 be 05 de 8e 3c bd 16 4b 3e
       0.036217187 -0.13280931 0.017439852 0.19832893

out.bias f4 [5]
000000 f7 97 f9 3e 32 c3 09 bd b8 7a 59 3d 4d 65 8f be
       0.48748752 -0.03363342 0.05309555 -0.28006974
000010 1f 1c fa be
       -0.4884958
