ckpts/mutag_gnn_64x3.pt (torch, 71751 bytes, 10 tensors)

conv.convs.0.bias f4 [64]
000000 95 8a 60 3d 55 3e 37 be 5b 3f e8 bd 88 59 36 be
       0.054819662 -0.17894872 -0.11340209 -0.17807591
000010 dd 00 b9 be 24 23 67 bd b3 80 47 be c7 ca 74 be
       -0.3613347 -0.056429997 -0.19482689 -0.23905478
000020 a6 35 b3 be 45 38 45 be 96 79 0c be f0 a6 ab be
       -0.35001868 -0.19259746 -0.13718256 -0.335258
000030 58 7c b4 be 30 a7 7e be 8e 6e a4 be e8 98 96 be
       -0.35251117 -0.24868464 -0.32115597 -0.29413533
000040 25 45 a5 3d 8b 9f 85 bd b8 c1 0f be f9 54 f6 3d
       0.08069829 -0.06524571 -0.14038742 0.12027926
000050 62 12 13 bf d8 e1 46 bd ba 3f 15 be 6e 29 df be
       -0.57449925 -0.048555225 -0.14575091 -0.43586296
000060 27 5f 7a be 73 15 98 bd e5 c6 1f be 75 1d 11 be
       -0.2445036 -0.07425966 -0.15603216 -0.14171393
000070 43 d5 43 be e6 11 81 be 9f 1c 63 be 88 2f 9c bc
       -0.19124322 -0.25208968 -0.22178887 -0.019065633
000080 3c ca ae be ab 31 d6 bd e0 62 b0 be a9 f7 48 be
       -0.34138668 -0.10458692 -0.34450436 -0.19625725
000090 76 bc dc 3d 0f 4e 35 be 33 d4 4b be 31 c7 69 3d
       0.107781336 -0.17705558 -0.19905166 0.05707473
0000a0 4c 5e 60 3e cc 21 d7 bc 44 9f 7b be b2 8c 44 be
       0.21910971 -0.026261233 -0.24572474 -0.19194296
0000b0 fd 3e 48 3d 30 91 19 3d 0b fc b0 be f9 03 17 be
       0.048888195 0.037491977 -0.34567294 -0.14747609
0000c0 32 98 a7 be 82 f6 dc 3b e7 ed 83 be 8b ae 8a bd
       -0.32733303 0.006743253 -0.25767443 -0.06771573
0000d0 33 c9 d0 bd 1d 7e 3b be a6 f1 71 be 91 1e 03 be
       -0.10194626 -0.18309827 -0.23627338 -0.12804629
0000e0 bc 61 79 3d 0e e2 3e be 74 8a 3e be f9 52 19 be
       0.060884222 -0.1864092 -0.18607503 -0.14973058
0000f0 15 9c 6e be 56 ba 66 be ad 5d bb be 4b 67 63 be
       -0.23301728 -0.22532019 -0.36594906 -0.22207372

conv.convs.0.lin.weight f4 [64, 7]
000000 f9 4b 92 bd 1c 5d f7 3f 7a d7 f5 bd da 8e e0 be
       -0.07143397 1.932529 -0.120039895 -0.43858987
000010 35 68 3d bf c6 d1 fa 3d d0 f9 dc bf e1 0c 28 be
       -0.7398713 0.12247042 -1.7263737 -0.16411163
000020 df ad e6 be 08 53 78 be 23 44 e2 bb a8 cd 7b 3d
       -0.45054528 -0.24250424 -0.006905095 0.061475426
000030 34 2b e2 3e c3 3f 80 be 0c 2c 82 bd 48 ba ed bd
       0.44173586 -0.25048646 -0.063560575 -0.11607796
000040 37 e6 13 be 50 69 af be db 0f ae 3f 9e 36 3a 3d
       -0.14443289 -0.34260035 1.3598589 0.045462243
000050 4a 77 59 be 9c 6b 0f be 7e ce 1c bf 17 26 c7 3e
       -0.21236911 -0.14005893 -0.6125258 0.38896248
000060 83 4b e8 be 7b 07 25 be fe 98 48 3f 9e 72 72 bd
       -0.4537011 -0.16116135 0.7835845 -0.05919134
000070 01 07 0b bf 31 c0 0c 3f 0a ff b3 3d 3d f7 7b 3f
       -0.5430756 0.5498076 0.08788879 0.9842413
000080 3d ca 9e bf 30 d3 60 3d 1b 6b c3 bf 94 df 12 3f
       -1.2405468 0.054888904 -1.5267061 0.57372403
000090 61 4b 19 c0 56 f1 6b bf 9b 82 34 bf f9 e6 c5 be
       -2.3952258 -0.92165124 -0.7051179 -0.3865278
0000a0 a7 b7 fa 3f 6f 84 88 bf e3 ab 48 be 93 72 1b bf
       1.9587296 -1.0665416 -0.1959682 -0.607217
0000b0 30 56 87 bf 83 32 b6 be 17 f0 c0 3f 55 6e ed 3e
       -1.0573177 -0.35585412 1.507327 0.4637324
0000c0 60 ab 61 bf 5d 13 9c bd 27 d4 b7 3e 9e 33 85 3d
       -0.8815212 -0.07620881 0.35904047 0.06503986
0000d0 e5 d7 af 3d 7e e5 b1 be 18 e2 1d 3f 61 69 a8 bf
       0.085861005 -0.347454 0.61673117 -1.3157159
0000e0 8f 22 d7 bd 44 88 79 be de 64 60 bd fa 5f 25 bd
       -0.105046384 -0.24368387 -0.054783694 -0.040374734
0000f0 4a c3 bc bd 42 bc fa be 1a df 3c bf 86 4a 06 bc
       -0.09216936 -0.48971754 -0.73777926 -0.008196479
000100 9a 99 9e be 79 50 9e bd 90 d5 70 be 01 84 c4 3d
       -0.30976564 -0.07730193 -0.23518968 0.0959549
000110 57 ca 1c 3d 30 14 75 be a5 88 01 be fc ff b9 bd
       0.038278904 -0.23933482 -0.12649782 -0.09082028
000120 95 30 db be 42 4f 9e bd ff b5 9b bd e5 6e 62 3d
       -0.42810503 -0.07729961 -0.076030724 0.05528154
000130 a8 3d aa be 8d ec 5c be ff 18 be be 55 f8 17 be
       -0.33250165 -0.21574612 -0.37128446 -0.14840825
000140 a2 7e 2f be 5f 67 0a 3d d1 10 53 bf 9f 33 28 3e
       -0.1713815 0.03378999 -0.82447535 0.16425942
000150 24 9d b5 be a3 10 cb bd 65 19 08 bf e3 21 8b bd
       -0.3547145 -0.099152826 -0.5316375 -0.06793573
000160 72 83 85 be 0a d3 29 3e e1 9a c9 bf 1f 60 d1 3c
       -0.26076847 0.16584411 -1.575039 0.02555853
000170 6d 50 74 bd ab b7 2e 3c 4a ef cb 3e 30 48 7d 3f
       -0.059647013 0.010663907 0.39831 0.98938274
000180 60 7b 47 3e 17 53 e0 3c 31 2e 61 be cd ea 47 bf
       0.19480658 0.02738337 -0.21990277 -0.7809265
000190 31 59 cc be 73 e7 5e bf ad 80 10 bf 7b 5f 78 3f
       -0.39911798 -0.87071913 -0.56446344 0.9702069
0001a0 48 17 68 be 8d 54 7d be 6f 8b 4f be 96 7b f7 be
       -0.22665131 -0.24739285 -0.20268033 -0.48336476
0001b0 65 a8 88 bd 33 89 0e 40 cb f3 a5 3e d8 39 15 3d
       -0.06672744 2.227124 0.32412562 0.036432117
0001c0 87 cb 6b bd 5f e5 c8 3f 47 95 71 bf ef 1c 1f 3f
       -0.057567146 1.5694999 -0.94368404 0.62153524
0001d0 76 9a f3 be 01 e2 ba be 99 39 e3 be e4 0e 78 bd
       -0.47578782 -0.36500552 -0.4437988 -0.060561076
0001e0 03 ce 09 3c 78 e4 4a bf 32 e0 bb 3b 7f fd 02 40
       0.008410933 -0.79254866 0.0057335133 2.0467222
0001f0 90 1b 0f be dc 14 95 bf b3 00 a9 bd 74 1a ac bc
       -0.13975358 -1.1646991 -0.082520865 -0.021008708
000200 4b ed 11 3c 4e 49 6f be 85 e5 8b 3f 78 c5 b3 bd
       0.008906673 -0.23367807 1.0929419 -0.087778986
000210 f9 8d 2b bf 71 34 e0 bf 3f bb 7f 3f fa 64 b1 be
       -0.6701351 -1.7516004 0.9989509 -0.34647352
000220 13 94 06 3c 6a e8 0a bf c0 08 0e 3f 0e 3e 97 bf
       0.008214015 -0.54260886 0.554821 -1.1815813
000230 c0 34 a6 bf 19 15 64 3f bc 62 ec be a7 68 83 be
       -1.2984848 0.8909469 -0.46169078 -0.2566578
000240 71 ed c4 be ab 57 33 bd 75 52 90 3f 09 fe c5 bc
       -0.38462403 -0.04378478 1.1275164 -0.024168985
000250 23 21 0e bc 83 c1 c2 bc 05 78 fb be 09 8d e5 3f
       -0.008674893 -0.023773914 -0.49115005 1.7933666
000260 f8 6e fb bc ef 43 01 be 80 7a 7b bd bd 31 b7 3d
       -0.030692562 -0.12623571 -0.061396122 0.08945034
000270 c1 31 41 3e 88 61 78 bc dd 65 14 bf e3 3f 26 3e
       0.18866636 -0.015159972 -0.5796793 0.16235308
000280 e1 a9 0a c0 50 74 bd bf ff 07 a6 3f 04 bb b8 be
       -2.1666186 -1.4801121 1.297119 -0.36080182
000290 f7 c0 c9 be 74 b3 2a bf 51 f2 d1 3c 69 b6 66 3f
       -0.39405033 -0.66680074 0.02562824 0.90122086
0002a0 75 55 26 be 6d 70 2d bf 74 81 ec be f2 c2 13 3f
       -0.16243537 -0.67749673 -0.46192515 0.5771934
0002b0 d6 01 c4 3f 51 ac 4f be 6d b7 ad be b9 19 8b bd
       1.531306 -0.20280577 -0.33929005 -0.067920156
0002c0 60 27 8c be e3 3c e5 3d fe 48 a8 3d b9 76 62 3f
       -0.2737379 0.11193254 0.08217047 0.88462406
0002d0 70 60 0b be 3b 1c 1e bf 10 0b 07 3c ff ba e4 be
       -0.13611007 -0.61761826 0.008242384 -0.44673917
0002e0 6e 4a 1c be bd c9 5a bf c6 b2 05 40 0c 1d d1 3d
       -0.15262768 -0.8546408 2.0890365 0.102106184
0002f0 32 c7 54 40 e0 88 28 be 89 02 00 3e 75 1f 53 3e
       3.324658 -0.16458464 0.12500967 0.20617469
000300 93 c9 ab bf 22 1b 10 bf 93 f5 ae 3e 1a 27 5b be
       -1.342089 -0.562914 0.34171733 -0.21401635
000310 e1 d3 1a bf cf 14 cd 3e c1 45 53 bc b3 2f 9a 3e
       -0.6047955 0.40054938 -0.012895049 0.30114517
000320 63 b5 a2 bf ee 85 12 3e 27 08 90 bf 4d 3c 2a bd
       -1.2711605 0.14308903 -1.1252488 -0.041561414
000330 7e 36 36 bf 83 e2 85 3d 76 5e 01 bf 35 10 87 3d
       -0.711769 0.06537344 -0.5053476 0.06594888
000340 46 1a d0 3d ce 1b 4e 3f 48 9e 74 be 3d 74 a2 be
       0.10161261 0.80511177 -0.23888505 -0.31729308
000350 fb d5 92 bd 8f bc 88 be 94 31 cc 3f cb 66 31 be
       -0.0716972 -0.2670636 1.595263 -0.17324369
000360 bf 42 82 be ee 66 ae 3e 94 83 dc bf 03 be 93 bf
       -0.25441548 0.34062904 -1.7227654 -1.1542362
000370 fc da 68 bf 5b 49 78 bf 3f fc bf 3f 07 cf c1 bd
       -0.90959144 -0.9698693 1.4998854 -0.094633155
000380 96 bb 73 be 6f 09 2a be ef 22 28 be ca 05 d9 3e
       -0.23802027 -0.16605161 -0.16419576 0.4238723
000390 2d 4b a1 3f 7b 94 3b be ab f6 89 3d 57 0a 2c 3d
       1.2601067 -0.1831836 0.06736501 0.04200205
0003a0 e6 87 df bc 9f c5 a6 bd 0f e3 c5 bd ce 2e 90 bd
       -0.027286481 -0.08143162 -0.096624486 -0.07040177
0003b0 8d 76 fa 3d d0 df 42 bc f5 07 37 bd d0 26 71 be
       0.12229643 -0.011894181 -0.044685323 -0.23549962
0003c0 d8 52 fc b9 6c 70 f2 3d e9 e8 84 3f b2 ad 91 bc
       -0.0004812691 0.11837849 1.0383579 -0.01778302
0003d0 50 b8 89 3e a7 83 d2 bd 77 24 69 be 68 23 5d be
       0.26898432 -0.10279017 -0.22767816 -0.21595538
0003e0 f5 f0 0e be cf 6b a3 3e 62 bd 84 be 0e 89 8c be
       -0.13959105 0.3191819 -0.25925738 -0.27448314
0003f0 61 24 e4 bf 6c a0 84 3f d5 70 94 be 90 6a ef bd
       -1.7823602 1.0361457 -0.28992334 -0.11690247

conv.convs.1.bias f4 [64]
000000 c8 c9 7c be 87 23 12 be e0 cd 7c be 03 f0 3d be
       -0.24686348 -0.14271365 -0.2468791 -0.18548588
000010 3a 55 48 be 25 8d 1c 3e 50 f2 5b be 93 18 fd 3e
       -0.19563761 0.15288217 -0.21479154 0.4943281
000020 02 96 1d be 54 94 d9 be 72 84 01 3c 3f d9 55 be
       -0.15389255 -0.42495978 0.007905113 -0.20883654
000030 11 4f 7e be c1 39 23 be c7 07 f6 bc a0 18 f5 be
       -0.24834849 -0.1594 -0.030033005 -0.4787035
000040 42 df ca be a4 f5 d5 bd 49 db 61 be 3c 97 42 be
       -0.39623457 -0.10447243 -0.22056307 -0.19003004
000050 f5 61 36 be 90 01 72 3e 97 2e 41 be e8 ce 1d bf
       -0.17810805 0.23633409 -0.18865429 -0.6164384
000060 ea eb 8c be 0d 97 c6 be 54 fe 16 be 2c 52 6a be
       -0.27523738 -0.38787118 -0.14745456 -0.22882909
000070 12 ac bf 3c d4 db 8a 3c 2d 3a 4f be 08 1d 7d be
       0.02339748 0.016950525 -0.20237036 -0.24718106
000080 7f 18 0d be 1e e7 b9 be 51 04 a1 be c7 9a 9b be
       -0.13778876 -0.3630914 -0.31448606 -0.30391523
000090 36 43 39 be 80 18 49 be d3 3f 27 bf 5a 24 a7 be
       -0.18092045 -0.19638252 -0.65331763 -0.32644922
0000a0 ce 96 5f be ca 09 e8 bd c9 91 47 be 78 0e 9d be
       -0.21834871 -0.11329992 -0.19489206 -0.306751
0000b0 19 7b a6 be f5 6a 58 be c8 8a 9c bd 56 c2 bf bc
       -0.3251579 -0.21134551 -0.07643658 -0.023408096
0000c0 30 a2 2d bd be ea 96 3d c7 b0 de 3e 71 db 36 3a
       -0.042391002 0.07368992 0.43494245 0.00069754483
0000d0 58 1a 9c be fe 1b 36 be a3 9f 15 be 90 e2 40 be
       -0.3048885 -0.17784116 -0.14611678 -0.18836427
0000e0 ff 8b 16 be a6 a1 05 be 57 e4 a5 3c d6 3c 8e be
       -0.14701842 -0.13049945 0.020250482 -0.2778079
0000f0 29 8a af bd f0 e6 dc be 90 ad 08 be 49 37 03 bf
       -0.08571274 -0.4314494 -0.13347459 -0.51256233

conv.convs.1.lin.weight f4 [64, 64]
000000 0c 55 79 bd 97 95 0d 3e 01 a1 1a 3f 4b eb 13 bf
       -0.060872123 0.13826595 0.6040192 -0.57780904
000010 d9 36 88 bc 81 9d 83 be 63 8c c4 3d 9e 7e c4 bc
       -0.016627716 -0.25706103 0.09597089 -0.023986157
000020 68 ad 9c 3e c6 df 98 3e 3b 22 bb 3e 04 b9 9f 3d
       0.30601048 0.29858226 0.36549553 0.07798961
000030 4f 2f 06 be 8c e5 92 bd 76 ce c3 bf f8 ca 36 3e
       -0.13103984 -0.07172689 -1.5297382 0.17850864
000040 b2 d5 1f bf 2f 41 e9 3e a9 49 fc 3d 23 29 0b 3e
       -0.6243545 0.45557544 0.12318737 0.13589911
000050 a5 34 e5 bd 18 1a 97 3e 13 5d 89 bd c0 52 02 be
       -0.11191682 0.29512095 -0.067072056 -0.12726879
000060 d1 d0 a2 3e 7e bd cc 3e cc c1 80 3f e7 40 e8 bd
       0.3179994 0.3998832 1.0059142 -0.11340504
000070 0f 39 d1 bd ec 0c 62 be 95 0d 55 3e ea 2a 41 be
       -0.10215961 -0.22075242 0.20805962 -0.18864027
000080 3b e5 52 3e 2f 9e 95 3e 52 ac 51 be 4d da 1a 3e
       0.20595257 0.29222247 -0.20475891 0.15122338
000090 67 0d bf 3c 47 19 87 bf 32 32 2f be 48 7c ab bd
       0.02332182 -1.0554589 -0.17108992 -0.08373314
0000a0 fe cd e8 be 19 36 93 be 50 7f 1b 3f fb f4 95 bc
       -0.4546966 -0.2875221 0.6074114 -0.018305292
0000b0 e3 b4 c6 be 3b 14 5c be f7 cc fb be 8d 6e ac 3d
       -0.3880988 -0.21492092 -0.49179813 0.084195234
0000c0 29 5e 89 3e 69 cb e8 bd 65 05 89 bf 8a 70 30 be
       0.2682965 -0.113669224 -1.0704771 -0.1723043
0000d0 79 3d 0e be 0d 08 1e be 3d a5 e8 bd fb ff cd 3c
       -0.13890637 -0.15432759 -0.11359642 0.025146475
0000e0 bf b5 0f be 2a 0d 91 3c 12 48 f8 bd 31 da 1d 3e
       -0.14034174 0.017706472 -0.12123121 0.15415265
0000f0 0e c3 b7 3e 1a 51 db bc 9f ed cc bc 12 57 01 c0
       0.35891002 -0.02677207 -0.02501565 -2.0209394
000100 cf 1e 13 be 0c d2 55 3e 1a 49 83 bd 46 7e dc 3c
       -0.14367221 0.20880908 -0.064104274 0.02691568
000110 71 20 80 3d 73 af 83 be 90 37 18 3f e2 3b 2d 3e
       0.06256188 -0.25719795 0.5945978 0.16917375
000120 cf 37 5c 3e 27 a7 07 3e 52 00 2c 3e 1d 1c e8 3e
       0.21505664 0.13247357 0.16796997 0.4533395
000130 0d d6 b2 3e 41 83 33 be b7 fb 11 bf 90 ba 1f 3e
       0.34928933 -0.17530538 -0.5702471 0.15598512
000140 f2 bd 51 be 55 d2 9d 3e f6 7a 16 3c 8f a2 85 bd
       -0.20482615 0.30824533 0.00918459 -0.06525146
000150 49 1e b5 bd 89 76 92 be d9 4f ba 3e f3 74 78 bc
       -0.08843667 -0.2860606 0.36389044 -0.015164602
000160 92 a9 42 3d 3d 16 96 3e ce b4 47 be e2 87 4c bd
       0.047524996 0.2931384 -0.19502565 -0.049934275
000170 d3 99 c0 3d 3f 18 3a be b3 80 8c bd cd b6 a5 be
       0.0940434 -0.18173312 -0.06860485 -0.32366028
000180 7d c1 82 3d cf 14 03 3e c0 0c 66 3e 38 4e dd 3e
       0.06384561 0.12800907 0.22465801 0.4322374
000190 8c d6 d5 bd 7c 22 d6 be e4 63 88 3e 2e 34 5f be
       -0.10441312 -0.41823184 0.2663871 -0.21797249
0001a0 2e aa d5 be 2d d6 55 be bd 3a c3 3e 89 86 c4 bd
       -0.417314 -0.20882483 0.3813075 -0.09595973
0001b0 79 b5 63 be fb 19 00 bf ea 80 80 be 4e a9 8c 3e
       -0.22237195 -0.50039643 -0.25098354 0.2747292
0001c0 4d 3c 38 bd cb 37 e0 bc 17 08 0e bf 98 48 aa 3e
       -0.044979382 -0.027370354 -0.55481094 0.3325851
0001d0 70 fe b3 3d 12 42 6a bd 2a 51 99 3d e4 f2 e9 bd
       0.087887645 -0.057191916 0.07486184 -0.11423281
0001e0 99 fe 86 be bb 23 55 3d d5 87 53 3e 9a 8f 9c 3e
       -0.26366118 0.05203603 0.20657285 0.3057831
0001f0 34 fc 6e be 0d bb 82 bc ea 6f 9d 3e 58 17 69 bf
       -0.23338395 -0.015958333 0.30749446 -0.91051245
000200 ae ad 14 3c 1f 64 da 3d a0 2d 23 3f 7f 2b 45 be
       0.009074612 0.10663628 0.63741493 -0.19254874
000210 a4 bc 20 bf 97 29 f3 be 11 a0 95 3e 2d eb 88 be
       -0.6278784 -0.47492668 0.29223683 -0.26741925
000220 8c 4e 19 3e 6c da 87 bb c0 8d 5d 3e e0 cc 5e 3e
       0.1497137 -0.004145911 0.21636105 0.21757841
000230 84 60 93 3e 9d 31 de 3d 43 83 91 be 96 ec a4 3e
       0.28784573 0.10849307 -0.28420457 0.3221175
000240 27 5f 7a 3e 9b c1 47 3e 11 c6 5d 3e d4 45 9f 3e
       0.2445036 0.19507448 0.21657588 0.31107962
000250 1f 47 00 c0 50 45 13 3e c5 b5 43 bd 71 14 0d c0
       -2.004341 0.1438191 -0.04778077 -2.2043726
000260 48 33 18 3f 29 bc 94 3d e9 1a 42 3e ec 51 97 bd
       0.5945325 0.07262451 0.18955578 -0.07388672
000270 20 52 d5 be e9 a9 ec 3c 9c 60 49 3e 09 f6 87 be
       -0.4166422 0.028889613 0.1966576 -0.26554897
000280 ae 0c 3d 3e dc 91 ea 3c ae cb d3 3e e4 70 2f 3e
       0.18461868 0.028634004 0.41366333 0.17132908
000290 99 9c 5b 3e a1 1b 8d 3d 37 66 69 bd 19 99 c2 be
       0.21446456 0.068900354 -0.056982245 -0.3800743
0002a0 54 6a e5 3d ec 4f 0f 3f 74 9c fa bd b8 1c d6 3e
       0.11201921 0.55981326 -0.12236872 0.41818786
0002b0 10 c1 ee bd 84 36 2e be f0 89 11 be a7 22 9a 3d
       -0.116579175 -0.17012984 -0.14212775 0.07526141
0002c0 e7 0c be bd 85 92 bf 3f 20 63 d6 be 04 0c 2a 3d
       -0.09279805 1.4966589 -0.418725 0.041515365
0002d0 15 bc 12 3e 31 76 d6 bc 2e aa 5d bf 86 58 02 be
       0.1432956 -0.026179405 -0.865878 -0.12729082
0002e0 e3 3b b0 be a8 d2 97 3d 89 07 84 3e c6 2f 83 be
       -0.3442069 0.07413226 0.25787 -0.25622386
0002f0 87 2b be bd 5b a4 7e 3b c4 ce 8d 3d f5 02 34 bf
       -0.09285646 0.0038855288 0.06924203 -0.7031701
000300 e7 c0 97 bd 08 2d b3 3e 5b f6 3a 3e cf 65 57 3d
       -0.0740984 0.34995294 0.1825804 0.052587327
000310 a5 71 08 3e d3 f3 c8 be ee cf 9f bd 0c 61 ae 3d
       0.13324602 -0.39248523 -0.07803331 0.08514604
000320 d0 88 d5 3e 95 5b 75 3e f1 60 29 3e a0 5f 0e bd
       0.41705942 0.23960717 0.16540886 -0.034759164
000330 45 16 57 3e d6 a5 e2 3d b6 c1 3f be 22 97 e0 3d
       0.21004589 0.11066787 -0.18726239 0.10966326
000340 dd 29 8f be e0 67 e2 bc da 49 c1 3d 36 7a 53 3e
       -0.27961627 -0.027637422 0.09437914 0.20652089
000350 67 5e 1f 3c ee b5 a8 bd 59 59 44 3e 3b 9a c2 3d
       0.009727097 -0.08237825 0.19174708 0.095020734
000360 1a 51 10 3e f5 a8 a3 3e 27 f3 32 bd f4 32 1c bd
       0.14093438 0.3196484 -0.04368892 -0.03813453
000370 ff 25 cf bd 2e dc 5e 3e 11 a3 fd 3d 5c 5b a7 be
       -0.10114669 0.2176368 0.12384618 -0.3268689
000380 50 af 9e 3c 71 e9 0c 3e ac c1 9a bd a3 80 43 bd
       0.019370705 0.13760926 -0.07556471 -0.0477301
000390 9e 34 86 3e 64 fd 8a be 35 33 01 3e e9 17 22 3e
       0.2621202 -0.27146447 0.1261719 0.15829434
0003a0 08 7f e9 3d e9 87 47 bd 19 55 9f bd 0e 83 8a bd
       0.114011824 -0.0487136 -0.07779903 -0.06763278
0003b0 e0 1d 23 be ba 9c 33 be f7 3c 4b 3d 05 a1 3e 3e
       -0.15929365 -0.17540255 0.049618687 0.18616112
0003c0 b7 1d a8 3d 7e ef 35 3e e7 8c 99 be c0 6d 8e 3e
       0.08208793 0.1776714 -0.29990312 0.27818108
0003d0 59 8d 55 3c d1 b0 38 be c1 e0 63 be b5 f6 2d bd
       0.013034188 -0.180362 -0.22253706 -0.042471606
0003e0 05 e1 b3 be 8f 64 80 bd 50 c1 3f 3d ae 3c 17 3e
       -0.35132614 -0.0626918 0.046815217 0.14769241
0003f0 89 f2 eb 3c d0 6c b2 3d 2b 22 ba 3e cd 5f d8 be
       0.028802173 0.087121606 0.36354193 -0.4226059

conv.convs.2.bias f4 [64]
000000 3c 43 f6 3d 6c ad 8c 3e 60 16 21 bb ab be 12 3d
       0.12024543 0.2747606 -0.0024579987 0.035826366
000010 9e 54 d9 bb 0d 76 d4 3d 3f 65 65 3d ec f4 b1 3d
       -0.0066324016 0.10374079 0.05600476 0.08689293
000020 4b e4 e9 bc 9d 22 0c 3e 30 d3 96 bd 83 c2 f7 3d
       -0.028551241 0.13685079 -0.073644996 0.12097647
000030 3c 0c fc 3a 78 d4 51 be b9 24 2c be c1 4d 89 bc
       0.001922972 -0.20491207 -0.16810884 -0.016760709
000040 ed b3 3c bd 26 99 1f bd e1 e3 da bd 99 68 66 3e
       -0.046070028 -0.038964413 -0.10687996 0.22500838
000050 ac c9 16 3e 25 92 05 bd 97 c6 28 be 4f 97 75 be
       0.14725369 -0.032610077 -0.16482006 -0.23983501
000060 92 d3 2c bd 3e b7 e5 bd 5a 30 37 be 51 9e 83 3d
       -0.042193957 -0.11216591 -0.17889538 0.06426681
000070 12 ae 12 bd d3 a1 51 3e 1b 0a 13 bd 60 4f 08 3d
       -0.035810538 0.20471887 -0.03589831 0.033278823
000080 d5 33 6f 3d a0 bb dc bc 7c d6 0f bd ee 17 f5 3d
       0.05839904 -0.026944935 -0.035116658 0.11967455
000090 e3 16 6f 3d 70 eb 0b 3e b0 b3 85 3d 21 6d b5 bd
       0.058371436 0.13664031 0.06528413 -0.08858705
0000a0 86 eb a2 3c bd 2b 8d bc 69 ba e6 bb f5 3b 99 3d
       0.019887697 -0.01723277 -0.007041265 0.07482139
0000b0 1a 3c 80 3d c7 66 96 bd 73 14 f9 bd 60 56 77 bd
       0.062614635 -0.07343822 -0.121621035 -0.060385108
0000c0 5e 85 d7 bc f8 64 85 bd 21 a3 fc 3c 5c 55 38 bd
       -0.026308712 -0.06513399 0.030839505 -0.04500328
0000d0 d2 0f c9 3d 28 ec 50 bd 85 b6 a0 bd 6d 4a 9f 3d
       0.098174706 -0.051006466 -0.07847313 0.077778675
0000e0 2f 92 0f 3d 9b eb 14 be 8a 98 a1 bc 0c f1 c1 bd
       0.03505152 -0.14543001 -0.019726057 -0.09469804
0000f0 e5 7f 4e be 2c d8 4b 3c 84 9c 48 be b6 7b 35 3b
       -0.20165975 0.012441676 -0.19590956 0.0027692146

conv.convs.2.lin.weight f4 [64, 64]
000000 36 6f e5 3d 12 9e 04 3e 4a b8 c4 bd a6 3e fd 3e
       0.112028524 0.12950924 -0.09605463 0.4946186
000010 48 a1 b3 bc 2a 05 5f be 69 69 46 bd 64 b1 fc 3e
       -0.02192749 -0.21779314 -0.04844037 0.49354088
000020 c7 bf 9b be 16 8f ac be 7b bd 21 bf a1 00 5b be
       -0.30419752 -0.33702916 -0.6317975 -0.21386959
000030 32 0b c2 be 16 c4 01 be 05 ff 45 3d b9 46 1c bd
       -0.37899166 -0.12672457 0.04833891 -0.038153384
000040 12 79 51 3c 50 d2 26 3e 0a b7 c9 3e a3 c9 ab bc
       0.012785213 0.16291165 0.3939746 -0.020970171
000050 de bc 65 bd 40 e2 b9 3d 0c a0 b1 bc 80 f6 9b bf
       -0.05608832 0.09076357 -0.021682762 -1.2184601
000060 b9 d5 73 bd 91 13 e3 be 5b e5 a6 bd be 19 35 3d
       -0.059529994 -0.44350865 -0.08149215 0.044214003
000070 9e 25 0b 3e c8 3c 5c 3d e1 36 9e bd c2 65 94 bd
       0.13588569 0.053768903 -0.07725311 -0.07245971
000080 08 92 65 be e3 e5 70 be cb a8 ba 3e 47 0b 66 be
       -0.22418988 -0.23525195 0.36456904 -0.2246524
000090 cc 6e 12 be 29 b8 71 3d 9e 7f 81 3d 7b 42 1e 3e
       -0.14300078 0.05901352 0.06323169 0.15455048
0000a0 8d 8c dd bd 6b 39 fc 3d 1a ec 68 be aa 7d af 3e
       -0.108178236 0.12315639 -0.22746316 0.34275562
0000b0 df 0b c5 be 1c e3 03 be 34 08 24 3e 17 14 71 be
       -0.3848562 -0.12879604 0.16018754 -0.2354282
0000c0 4b da 0c 3e 7a 13 c5 be 04 5c 45 bd 0d 8e ef 3d
       0.13755147 -0.38491422 -0.048183456 0.11697016
0000d0 b9 bd f7 3d a2 c0 1c 3e 87 10 7c be df 7e 15 be
       0.120967336 0.15307859 -0.2461568 -0.14599179
0000e0 0b e5 05 bd 38 cd 06 bd f0 50 8c 3e 68 95 91 bd
       -0.032689136 -0.032910556 0.274055 -0.07108575
0000f0 8d 85 27 be 3e 5b de be 9d dd ae bd 46 68 b9 be
       -0.1635954 -0.43428987 -0.08538363 -0.36212367
000100 9c c9 c9 3e 32 2a a9 3e b7 01 65 bd cf 9d c0 3e
       0.39411628 0.33040005 -0.05590984 0.37620398
000110 1b a1 e3 3c 49 74 28 3f 29 4b 0c 3e 1f 08 5f 3f
       0.027786782 0.6580244 0.13700546 0.87121767
000120 c8 ea b2 be a4 86 09 bf 9e c3 ce be 3f 7e 58 3d
       -0.3494475 -0.5372107 -0.4038362 0.052854773
000130 1c 3e aa bc 65 4f da 3d 96 48 26 3e 00 70 4b 3e
       -0.02078157 0.106596746 0.16238627 0.19866943
000140 8f f3 46 bf 73 9c 94 bc 5e f1 b2 3e 0b ed 58 3e
       -0.7771539 -0.018141007 0.34949774 0.21184175
000150 f9 a9 a3 3e d3 43 58 be d3 61 65 3e 70 34 15 bd
       0.31965616 -0.21119623 0.22400598 -0.03642696
000160 f1 86 e9 3d 93 ab 64 be 5e f3 83 3e 9e d0 24 3f
       0.11402691 -0.22331075 0.25771612 0.64380825
000170 df 7b 5a 3e d3 98 81 3e ac 3b aa 3e f2 14 7b 3c
       0.21336316 0.25311908 0.3324865 0.015324818
000180 7a da 03 bc f1 c1 c6 be d6 60 4c 3e 2f 2c 10 be
       -0.008047694 -0.3881984 0.19958815 -0.14079355
000190 b5 3d 9f be 5e 88 72 3e 84 3b 07 3f b6 12 86 3d
       -0.31101766 0.23684832 0.5282519 0.065465376
0001a0 c2 4c 3e 3b fd 28 57 3e 88 a9 8d be bd 6b 82 3e
       0.002903745 0.2101173 -0.27668405 0.25472823
0001b0 e6 1e 96 be 31 ff c3 3e 3f 15 e1 3d be 4d 1c be
       -0.2932045 0.38280633 0.109903805 -0.15264031
0001c0 d0 e4 ab bd 71 f2 cf 3f 23 0a 19 40 15 70 75 3e
       -0.08393252 1.6245862 2.3912437 0.23968537
0001d0 7f ed 28 bc 29 3a a5 bb a0 c4 d8 be 7b 49 59 bd
       -0.01031053 -0.0050423336 -0.42337513 -0.053048592
0001e0 eb d1 9a 3c d9 3e af bd 2d 50 00 3e 13 b8 3a 3f
       0.018898925 -0.08556909 0.12530585 0.72937125
0001f0 3b 84 82 bd 52 20 35 be bb 9d 1a 3e 5b 30 39 3f
       -0.06372877 -0.1768811 0.15099232 0.7233941
000200 2d e2 55 3e 6c c2 93 bd ae b4 d1 3d dc 83 95 bd
       0.2088706 -0.072148174 0.1023954 -0.07300541
000210 a4 52 00 3e 91 f8 93 3e 2d 14 68 3c 7f ce 5d be
       0.12531525 0.2890058 0.0141649665 -0.21660803
000220 ee 27 8a bd 06 ab 55 bc 6b 02 11 3f ae 27 a6 3e
       -0.06745897 -0.013041263 0.56644315 0.32452148
000230 c2 d0 48 be 78 12 d9 3e 4f 3c 19 be 04 7a 17 3e
       -0.19610885 0.42396903 -0.14964412 0.14792639
000240 78 3d 07 be e7 68 f3 3c 12 cc 9f 3e 47 e7 d0 3e
       -0.13207042 0.029713107 0.3121038 0.4080145
000250 2b 26 d3 3e e3 ac 9c be 36 1a e4 3d 2b f4 e9 3e
       0.41240057 -0.30600652 0.11137812 0.45694098
000260 fb f6 ee 3e f4 37 9e 3d c6 54 88 3d 1f d4 ba 3e
       0.46672806 0.07725516 0.06656794 0.3648996
000270 be 02 12 be cb 8e 9f bd 78 03 43 3e 71 3b 14 3d
       -0.14258859 -0.077909075 0.19044292 0.0361895
000280 0c 63 86 3d 7a 3a bf be 35 6e 27 bf 41 29 99 3e
       0.065618604 -0.37349302 -0.6540254 0.29914287
000290 12 4a c8 bd 53 d9 f6 bc 30 99 98 3e 89 c2 a0 3e
       -0.09779753 -0.030132925 0.29804373 0.3139842
0002a0 92 e8 c6 bc 4d 0c 40 be 9d 18 a4 3e e3 92 22 be
       -0.02428082 -0.18754692 0.32050028 -0.15876345
0002b0 0d a4 9d 3e 9d 03 65 3e 35 96 5e be 05 41 a1 3d
       0.30789223 0.2236466 -0.21736987 0.078737296
0002c0 3c 47 7c bd ae dc 89 3e 74 ae 7d 3f d2 0f c1 bd
       -0.061591372 0.26926178 0.9909432 -0.094268456
0002d0 63 61 59 be eb 52 0e 3e 60 82 80 3d cb 46 44 3e
       -0.21228556 0.13898818 0.06274867 0.1916763
0002e0 e3 79 b5 3e b2 b6 89 3e 60 d1 ef be 16 e2 44 3e
       0.35444555 0.26897198 -0.46839428 0.1922687
0002f0 ae 91 49 3d e1 98 0e 3d 0d bb a5 3d b5 bd bc 3f
       0.049211197 0.034813765 0.08092318 1.4745394
000300 be 02 46 3e 34 9f 12 3e 95 90 82 bb bf 9a 3e 3d
       0.19336984 0.14318544 -0.0039845207 0.046534296
000310 65 32 d9 3d 2c 4e 46 3e 12 72 f2 bd 16 74 da be
       0.10605315 0.19365758 -0.118381634 -0.42666692
000320 2b 18 17 be 0a 9f 81 3d ed 8f 07 3f 87 fe 94 3e
       -0.14755313 0.063291624 0.5295399 0.2910044
000330 bf 1d 00 be 76 d8 cc 3e 42 56 2d be 42 77 2b 3e
       -0.12511347 0.40008897 -0.16927436 0.16744712
000340 be 09 9f be 24 66 c7 3d 7e ca 6d 3e 6e e0 8a 3e
       -0.3106212 0.09736279 0.23221776 0.2712435
000350 3e ea f5 3d 79 dd ac be 8f 83 9e 3d af 12 31 3f
       0.12007569 -0.3376272 0.077399366 0.69169134
000360 a8 3b e9 3e 81 d4 3e 3e a0 0c e0 3c c0 ee e5 ba
       0.45553327 0.18635751 0.02734977 -0.0017542467
000370 e9 c7 c9 bd c7 3a f9 bd 9e df 44 3e 77 8a 0e 3e
       -0.09852583 -0.12169414 0.19225928 0.13920008
000380 09 0b d1 bb 15 da 07 bf 51 a2 79 bf a4 cc a5 3e
       -0.0063794893 -0.5306714 -0.975133 0.3238269
000390 ea 62 e8 3d 72 f1 7d bd 4e 15 58 3e 08 2a 92 3e
       0.11346991 -0.06199784 0.21101877 0.28547692
0003a0 09 5a 0f 3c 54 fa 38 be ac 53 0c 3e 95 09 13 be
       0.008749493 -0.18064243 0.13703793 -0.14359124
0003b0 e0 b8 7f 3e 61 5b 94 3e 66 7a 89 be ac 4f f0 3d
       0.24972868 0.28975967 -0.26851195 0.11733946
0003c0 28 39 a6 bc d0 72 8a 3e a8 0e 91 3f be a2 84 bd
       -0.020290926 0.2704072 1.1332598 -0.06476353
0003d0 83 d2 89 be a2 26 4b bd 76 a8 e2 bd cb fb 61 3e
       -0.2691842 -0.04959739 -0.110672876 0.22068708
0003e0 6c 0b 2e 3e 19 bb 66 3e 97 87 3a bf 27 a0 d8 3e
       0.16996545 0.2253231 -0.72863144 0.42309687
0003f0 81 b1 95 3d 29 7a 50 3e 0d 3f ec 3b f6 78 bd 3f
       0.07309247 0.203591 0.0072096647 1.4802539

lin.weight f4 [64, 128]
000000 a9 ec 52 be 7f 7a a4 be de c9 9e 3c 33 6a 84 bc
       -0.20598091 -0.32124707 0.019383367 -0.016163921
000010 1c 11 14 be 1c 0c 06 3e e1 1b b1 3d f5 d5 80 bf
       -0.14459652 0.13090557 0.086478956 -1.0065295
000020 1d c6 76 3e ae f5 b9 ba 43 85 1e 3e 71 f0 b8 be
       0.24099012 -0.0014187598 0.15480523 -0.36120942
000030 38 35 10 3c 3d 19 3c be c8 26 7e be 08 61 fb 3e
       0.008801751 -0.18369003 -0.24819481 0.49097466
000040 04 ff 40 be d7 72 23 3c 87 93 19 be 9a fc cf be
       -0.1884728 0.00997611 -0.14997683 -0.40622407
000050 c9 d5 16 3e 0b 97 55 bd 2a b3 7a 3e 46 ac 26 3e
       0.1472999 -0.052146 0.24482408 0.16276655
000060 80 b7 fd bd f2 80 6e bd 03 ea 79 3e aa f2 4d 3e
       -0.123885155 -0.05822844 0.24405675 0.201121
000070 1c 25 ff bd 4a d8 61 be ff e8 bf bd 1c 1f 0d 3e
       -0.1245825 -0.22055164 -0.09370612 0.13781399
000080 ba 36 b8 bc d0 ea c1 3e ee 17 2b 3b 8a de 3b bf
       -0.022487033 0.3787446 0.0026106793 -0.7338644
000090 d0 32 0f bf f4 a8 a5 3d 2c 31 c9 3d b8 35 40 3d
       -0.5593691 0.08088866 0.09823832 0.04692623
0000a0 ca c8 1a 3f c1 82 8b be ab 2e a2 3e 09 13 77 3e
       0.6046263 -0.27248195 0.3167623 0.24128355
0000b0 8b 2e 35 bd 9d c1 ac 3d ac ea 34 be f7 81 44 bc
       -0.04423384 0.08435366 -0.17667645 -0.011993877
0000c0 b8 cf 18 3d e2 b7 3c 3f f6 3e bc 3d bf e2 e4 bd
       0.03730747 0.7371808 0.09191696 -0.11176061
0000d0 3f e8 5f 3e cb 09 3f 3e 40 c0 8b bd 99 90 8e bd
       0.21865939 0.1865608 -0.06823778 -0.069611736
0000e0 e6 c2 e8 be d9 c6 e1 bd ca 0d 0b 3f 7c 9f 6d be
       -0.45461196 -0.11024255 0.54317915 -0.2320537
0000f0 08 b9 7e 3b 9e f2 1f be 33 00 d2 3e 21 56 25 3e
       0.0038867611 -0.15619895 0.41015777 0.16146137
000100 fc f1 6e be 0e 67 d6 be e2 1c 24 3d 24 e2 df bd
       -0.23334497 -0.418755 0.040066607 -0.10931805
000110 56 c3 04 be 38 7b 21 3e 4b e6 0f 3d 1d 84 8e bf
       -0.1296514 0.1576966 0.035131734 -1.1134068
000120 e5 2b 8c 3e 5f 67 56 bd 02 47 23 3e 3d 4d c5 be
       0.2737724 -0.052344676 0.15945056 -0.3853549
000130 ff 56 0f ba cb e7 f2 bd 84 ed 47 be 1c bb 11 3f
       -0.00054679805 -0.11860617 -0.19524199 0.5692613
000140 06 a2 43 be e3 63 1b bd 4e 18 3b be c3 f8 0b bf
       -0.19104776 -0.037937056 -0.1827099 -0.54676455
000150 09 6a 1a 3e 5f 90 07 bd 39 c2 98 3e 21 85 2c 3e
       0.15079512 -0.033096667 0.2983568 0.1684766
000160 f0 ab 65 be 8a 96 39 bd 35 c3 bc 3e e0 b3 2d 3e
       -0.2242887 -0.04530958 0.3686768 0.16963148
000170 48 19 d3 bd f5 2d 9a be 1e 01 01 bc 57 ab c6 3d
       -0.103075564 -0.30113187 -0.0078738015 0.09700649
000180 22 93 07 bd 4c 0c da 3e 9a 86 25 3c 28 c7 66 bf
       -0.0330993 0.42587507 0.010102892 -0.9014764
000190 56 58 22 bf c6 7d 9b 3d 0f ec 34 3e 7b f9 0b 3d
       -0.6341604 0.07592349 0.17668174 0.03417347
0001a0 a0 4c 24 3f aa 58 89 be 93 11 b0 3e 70 b9 81 3e
       0.6417942 -0.26825458 0.34388408 0.2533679
0001b0 08 ac 83 bd 4d 00 e8 3d 3d bc 11 be 6e 09 9c bc
       -0.06429297 0.11328182 -0.14231963 -0.019047465
0001c0 25 f1 4c bc 3b 8b 38 3f 23 38 e0 3d 38 bd a1 bd
       -0.012508665 0.7208745 0.10948207 -0.07897419
0001d0 18 39 6b 3e 2a a4 06 3e 4c 81 6d 3b 53 72 55 bd
       0.22970998 0.13148561 0.0036240397 -0.05211098
0001e0 55 14 12 bf a1 23 23 be 6c 8b 17 3f 79 75 85 be
       -0.57062274 -0.1593156 0.59197116 -0.26066187
0001f0 74 84 a2 bc 0b 5f 1b be 96 c3 06 3f d0 6b f4 3d
       -0.01983855 -0.15172975 0.5264219 0.11934626
000200 15 18 55 3b 4d aa 3b bc 07 39 7c bc 1b 0c 05 bb
       0.0032515575 -0.011454177 -0.015394456 -0.0020301405
000210 c9 b4 38 3d 92 94 20 bd 0c 87 bd bb cb aa 9a 3c
       0.045094285 -0.039204188 -0.005783921 0.018880269
000220 f4 35 29 3c bf e6 df bc 09 84 2d 3d 13 b8 95 bc
       0.010327805 -0.027331708 0.042362247 -0.01827625
000230 97 c8 48 3d 7d b7 2b 3c e9 3b 1a 3d 35 e4 21 3d
       0.049019422 0.010480759 0.03765479 0.039524276
000240 a0 02 92 bc 20 48 7e 3c 15 55 6b bc 64 17 e2 bc
       -0.017823517 0.015520126 -0.014363547 -0.027599044
000250 f0 6b a8 3b a6 ed bc 3b 09 1e 9a 3c 5c b4 bf 3c
       0.0051398203 0.0057656346 0.01881315 0.023401432
000260 cd 87 a0 bc 7d d7 b7 3c cc 44 72 3c 51 e5 24 bc
       -0.019596005 0.02244162 0.01478691 -0.010064439
000270 13 78 89 bc 8d 81 2d bc d8 cd 82 3a fe f8 09 3c
       -0.016780889 -0.010589969 0.0009979559 0.008421181
000280 27 fe 16 bc 5b 06 36 3c 22 c3 27 bc a0 f4 54 bd
       -0.009215868 0.011109914 -0.010239394 -0.051991105
000290 01 4e fe bc a8 18 6e bc 78 e1 f5 bc 35 8f c4 ba
       -0.031043055 -0.014532246 -0.030014738 -0.0014996292
0002a0 bd 80 d6 3c 59 b3 ce 3c 2d 59 2b bc e3 b6 82 bc
       0.026184434 0.025232004 -0.010458273 -0.015956348
0002b0 d3 17 05 3c 24 9b b0 3c 37 de 47 bc 09 32 5f 3c
       0.008123356 0.021558352 -0.012198976 0.013622769
0002c0 d0 7b ec bc 68 f3 12 3d 69 d9 1e bd ca 29 1e bc
       -0.028867632 0.03587666 -0.038781557 -0.009653518
0002d0 b0 a4 94 bb 79 8a 80 3b 96 d8 b3 3c 76 7d df 3c
       -0.004536234 0.003922757 0.021953862 0.027281504
0002e0 42 fb 0a 3d f3 ac 34 3b 69 3e 15 3d 92 18 dd 3b
       0.033931024 0.0027568906 0.036436472 0.006747314
0002f0 a5 d5 b0 39 6a 67 3c 39 3a 5f 82 3c 87 aa 29 3d
       0.00033728514 0.00017967602 0.015914548 0.041422393
000300 76 e7 ab bd 2a 7b af 3d 18 b3 6f 3d f8 00 07 3e
       -0.08393757 0.085684136 0.058520406 0.13183963
000310 0d 21 0e be 44 72 b3 3d d0 fe bc 3d 86 d7 01 3e
       -0.13879795 0.08762029 0.09228289 0.12679872
000320 42 20 e2 bd 2d 6c 0a 3e 19 f0 a4 3d 7a 07 69 3d
       -0.11041309 0.13517828 0.080536075 0.056891896
000330 48 26 33 bd 22 c3 b1 bd e0 fd ff bd 6c cd 8f bd
       -0.04373768 -0.08679797 -0.12499595 -0.07021603
000340 e6 e3 af 3d 3d f9 f9 bd 37 4b 55 bd d9 24 eb 3d
       0.0858839 -0.122057416 -0.052073684 0.114816375
000350 9d 7c 4d 3d b0 b1 09 be c1 74 d0 bd 19 d6 df bd
       0.05016767 -0.13446689 -0.10178519 -0.10929508
000360 f3 bf 8f 3d 62 1d f4 bd e9 d2 e6 bd 03 40 f7 3d
       0.07019033 -0.11919667 -0.11270697 0.12072756
000370 53 ae d0 bc f4 0c d4 3d cb 36 e1 bd 03 0f 84 bc
       -0.02547375 0.10354033 -0.10996779 -0.01612044
000380 bf 26 b8 bd d6 2a 83 3c b4 17 d4 bd d9 f6 ca 3d
       -0.08991765 0.016011637 -0.103560835 0.09910364
000390 54 4d ac 3d a1 a2 c5 3d d6 79 84 bc 32 52 d6 bd
       0.08413187 0.096501596 -0.016171377 -0.10464896
0003a0 90 c4 37 bd 46 78 67 bd b8 c9 4c 3c 68 02 b7 3d
       -0.04486519 -0.056511186 0.012499265 0.08936006
0003b0 db 34 91 3d 08 98 94 bd 14 cc d6 bd 74 b5 fa bd
       0.070901595 -0.0725556 -0.104881436 -0.12241641
0003c0 8d f3 f8 3d 36 d4 4a 3d 5d df e9 3d 83 36 cf bd
       0.121558286 0.049518786 0.11419556 -0.10117819
0003d0 34 db 9a 3d 55 95 d4 3d 76 71 92 bd 13 2c cd bd
       0.07561341 0.10380045 -0.07150547 -0.10018172
0003e0 c8 ac be 3d b5 97 1e 3d fa 65 c3 bd 1a 46 1a be
       0.09310299 0.038718898 -0.09540935 -0.15065804
0003f0 b6 35 fc bd 57 51 07 3d f7 fd 81 bd d5 bd b7 3d
       -0.12314932 0.033036556 -0.06347268 0.089717545

lin.bias f4 [64]
000000 62 f0 07 bf 4a 23 b4 3d 60 9b 86 be c9 48 94 be
       -0.5310117 0.08795793 -0.26290417 -0.2896178
000010 78 7f 13 be ed ab 22 3f d6 e5 f1 bd 0c 96 c5 be
       -0.14404094 0.6354359 -0.11811416 -0.3859104
000020 33 1f 03 bf f9 04 e5 bd e7 d0 29 bf 4b f2 05 bf
       -0.5121948 -0.11182589 -0.66334385 -0.52322835
000030 e0 be 10 be 02 d9 0a bf 67 f1 a0 bd 1b 7d ca bd
       -0.14135313 -0.5423738 -0.07858544 -0.09887143
000040 3e 47 6f 3d fa 9d 29 bf fe c4 62 be 14 93 f0 be
       0.05841755 -0.6625668 -0.22145459 -0.46987212
000050 27 2a 07 bf de b9 ea be 34 6d db be a1 64 64 be
       -0.52798694 -0.4584493 -0.42856753 -0.22304012
000060 6c e7 84 be 78 7d 0d bf 63 59 17 3e 3c 3d 45 be
       -0.2595781 -0.55269575 0.14780192 -0.1926164
000070 f2 aa 63 3e e0 33 05 be f8 26 02 bf 2a 16 dd be
       0.22233179 -0.1300807 -0.5084071 -0.43180972
000080 9f 63 09 bf 3d fe 83 3d f0 7b e2 be 86 c2 3f be
       -0.53667635 0.064449765 -0.44235182 -0.18726549
000090 f4 53 4b bd 1a 13 32 be 39 0c 05 3e 80 bc 14 bf
       -0.04964061 -0.17390099 0.12992944 -0.5810013
0000a0 b9 57 0e be a9 ac 12 be 81 1f 22 3e b8 54 fb be
       -0.13900651 -0.14323677 0.1583233 -0.49088073
0000b0 c6 a8 3b bf 66 60 1c be 7b 56 70 be c3 b9 e0 be
       -0.733044 -0.15271148 -0.2347049 -0.43891725
0000c0 ab d0 74 be 73 3a 87 bd 1b 32 41 be 98 78 7a bd
       -0.23907726 -0.06602945 -0.1886677 -0.061150163
0000d0 3e 44 df bd dc a1 d8 be f0 85 1c bf a6 79 85 be
       -0.10901688 -0.4231099 -0.6114187 -0.26069373
0000e0 9c 2e 3c be cf 8f c0 be ed c1 48 be b4 fd 0d bf
       -0.18377155 -0.37609717 -0.19605227 -0.55465245
0000f0 bb b0 07 bf ee e1 f1 be 96 26 f3 be 69 3c 31 be
       -0.53004044 -0.47242683 -0.47490376 -0.17308201

out.weight f4 [2, 64]
000000 23 36 b3 bd 5c c2 ff b9 4f 85 1f bd ca 1d ba 3d
       -0.0875056 -0.000487822 -0.038945492 0.09087713
000010 bb 25 99 3d ee 9c 1e 3e 81 d1 c5 bd 33 5b 5e 3d
       0.074779 0.15489551 -0.096591 0.054286193
000020 c8 6f 3e bd 78 2f 5f bd 44 38 29 3e dc 69 fc bd
       -0.04649332 -0.05448863 0.1652537 -0.123248786
000030 79 48 e3 bc 45 38 87 bd 9d fe 2a bc de ff 0a 3e
       -0.027744519 -0.066025294 -0.010436681 0.13574168
000040 a9 b7 3f bd 5f 42 0a bd 29 70 4e bc fa c8 33 be
       -0.04680601 -0.033754703 -0.012599983 -0.17557135
000050 c6 b6 24 3e cb 1a 86 3d 2d aa af bd 1f 30 9b bd
       0.16085348 0.06548079 -0.0857738 -0.07577538
000060 39 27 92 3d 37 53 c0 3c d9 c0 d8 bc 69 b2 05 3e
       0.071363874 0.02347718 -0.026459144 0.1305634
000070 dd 35 2e 3e 97 64 1e 3e a2 5c b5 3c f3 a2 84 be
       0.17012735 0.1546806 0.022138897 -0.2590557
000080 2f d1 50 bd d1 6c 09 bd 86 91 3a bd 03 a7 28 3d
       -0.050980743 -0.03355104 -0.04554894 0.0411749
000090 86 92 54 3c a1 e6 4f bd fc 21 60 3d 8c ba 04 3e
       0.012974387 -0.050757054 0.05471991 0.12961787
0000a0 93 7e 83 be ff 40 a5 bb c0 f4 36 3e 60 e5 e4 bd
       -0.25682506 -0.0050431485 0.17866802 -0.11176562
0000b0 0c 1e 0a be fe 04 46 bc dc 8e 8c bd cb de e0 bd
       -0.13488024 -0.012086151 -0.06863186 -0.109799944
0000c0 5f cc 03 3d cf e7 fe 3d 08 d3 c8 bd 35 df 07 3d
       0.032177325 0.12446558 -0.09805876 0.03317185
0000d0 67 bc 72 3d 3b 36 f2 bd 9b 62 48 bd fc 17 64 bd
       0.059261706 -0.1182675 -0.048922163 -0.055686936
0000e0 88 2c 9e 3d 37 aa 48 3e c5 fb 30 3e 53 11 99 bd
       0.077233374 0.19596182 0.17283542 -0.074740075
0000f0 d6 6e fe bd ac 36 e0 bb 70 6c 9c be b3 7f 8b 3d
       -0.12423484 -0.006842455 -0.3055148 0.06811466
000100 a3 80 16 3e 75 36 98 ba 68 da 33 3d 64 7b 82 bd
       0.14697509 -0.0011612909 0.04390946 -0.06371191
000110 7c 12 07 be b0 4a 36 be 86 56 f6 3d 17 10 ec bd
       -0.13190645 -0.17801929 0.12028222 -0.115265064
000120 a3 49 73 3d 1f 7f 5c 3c 38 28 55 be 88 3f d9 3d
       0.059396397 0.013458042 -0.20816123 0.10607821
000130 2b b8 a5 bb 21 51 c5 3d 6b 91 03 3d 2e be 00 be
       -0.005057355 0.09634615 0.032121103 -0.12572548
000140 b4 ec 53 3d 65 80 84 3d e6 51 1b 3d 7c 43 57 3e
       0.05173941 0.06469802 0.0379199 0.21021837
000150 c1 d7 22 be 76 b9 03 be c1 38 b1 3d 94 4f f6 3c
       -0.15902616 -0.12863716 0.08653403 0.030067243
000160 84 a6 95 bd 19 4f 66 bc 3c 18 14 3d 04 c6 a7 bd
       -0.07307151 -0.014056944 0.036155924 -0.08192065
000170 3e 89 2e be 6d 40 e2 bd b7 64 76 ba 06 43 84 3e
       -0.17044541 -0.110474445 -0.0009399163 0.25832385
000180 93 8c 6a 3c aa 32 12 3c dc ea 99 3d 6e 5e d7 bc
       0.014315742 0.008923212 0.07515499 -0.026290145
000190 05 69 d5 bc a6 09 1e 3d 87 cf 38 bd cc ba ef bd
       -0.026051054 0.03858342 -0.04511979 -0.117055506
0001a0 42 8d 68 3e 08 05 b2 3c d3 a1 2b be fb ec ad 3d
       0.22710136 0.021730915 -0.1676095 0.08492466
0001b0 e0 84 37 3e ab 62 90 bc 53 d1 9c 3d 63 44 ea 3d
       0.17921782 -0.017625174 0.07657113 0.11438825
0001c0 4b 75 a2 bc 27 69 9a bd ad e5 af 3d 37 04 81 bd
       -0.01983132 -0.075395875 0.08588729 -0.06299632
0001d0 ea 16 36 bc ae b6 21 3e 19 9e 55 bb 81 6b 53 3d
       -0.011113862 0.15792343 -0.0032595454 0.051616196
0001e0 1c b9 7b bd a3 b2 49 be 3b fd 11 be fd 1f 73 3d
       -0.06145583 -0.19697051 -0.14256756 0.05935668
0001f0 54 db ab 3d 2f bc a1 bb 14 c3 7a 3e 74 33 22 bd
       0.08391443 -0.0049357633 0.24488479 -0.03959985

out.bias f4 [2]
000000 cd 81 01 40 da 3c 01 c0
       2.0235474 -2.019339
