ckpts/shape.pt (torch, 88229 bytes, 12 tensors)

conv.convs.0.bias f4 [64]
0	0x3de4ea10	0.111774564
1	0x3dbd9515	0.09256951
2	0x3adb5bf7	0.0016735782
3	0x3e105477	0.14094721
4	0xbda297d9	-0.07939119
5	0xbdcc26d3	-0.09968343
6	0xbdf76d68	-0.120814145
7	0xbe03bb9e	-0.12864539
8	0xbdf4a207	-0.11944967
9	0xbddfe1b9	-0.10931725
10	0x3cb6cee9	0.02231546
11	0xbdb1b62e	-0.08677326
12	0x3e188573	0.14894657
13	0xbe05f3bd	-0.1308126
14	0x3d4b7354	0.049670532
15	0xbd477d81	-0.048703674
16	0xbb84e477	-0.0040555554
17	0xbd46f0c2	-0.04856945
18	0x3b590799	0.00331161
19	0x3dd272cb	0.10275801
20	0xbd1adcb2	-0.037808128
21	0x3dcb32e5	0.09921817
22	0xbdef7623	-0.11692455
23	0x3e1050aa	0.14093271
24	0x3dc58f0b	0.09646424
25	0x3e120999	0.14261474
26	0x3e1d6c52	0.15373352
27	0x398d5187	0.00026954358
28	0xbe07dcc3	-0.13267808
29	0x3dfcb4f6	0.12339203
30	0xbde45222	-0.11148478
31	0xbcab415e	-0.020905193
32	0xbe0a5162	-0.13507608
33	0x3caf9c03	0.021436697
34	0xbdddbf4b	-0.10827502
35	0xbd5edc51	-0.05440933
36	0x3e339536	0.17537388
37	0x3d549d1b	0.05190764
38	0xbdefed07	-0.11715131
39	0x3d64c5d8	0.05585274
40	0xbdef8aad	-0.11696372
41	0x3e1504b9	0.14552583
42	0xbdfa1a16	-0.12212007
43	0xbe083c01	-0.1330414
44	0x3ddd7c14	0.10814682
45	0xbdeb599c	-0.11491701
46	0xbc09340f	-0.008374228
47	0x3dabd97d	0.08391092
48	0x3d926942	0.071489826
49	0xbe329525	-0.17439707
50	0xbdb68efc	-0.08913991
51	0x3da44e12	0.08022703
52	0x3d8d9a13	0.06914153
53	0xbbbabebf	-0.0056990082
54	0x3e0bcd2f	0.1365249
55	0xbdf1f30c	-0.11813936
56	0x3e105d45	0.1409808
57	0xbe08e2ce	-0.13367769
58	0xbde48ff8	-0.11160272
59	0xbe064315	-0.13111527
60	0xbb0d2865	-0.002153897
61	0xbe0c8b8c	-0.13725108
62	0x3e2a2cc8	0.16618645
63	0x3e0860d0	0.13318181

conv.convs.0.lin.weight f4 [64, 1]
0	0xbe005872	-0.12533739
1	0xbdd640ef	-0.10461604
2	0xbe469505	-0.19392784
3	0xbe146bd3	-0.14494257
4	0x3e44fbbd	0.19236656
5	0x3e6610bd	0.22467323
6	0x3e105f41	0.14098836
7	0x3e134027	0.14379941
8	0x3e06df5c	0.13171142
9	0x3dfdc336	0.12390749
10	0xbe57af02	-0.21062854
11	0x3e4c7d8f	0.19969772
12	0xbe13081f	-0.14358567
13	0x3e131bf1	0.14366128
14	0xbd6bc7cf	-0.0575636
15	0xbe8bdfdd	-0.27319232
16	0xb88278c3	-6.221377e-05
17	0x3e47a47e	0.19496343
18	0xbe8c1fb7	-0.27367947
19	0xbe337e79	-0.17528714
20	0xbe5b124b	-0.21393697
21	0xbe292718	-0.1651882
22	0x3e06f65a	0.13179913
23	0xbe154075	-0.1457537
24	0xbe29deca	-0.16588894
25	0xbe16173f	-0.14657305
26	0xbe198af1	-0.14994408
27	0xbab97404	-0.0014148955
28	0x3e03650e	0.12831518
29	0xbe02f972	-0.12790468
30	0x3dfbd6df	0.12296843
31	0x3e4988c2	0.19681075
32	0x3def8ee6	0.116971776
33	0xbcb8b7e1	-0.022548618
34	0x3df4cb3b	0.11952826
35	0x3e516328	0.20447981
36	0xbe38a2c7	-0.18030845
37	0xbe087978	-0.13327587
38	0x3e4aeea9	0.19817604
39	0xbdba90a4	-0.09109619
40	0x3e04c413	0.12965421
41	0xbe0fa815	-0.14028962
42	0x3e11e851	0.14248778
43	0xbea81095	-0.3282515
44	0xbe3f5a4f	-0.18686794
45	0x3e095255	0.13410313
46	0xbc6c00db	-0.014404501
47	0xbe3bf4e0	-0.18355131
48	0xbdf4b396	-0.11948316
49	0x3e1b192c	0.15146321
50	0x3dcb0e0d	0.09914789
51	0xbe06d09d	-0.13165517
52	0xbdf334c4	-0.118752986
53	0xbe5ff332	-0.21870115
54	0xbe1c8167	-0.15283738
55	0x3e058b0c	0.13041323
56	0xbe1ffdb6	-0.15624127
57	0x3e16223a	0.14661494
58	0x3dc56a0e	0.09639369
59	0x3e13b2ee	0.14423725
60	0xb8a528b7	-7.875397e-05
61	0x3e1b2085	0.15149124
62	0xbe266586	-0.16249666
63	0xbe0c7c67	-0.1371933

conv.convs.1.bias f4 [64]
0	0xbd9346c7	-0.07191234
1	0xbc40e74f	-0.011773898
2	0xbde0f572	-0.10984315
3	0xbcb01484	-0.021494158
4	0xbe1e2daa	-0.15447107
5	0x3e2b8e84	0.16753584
6	0x3da9179c	0.08256456
7	0x3e200c29	0.15629639
8	0x3b32373b	0.0027193564
9	0xbd8e216a	-0.06939967
10	0xbdb0f9ed	-0.086414196
11	0xbdf90cd4	-0.1216065
12	0x3e046544	0.12929255
13	0x3cce953f	0.02521765
14	0xb88bae94	-6.660554e-05
15	0x3e5ec127	0.2175337
16	0x3e098d4b	0.13432805
17	0xbce3eae6	-0.02782197
18	0xbd9fee2d	-0.078091
19	0xbba6d190	-0.0050908998
20	0x3d35fde0	0.044431567
21	0x3db4d143	0.08828976
22	0x3ca53a94	0.020169534
23	0xbb85d459	-0.0040841517
24	0xbe014b8d	-0.12626477
25	0xbc01227e	-0.007881759
26	0x3cb880f5	0.022522429
27	0x3dbb9ed3	0.09161153
28	0x3d93d806	0.072189376
29	0x3d36ce31	0.044630233
30	0xbbfcd4dd	-0.007715805
31	0xbd4b7c29	-0.049678955
32	0x3d2d4fdb	0.042312484
33	0xbd92fc69	-0.0717705
34	0x3e43d980	0.19125938
35	0xbe2836df	-0.16427182
36	0xbdfc80de	-0.12329267
37	0xbe19bbb0	-0.15013003
38	0xbda74799	-0.08167953
39	0xbd679998	-0.056542963
40	0x3d5c3c47	0.053768422
41	0xbdbb4a70	-0.09145057
42	0xbd8ebe1b	-0.069698535
43	0x3cc8e950	0.024525315
44	0xbd287b3a	-0.041133143
45	0xbd02aab4	-0.031901076
46	0x3d1d7439	0.038440917
47	0x3cf4bb62	0.029874507
48	0xbc014134	-0.007889081
49	0x3ca075e1	0.019587459
50	0x3e32866e	0.17434093
51	0x3c5809f7	0.01318597
52	0xbd46693a	-0.048440196
53	0x3d6c374b	0.05766992
54	0xbcff489c	-0.031162553
55	0x3c684551	0.014176683
56	0xbd0ac2b1	-0.03387708
57	0x3d630b91	0.055430952
58	0xbde3de06	-0.11126332
59	0x3d37afd6	0.044845425
60	0xbdc771da	-0.09738512
61	0xbe50cf1c	-0.20391506
62	0xbd0868b4	-0.033302978
63	0x3e1475e5	0.14498098

conv.convs.1.lin.weight f4 [64, 64]
0	0xbe8ee5ef	-0.279098
1	0xbe5d653d	-0.2162065
2	0xbddd09eb	-0.10792907
3	0xbf53a7b3	-0.82677764
4	0x3d6962a6	0.056978844
5	0xbd2c1e5c	-0.04202114
6	0x3dc2ca5b	0.095112525
7	0x3c8fd402	0.017557148
8	0x3e4241b6	0.18970379
9	0x3dca9c95	0.09893147
10	0x3df71818	0.120651424
11	0xbd8e69e1	-0.069537885
12	0xbef8b766	-0.48577422
13	0x3d45a466	0.048252486
14	0xbd7203c7	-0.059085634
15	0xbd6b4780	-0.057441235
16	0x3d897a8f	0.06712829
17	0x3e0b4823	0.13601737
18	0x3de85598	0.11344451
19	0xbd293bec	-0.04131691
20	0xbbb8aed4	-0.0056360755
21	0xbebc29a0	-0.36750507
22	0x3e55afb9	0.20867814
23	0xbf43b7a6	-0.764521
24	0xbdab13a5	-0.08353356
25	0xbf6bab19	-0.9205795
26	0xbf44908a	-0.7678305
27	0xbd90270f	-0.070387
28	0x3e59a54e	0.21254465
29	0xbf1860ae	-0.5952252
30	0x3e996af2	0.29964405
31	0xbcdc4819	-0.026889848
32	0x3da67b01	0.0812893
33	0xbbbbaf85	-0.0057277107
34	0x3ea0f1a0	0.31434345
35	0x3d89a4b7	0.0672087
36	0xbf83f352	-1.030863
37	0xba5822c0	-0.0008244924
38	0x3da478a2	0.080308214
39	0xbe0d3341	-0.13789083
40	0x3e17df84	0.14831358
41	0xbf241d5f	-0.64107317
42	0x3e982543	0.29715928
43	0xbee2b99d	-0.44282237
44	0xbdc81ee5	-0.09771518
45	0x3e8308e0	0.2559271
46	0x3dc5077d	0.09620569
47	0xbe463ce9	-0.19359173
48	0xbe7d9402	-0.24763492
49	0x3e8bf91d	0.27338496
50	0xbcbf95ce	-0.023386862
51	0xbe526eab	-0.20550029
52	0xbe3ba6c6	-0.18325338
53	0x3d47542b	0.048664253
54	0xbe9cf842	-0.30658156
55	0x3eb84d3c	0.35996425
56	0xbeeda123	-0.46412
57	0x3df05a50	0.11735976
58	0x3e4e050d	0.20119114
59	0x3c772391	0.015084163
60	0xbc9f7224	-0.019463606
61	0x3e41b8b5	0.18918116
62	0xbefabba2	-0.48971277
63	0xbf2c6082	-0.6733476
64	0x3dfdc325	0.123907365
65	0x3d6813fc	0.056659684
66	0x3b0394c7	0.0020077692
67	0x3dae3ea5	0.08508042
68	0xbe06fcb2	-0.13182333
69	0xbc0bac67	-0.008524991
70	0x3d326ce0	0.043560863
71	0x3d6a38b3	0.05718298
72	0xbda979aa	-0.08275159
73	0xbde87839	-0.11351056
74	0xba1046b6	-0.0005503701
75	0xbcfbce93	-0.03073815
76	0xbd9edebb	-0.07757326
77	0xbdbf2ce4	-0.09334734
78	0xbd0eaf56	-0.034835182
79	0x3e341674	0.1758669
80	0x3d886769	0.06660349
81	0xbcb2c6c1	-0.021823289
82	0x3d2778e5	0.04088678
83	0xbe260db0	-0.16216159
84	0x3bc564fc	0.006024001
85	0x3d15138a	0.036395587
86	0xbc6a0a8b	-0.01428474
87	0x3e2011b8	0.15631759
88	0xbcbc7866	-0.02300663
89	0x3d0c147b	0.03419922
90	0x3d1d02c5	0.03833272
91	0x3d4c41df	0.049867507
92	0xbdadb047	-0.08480888
93	0xbe03a795	-0.12856896
94	0xbe08882f	-0.133332
95	0x3d3646b0	0.044501007
96	0x3ddad455	0.1068503
97	0x3e12e652	0.14345673
98	0xbd4b519e	-0.049638383
99	0x3d9eeefc	0.077604264
100	0x3abb95c2	0.0014311599
101	0xbe05a3ba	-0.13050738
102	0x3e143129	0.14471878
103	0x3d6e5b08	0.058192283
104	0x3d138b08	0.036021262
105	0x3d6c6f12	0.057723112
106	0x3d37288f	0.044716414
107	0xbdc0db4f	-0.0941683
108	0xbd9266d0	-0.07148516
109	0xbc2a770b	-0.010404359
110	0x3df5265d	0.11970208
111	0x3dfc3d9b	0.12316438
112	0xbde693c0	-0.1125865
113	0x3ccb0af7	0.024785502
114	0xbdcd156c	-0.100138515
115	0x3e00f66c	0.12594002
116	0xbdd7d6c8	-0.10539013
117	0x3db03f0e	0.08605777
118	0x3d39c14e	0.045350365
119	0xbd229858	-0.039696068
120	0xbca12da1	-0.019675078
121	0x3db633a0	0.088965654
122	0xbdf0797f	-0.117419235
123	0xbdaf9073	-0.085724734
124	0x3da3f3fa	0.08005519
125	0x3ddfbc7f	0.10924625
126	0xbdf56d9b	-0.11983796
127	0xbe11161d	-0.14168592
128	0x3d8d7aaa	0.06908162
129	0xbd2dbf11	-0.042418543
130	0xbe3309a0	-0.1748414
131	0xbf7aeca6	-0.98017347
132	0x3e3a5ff0	0.1820066
133	0xbc8a6708	-0.016894832
134	0x3e04b85a	0.1296095
135	0x3d703244	0.058641687
136	0x3d29635c	0.041354522
137	0x3e5a6b55	0.21330006
138	0xbde4811e	-0.1115744
139	0x3d6660cb	0.056244653
140	0xbf29e58d	-0.6636589
141	0x3db686af	0.089124076
142	0x3d98100a	0.07424934
143	0xbebc5362	-0.36782366
144	0xbcc8be29	-0.024504738
145	0x3e1e03b3	0.15431099
146	0xbd4923e7	-0.049106505
147	0xbd4c8ecb	-0.049940865
148	0xbe18f295	-0.14936288
149	0xbe39d010	-0.18145776
150	0x3e578338	0.2104615
151	0xbf314baa	-0.6925608
152	0xbe359d0d	-0.17735691
153	0xbf45b62c	-0.772311
154	0xbf42e5c9	-0.76131874
155	0xbd3e9e31	-0.04653758
156	0xbe2ddb9f	-0.1697831
157	0xbf2cda3f	-0.6752052
158	0x3dcb4877	0.09925931
159	0x3e55fdd6	0.20897612
160	0x3e66687b	0.22500794
161	0x3c875517	0.016520066
162	0x3e487b23	0.19578223
163	0x3d6d6be5	0.057964224
164	0xbf9ad1e0	-1.2095299
165	0xbe32cb6f	-0.17460416
166	0x3d849a3d	0.06474731
167	0x3e0a6ec7	0.1351882
168	0xbd8702cc	-0.0659233
169	0xbea9a68c	-0.33134878
170	0x3e794446	0.2434245
171	0xbe60dc4f	-0.21959041
172	0xbdfca1de	-0.12335561
173	0x3e4719ca	0.19443431
174	0x3d113c54	0.035457924
175	0xbdcf7134	-0.10129014
176	0xbe08f7a4	-0.13375717
177	0x3e603f28	0.21899092
178	0x3e0a3744	0.13497645
179	0xbdb5d368	-0.08878213
180	0xbddc940a	-0.10770424
181	0xbdc9d86b	-0.098557316
182	0xbeaa36b8	-0.33244872
183	0x3dd06809	0.10176093
184	0xbee0fe6e	-0.43944114
185	0x3d8b12f3	0.06790724
186	0xbd8e62d2	-0.06952442
187	0x3e3ccc24	0.18437248
188	0x3b8ab5b9	0.004233089
189	0x3bf7bf0e	0.0075606173
190	0xbf6acf0f	-0.91722196
191	0xbf2eb86b	-0.6825015
192	0x3abfcff5	0.001463412
193	0xbe3ab87b	-0.18234436
194	0xbe576665	-0.21035154
195	0xbecd69fa	-0.40119916
196	0xbd693b28	-0.05694118
197	0xbd54ba22	-0.051935323
198	0xbd819541	-0.06327296
199	0x3d7a09ce	0.061044507
200	0x3e04257a	0.12904921
201	0x3e08ef56	0.1337255
202	0xbdff853b	-0.124765836
203	0xbd4d6770	-0.050147474
204	0xbe480bb9	-0.19535722
205	0x3dfef30a	0.124487
206	0xbd511a0d	-0.051050235
207	0xbe6be9c8	-0.23038399
208	0x3d797fab	0.06091277
209	0x3dc59149	0.096468516
210	0xbe22e134	-0.1590622
211	0xbc6db7b9	-0.014509135
212	0xbd75ab06	-0.059977554
213	0x3c7f1927	0.015569962
214	0xbdff1639	-0.124554105
215	0xbead6bdc	-0.33871353
216	0xbe25577a	-0.16146651
217	0xbf10bfc8	-0.56542635
218	0xbecda923	-0.40168104
219	0xbdb0e6d6	-0.086377785
220	0xbd5ad9d1	-0.053430382
221	0xbe8c6705	-0.27422348
222	0x3bb768e3	0.0055972203
223	0xbdd00b1d	-0.1015837
224	0xbf1c4ff1	-0.6105948
225	0x3a21246b	0.00061470893
226	0x3e6750b6	0.22589383
227	0x3d4006fd	0.046881665
228	0xbe580175	-0.21094306
229	0xbe2d55e6	-0.16927299
230	0x3e5076fe	0.20357892
231	0x3d980469	0.07422716
232	0x3e2f78a6	0.17135867
233	0xbd0eceb5	-0.0348651
234	0xbce69922	-0.028149191
235	0xbf03994a	-0.51405776
236	0x3e00f8be	0.12594888
237	0x3df754a1	0.120766886
238	0x3df0695c	0.11738846
239	0x3d3a41ae	0.045472793
240	0xbe822467	-0.25418398
241	0xbebda47a	-0.37039548
242	0xbd935fa1	-0.07195974
243	0xbe6389cb	-0.22220533
244	0x3d816cde	0.06319593
245	0xbe52a5c6	-0.2057105
246	0x3e85da1f	0.26142976
247	0x3dabcd3d	0.083887555
248	0x3d82b9c8	0.06383091
249	0x3e101fb6	0.14074597
250	0xbded58e6	-0.11589222
251	0x3e962116	0.29322118
252	0x3b9d7fbe	0.004806488
253	0xbc97a968	-0.018513396
254	0xbde4c883	-0.11171057
255	0xbe897acb	-0.26851496

conv.convs.2.bias f4 [64]
0	0xbca37bf9	-0.019956576
1	0x3da38600	0.07984543
2	0xbc1f6753	-0.009729224
3	0xbde41fef	-0.11138903
4	0x3db8951e	0.09012817
5	0x3cd43aba	0.02590691
6	0xbd19c9a2	-0.037545808
7	0x3da9957f	0.08280467
8	0xba6567fd	-0.0008751152
9	0xbdbcccf0	-0.09218776
10	0xbbb38a70	-0.0054791495
11	0xbbedc69b	-0.0072563416
12	0xbdb8ebaa	-0.09029324
13	0xbd06c436	-0.032901965
14	0xbdd64db7	-0.10464042
15	0x3db37622	0.087627664
16	0xbe1e925f	-0.15485524
17	0x3d5fa77e	0.054603092
18	0x3d4f768f	0.050650176
19	0xbe23b3cc	-0.15986556
20	0xbc4c533b	-0.012471016
21	0xbe0d3f3d	-0.13793655
22	0xbde0e3d1	-0.109809525
23	0xbc4d3a7e	-0.012526153
24	0x3ce019c5	0.027356038
25	0xbcfaf970	-0.03063652
26	0x3d9d814d	0.07690678
27	0x3d172dae	0.036908798
28	0x3b685473	0.0035450726
29	0xbcda7474	-0.026666857
30	0x3c886ad1	0.016652497
31	0xbe1237e6	-0.14279136
32	0xbb9dda05	-0.0048172497
33	0xbd9575b5	-0.072978415
34	0x3cb6920d	0.02228644
35	0x3d96dcf0	0.07366359
36	0xbcd22eb8	-0.025657043
37	0x3d64654e	0.055760674
38	0x3cf2397a	0.029568423
39	0x3cdbf785	0.026851425
40	0xbe1e7a03	-0.15476231
41	0xbcde74e9	-0.027155356
42	0xbd262d36	-0.04057046
43	0x3d9208d9	0.07130594
44	0x3caaf24a	0.020867486
45	0x3cea0336	0.028565984
46	0x3bdcd2b1	0.0067389836
47	0xbd5cb74f	-0.053885754
48	0x3d8ff03e	0.070282444
49	0xbd47d996	-0.04879149
50	0x3e0679f8	0.13132465
51	0xbdf4b1be	-0.11947964
52	0x3c9ee207	0.019394888
53	0x3d8f2ebb	0.06991335
54	0x3d32875e	0.043586127
55	0xbd677514	-0.05650814
56	0xbd1f2270	-0.0388512
57	0xbe125a96	-0.14292368
58	0x3e040884	0.12893873
59	0xbcb12cb5	-0.021627763
60	0xbcf5350b	-0.02993252
61	0xbd4ca195	-0.049958784
62	0xbe237538	-0.15962684
63	0x3d52c775	0.05145975

conv.convs.2.lin.weight f4 [64, 64]
0	0xbd714ea7	-0.0589129
1	0x3d92bd20	0.07164979
2	0x3ead4036	0.33838052
3	0x3cddd4b5	0.027078966
4	0xbdc254b9	-0.09488816
5	0xbed3a096	-0.41333455
6	0x3dadd2b3	0.08487453
7	0x3e898576	0.26859635
8	0x3cee8278	0.029114947
9	0x3e7bb81e	0.24581954
10	0x3cfa980b	0.030590078
11	0x3e0991d1	0.13434531
12	0x3e8cf2d3	0.2752901
13	0xbd68a0ed	-0.056794096
14	0xbd62ab2d	-0.055339027
15	0xbe7005d8	-0.23439729
16	0xbe1a6527	-0.15077649
17	0xbd918040	-0.0710454
18	0xbe7cbeb6	-0.24682125
19	0xbe55f411	-0.20893885
20	0x3e4788bd	0.19485755
21	0xbdcc59bb	-0.09978052
22	0x3dc667a0	0.09687734
23	0xbe34cdad	-0.17656584
24	0x3da0a1e4	0.07843378
25	0x3e13e2c8	0.14441979
26	0xbcd9c662	-0.026583854
27	0x3eb341fa	0.35011274
28	0x3f133e9a	0.575174
29	0x3e67e56a	0.22646108
30	0x3e622c2f	0.22087167
31	0x3d0189d5	0.031625587
32	0xbd876d92	-0.06612696
33	0x3e0ecb7d	0.13944812
34	0xbe98bc6b	-0.29831252
35	0xbcf56bd2	-0.02995864
36	0xbd2abcca	-0.04168395
37	0xbdc9c58d	-0.09852133
38	0x3e1c83fd	0.15284725
39	0x3d31be8a	0.043394603
40	0xbd1ef930	-0.038811862
41	0x3dbdbc29	0.09264404
42	0xbd7997a0	-0.060935616
43	0xbda36551	-0.07978309
44	0xbdd20cf2	-0.10256375
45	0x3e2c6f9e	0.16839454
46	0x3c81761a	0.015803386
47	0xbe0eecc7	-0.13957511
48	0xbe23d1c5	-0.1599799
49	0x3ed4d67b	0.41569886
50	0x3e85080d	0.25982705
51	0xbddff222	-0.10934855
52	0x3e348362	0.17628244
53	0xbe8cad5d	-0.27476016
54	0xbbb1b041	-0.0054226224
55	0x3e20b487	0.15693866
56	0x3e2590b2	0.16168478
57	0x3ea3be8b	0.3198131
58	0x3d79fbf5	0.0610313
59	0xbd3bfe5a	-0.045896865
60	0x3d9a7dfb	0.0754356
61	0x3da6fcc7	0.08153682
62	0x3dc5246e	0.09626089
63	0x3ef4b2d9	0.477927
64	0xbe972741	-0.29522136
65	0xbdb4eabc	-0.088338345
66	0xbf5af067	-0.85523075
67	0x3e18a7ad	0.14907713
68	0xbeb58da4	-0.35459626
69	0x3ed7685d	0.4207181
70	0xbe97b151	-0.2962747
71	0x3e4ebd7e	0.20189473
72	0x3e4d2d9c	0.2003693
73	0xbe15740d	-0.14595051
74	0x3e0a7cfd	0.13524242
75	0xbe72d096	-0.23712382
76	0x3c16d92e	0.009207053
77	0xbd8ec69f	-0.06971478
78	0x3e52c778	0.20583904
79	0x3e3bf87d	0.1835651
80	0xbe05adf0	-0.13054633
81	0x3c9b501e	0.018959101
82	0xbd734071	-0.059387628
83	0xbd054b2c	-0.032542393
84	0x3e06c663	0.13161616
85	0xbe882b46	-0.26595515
86	0x3cfdac25	0.030965874
87	0xbe373fb8	-0.178954
88	0xbf9cf4aa	-1.2262166
89	0xbef9ff81	-0.48827747
90	0x3d84c027	0.06481963
91	0x3e9a329e	0.30116743
92	0x3e26ac71	0.16276719
93	0x3cb85d9a	0.02250557
94	0xbc74bdd0	-0.014937833
95	0x3e6fdb97	0.2342361
96	0x3e354779	0.17703046
97	0x3e6d0389	0.2314588
98	0x3e8343d8	0.25637698
99	0x3da8fc9e	0.08251308
100	0x3e816c74	0.25278056
101	0xbeccefba	-0.40026647
102	0x3df89df8	0.12139505
103	0x3daa79a6	0.08323984
104	0x3eb3e375	0.35134473
105	0xbf2fd3d6	-0.6868261
106	0x3e22b453	0.158891
107	0x3e1c4d27	0.15263806
108	0x3d5610db	0.05226217
109	0x3decd123	0.11563327
110	0xbe14127f	-0.1446018
111	0x3dd6785e	0.10472177
112	0xbd12f20f	-0.035875376
113	0x3bc70bd1	0.0060744067
114	0x3f11f91f	0.57020754
115	0x3e3c1bc5	0.18369968
116	0xbe3f3c08	-0.18675244
117	0x3f750d03	0.9572298
118	0x3e1fa1f9	0.15589131
119	0x3e20b4a8	0.15693915
120	0x3d4f5404	0.050617233
121	0x3dad7fae	0.084716186
122	0xbe13ea7b	-0.14444916
123	0x3d90edc4	0.070766
124	0xbf1c545f	-0.6106624
125	0xbee22bbb	-0.4417399
126	0x3e3b66a4	0.18300873
127	0x3e169aec	0.14707536
128	0xbe591f2d	-0.21203299
129	0x3d400495	0.04687937
130	0xbedc8fa3	-0.43078336
131	0x3c266345	0.010155504
132	0x3da220de	0.07916425
133	0x3f14bdcd	0.58102113
134	0xbe4f101c	-0.20220989
135	0x3f46f211	0.77713114
136	0x3e271599	0.16316833
137	0x3d98acfa	0.07454868
138	0x3e2d9e66	0.16954955
139	0xbd8495f9	-0.064739175
140	0x3ee2e0a2	0.44312006
141	0xbdfdbb15	-0.12389199
142	0x3dfd2f1d	0.12362502
143	0xbde5def5	-0.11224166
144	0xbe291777	-0.16512857
145	0x3dcb393c	0.09923026
146	0xbd86a666	-0.06574707
147	0xbdc16d72	-0.09444703
148	0x3e3a6b6b	0.18205039
149	0xbd419f7d	-0.04727124
150	0xbe465887	-0.19369708
151	0xbe005b5c	-0.12534851
152	0xbeff739c	-0.4989289
153	0x3d6a63de	0.057224147
154	0x3cda09b3	0.026615953
155	0x3f53e9e6	0.82778776
156	0x3ec3f24a	0.3827079
157	0xbd048654	-0.032354668
158	0xbda59ca0	-0.080865145
159	0x3e3b7fa0	0.18310404
160	0xbd85e87c	-0.065384835
161	0x3e12f2bd	0.1435041
162	0x3ec16b0c	0.37776983
163	0xbd37889e	-0.044808023
164	0xbdfa9fbb	-0.122374974
165	0xbe21cb20	-0.15800142
166	0x3e411cc5	0.18858631
167	0x3dbbbebb	0.09167238
168	0xbd9ee56e	-0.07758604
169	0xbe304be7	-0.17216454
170	0x3eb2038b	0.34768328
171	0xbcc3737d	-0.02385878
172	0x3d10b810	0.035331786
173	0x3e162cc3	0.14665513
174	0xbe0d5401	-0.13801576
175	0x3e3b5084	0.18292433
176	0xbc305225	-0.010761772
177	0x3e8ae040	0.27124214
178	0x3f3d0504	0.7383578
179	0x3cb035d4	0.021510042
180	0x3e228874	0.15872365
181	0x3e824355	0.25441995
182	0x3ca4c850	0.020115048
183	0xbdea1989	-0.11430652
184	0xbe3907b2	-0.18069342
185	0x3eca929e	0.39564985
186	0xbeb083a4	-0.34475434
187	0x3dacfd88	0.08446795
188	0xbcbaa727	-0.022784783
189	0x3caae583	0.020861393
190	0x3e557817	0.20846592
191	0x3e901225	0.28138843
192	0xbf4e7fdc	-0.8066385
193	0xbca43509	-0.02004482
194	0xbf5da90e	-0.8658608
195	0xbabaf77e	-0.0014264432
196	0xbd0661b1	-0.03280801
197	0xbe0c5a2a	-0.1370627
198	0x3e2f6dbf	0.17131709
199	0xbf7c5074	-0.9856026
200	0xbda18e3b	-0.078884564
201	0xbf0c6e85	-0.5485614
202	0xbeaba2ce	-0.33522648
203	0xbe8c3f34	-0.2739197
204	0xbf14fa4c	-0.5819442
205	0x3d1e4d99	0.03864822
206	0xbc0ba3be	-0.008522926
207	0x3ed47329	0.4149411
208	0x3e624cf0	0.22099662
209	0xbd96791f	-0.07347321
210	0xbeb15a9a	-0.34639436
211	0x3c944872	0.01810095
212	0xbeb33983	-0.35004815
213	0x3e9f2632	0.31083828
214	0x3c97bda2	0.018523041
215	0x3d907302	0.07053186
216	0xbf855cde	-1.0418966
217	0x3e1ba074	0.15197927
218	0x3be48535	0.0069738873
219	0xbf4b898a	-0.7950674
220	0xbeadb1e8	-0.33924794
221	0x3d4d123b	0.050066214
222	0xbc9791f0	-0.018502206
223	0xbe5bfdd7	-0.21483551
224	0x3c886ad8	0.01665251
225	0xbea00e7b	-0.31261048
226	0xbd780c24	-0.060558453
227	0xbe674038	-0.22583091
228	0xbe9e6508	-0.30936456
229	0x3d1701dc	0.036867008
230	0xbdc23de8	-0.09484464
231	0xbea71917	-0.3263633
232	0xbe6266a5	-0.22109468
233	0x3d1b81b7	0.037965503
234	0xbe7c9b80	-0.24668694
235	0xbd095154	-0.033524826
236	0xbd524112	-0.051331587
237	0xbe0534ba	-0.13008395
238	0x3e26d109	0.16290678
239	0x3c6fdc6d	0.014639956
240	0xbc2d2bc0	-0.010569513
241	0xbdf8175a	-0.12113829
242	0xbf35a6fa	-0.7095791
243	0xbd37abc9	-0.04484156
244	0xbebf9aaa	-0.37422687
245	0xbe2910c4	-0.16510302
246	0xbd78ac48	-0.060711175
247	0xbb79db11	-0.0038124959
248	0xbc67e56b	-0.014153819
249	0xbe88ad63	-0.26694784
250	0xbeb6b905	-0.35688034
251	0x3ceefcec	0.029173337
252	0x3d3c049a	0.045902826
253	0xbd8353af	-0.06412446
254	0xbe729434	-0.23689348
255	0xbf1bef13	-0.60911673

conv.convs.3.bias f4 [64]
0	0x3ca6ac9f	0.020345984
1	0xbd5332ba	-0.05156205
2	0xbd594717	-0.053046312
3	0xbd9c3969	-0.076281376
4	0x3c595b6f	0.013266428
5	0x3d05931f	0.03261101
6	0x3b2e6b46	0.0026614233
7	0xbcc550bf	-0.024086354
8	0x3c8ca316	0.01716761
9	0x3b897e56	0.0041959686
10	0x3bd97de1	0.0066373204
11	0x3d2989b5	0.041391093
12	0x3d27b7b0	0.040946662
13	0x3cc48973	0.023991322
14	0x3d3a561c	0.045492277
15	0x3dfea515	0.12433831
16	0x3d4e22e9	0.05032626
17	0xbd9f1872	-0.077683344
18	0xbd563ca5	-0.05230393
19	0x3b895ec6	0.004192206
20	0xbc107e33	-0.008819151
21	0xbd011415	-0.031513292
22	0xb989c20c	-0.00026275252
23	0xbb19ee67	-0.0023488046
24	0xbd708cd7	-0.058728065
25	0x3d524cf1	0.05134291
26	0x3da8ed86	0.08248429
27	0xbd43cf78	-0.04780528
28	0x3ca05530	0.01957187
29	0xbd8f4bb2	-0.069968596
30	0xbd4a09d2	-0.04932577
31	0xbb252735	-0.0025200371
32	0x3d94fe6e	0.07275091
33	0xbd5e393d	-0.054253805
34	0xbd9fc60b	-0.078014456
35	0xbd749571	-0.05971283
36	0x3e5e2599	0.2169403
37	0xbd6dad65	-0.05802669
38	0xbcfa2dd8	-0.030539438
39	0xbdbab9d4	-0.09117475
40	0xbba5a16b	-0.005054643
41	0xbc08492a	-0.008318225
42	0x3bee6f1f	0.0072764303
43	0xbb0f4391	-0.002186034
44	0x3c90ddd2	0.017683897
45	0xbd48df6a	-0.04904119
46	0xbce578c3	-0.028011685
47	0x3d7d8e50	0.061903298
48	0x3c5fa37a	0.013649816
49	0xbd9b7528	-0.07590705
50	0xbe5eeff6	-0.21771225
51	0x3e54b184	0.20770842
52	0xbdc992fa	-0.09842487
53	0xbe04fea1	-0.12987758
54	0xbd4e187a	-0.05031631
55	0x3db487e1	0.08814979
56	0x3d8a3ec3	0.06750252
57	0xbe1b689a	-0.15176621
58	0xbd1741c8	-0.03692797
59	0xbce7e970	-0.028309554
60	0x3d6b6235	0.057466704
61	0xbbc8f978	-0.0061332546
62	0xbd6a7ddf	-0.057248946
63	0x3ccb0312	0.024781737

conv.convs.3.lin.weight f4 [64, 64]
0	0x3cfb67f3	0.030689215
1	0x3ecd45ee	0.40092415
2	0x3d1e2bea	0.0386161
3	0xbf286947	-0.6578564
4	0x3dac8029	0.08422882
5	0x3a93dab9	0.0011280394
6	0xbd89ce1e	-0.06728767
7	0x3e581ac0	0.21103954
8	0xbdcc85f6	-0.099864885
9	0xbe000f4c	-0.12505835
10	0x3ccc57bd	0.02494418
11	0x3d4f1830	0.050560176
12	0x3e888028	0.26660275
13	0x3e5b3fff	0.21411131
14	0x3cde16b6	0.027110439
15	0x3ebcfaa1	0.36909965
16	0x3d096456	0.033542953
17	0xbea22de9	-0.31675652
18	0xbf1ab9ed	-0.6043995
19	0x3d6d3274	0.057909444
20	0x3d4d92db	0.05018888
21	0xba83c74a	-0.00100539
22	0xbea5581b	-0.32293782
23	0x3d0115f4	0.031515077
24	0x3e1e84ec	0.15480393
25	0xbe1486da	-0.14504567
26	0xbf0e1a18	-0.55508566
27	0xbcc166d7	-0.023608608
28	0xbd7ebc92	-0.062191553
29	0xbdbf2ead	-0.093350746
30	0xbd729500	-0.05922413
31	0x3e7c4978	0.24637401
32	0x3e3dc408	0.18531811
33	0x3c8c5fc7	0.017135514
34	0x3e63a8a2	0.22232297
35	0xbe907f4a	-0.28222114
36	0xbc6478f0	-0.013944849
37	0x3e421ee2	0.18957093
38	0x3e495a99	0.19663467
39	0x3db1508b	0.086579405
40	0xbd888c2f	-0.06667363
41	0xbe8c00d3	-0.2734438
42	0xbe00e49a	-0.12587205
43	0xbd180118	-0.037110418
44	0x3c01b0e2	0.007915707
45	0x3c890263	0.01672477
46	0xbd84c50c	-0.06482896
47	0x3dbabcf5	0.09118072
48	0xbe984eb5	-0.2974755
49	0x3e2b296b	0.16715018
50	0x3f4499b5	0.7679704
51	0x3e1d1519	0.1534008
52	0xbda6a91c	-0.08137724
53	0xbf0126b9	-0.5044971
54	0xbe0eae57	-0.13933693
55	0x3ce016a8	0.027354553
56	0x3dd121cc	0.10211524
57	0xbe9f4aa0	-0.31111622
58	0x3f0fedcb	0.5622222
59	0x3d80cf2d	0.06289516
60	0x3de6cc87	0.11269479
61	0xbeb289e5	-0.3487083
62	0x3d2b731f	0.041857835
63	0x3d895b72	0.06706895
64	0xbcb604ed	-0.022219146
65	0x3f1ddb2a	0.6166254
66	0x3eeae08a	0.45874435
67	0x3f3ab3cb	0.7293059
68	0x3e746f71	0.23870637
69	0xbd70c795	-0.058784086
70	0xbdbccaf6	-0.09218399
71	0x3f4f95f3	0.8108818
72	0x3c515006	0.012775427
73	0x3e874cd4	0.26425803
74	0xbbd558a4	-0.006510811
75	0xbcb44454	-0.022005238
76	0xbe48ffaf	-0.19628786
77	0x3eaf4b86	0.34237307
78	0xbd163047	-0.036667135
79	0x3f500cc6	0.8126949
80	0x3ea21f59	0.3166454
81	0xbda6675c	-0.08125183
82	0x3d4c980c	0.04994969
83	0xbe1a4c11	-0.1506808
84	0xbb4d7868	-0.0031352285
85	0x3e24d85f	0.16098164
86	0x3c004a9a	0.007830286
87	0x3e344b46	0.1760684
88	0x3c90d12b	0.017677864
89	0xbcbeebe9	-0.02330585
90	0x3e88203c	0.26587093
91	0x3e925e9f	0.28587815
92	0x3d787d80	0.06066656
93	0x3e1ede58	0.15514505
94	0x3eabc34c	0.33547437
95	0xbd2eed5c	-0.042706832
96	0x3eb903d3	0.3613573
97	0xbd75862d	-0.059942413
98	0x3c879221	0.016549172
99	0xbcc3c63b	-0.023898235
100	0x3b610451	0.0034334848
101	0x3b01b561	0.0019791948
102	0x3f0194f7	0.5061793
103	0x3f2b73af	0.66973394
104	0x3ea240db	0.31690106
105	0x3e2cf81e	0.16891524
106	0x3cbc91ce	0.023018744
107	0x3e7da141	0.24768545
108	0x3db76c81	0.08956242
109	0x3e8246fd	0.25444785
110	0x3e47b0d6	0.19501051
111	0xbda548ad	-0.080705024
112	0x3d95c0f5	0.07312194
113	0xbe49dd1a	-0.1971325
114	0x3f52f817	0.82409805
115	0x3eebb778	0.46038413
116	0x3ebb51f6	0.3658597
117	0x3e2ff255	0.17182286
118	0x3e9b8982	0.30378348
119	0x3ee3c912	0.44489342
120	0xbd84ce8a	-0.06484707
121	0xbf5f3916	-0.8719648
122	0x3f2668d1	0.6500369
123	0xbce4483b	-0.027866473
124	0x3efc7b56	0.49312848
125	0x3d915197	0.0709564
126	0x3e3cac35	0.18425067
127	0x3f3744c7	0.7158932
128	0x3e3978fb	0.18112557
129	0xbede6b3e	-0.43441194
130	0x3e6220a2	0.22082761
131	0x3e81bb0c	0.25338018
132	0xbdf9c5f1	-0.121959575
133	0x3e194073	0.14965992
134	0xbd9aff76	-0.075682566
135	0xbdd6df93	-0.10491862
136	0x3be14678	0.0068748556
137	0xbda217cf	-0.079146974
138	0xbd398f79	-0.04530284
139	0x3d84fa14	0.06493011
140	0xbe8db211	-0.27674916
141	0xbd83f3cc	-0.06442985
142	0x3da1cb99	0.07900161
143	0xbe88c118	-0.2670982
144	0x3e67e6c7	0.22646628
145	0x3ee08aed	0.43855992
146	0x3ea866f4	0.32891047
147	0xbf0d6fb2	-0.5524856
148	0xbd30a638	-0.04312727
149	0x3ddd5e30	0.108089805
150	0x3edf3712	0.43596703
151	0xbdc37829	-0.09544403
152	0x3e05085d	0.12991472
153	0x3d80cbff	0.06288909
154	0x3ec47a66	0.38374633
155	0xbcf172cd	-0.029473687
156	0xbd5732ff	-0.052538868
157	0xbcde1bb3	-0.027112817
158	0xbb25e19d	-0.0025311478
159	0x3d276e82	0.040876873
160	0xbe49189a	-0.19638291
161	0xbd9081d5	-0.070560135
162	0xbe658b7d	-0.22416492
163	0x3e937ca6	0.28806037
164	0x3de3bc25	0.1111987
165	0x3e30d01e	0.1726689
166	0xbea1f2ce	-0.31630558
167	0xbe3bb03d	-0.18328948
168	0x3e1d3d2e	0.1535537
169	0x3ef6db3c	0.48214138
170	0xbb1bbb78	-0.0023762863
171	0x3d25c282	0.0404687
172	0x3dbc9cc1	0.09209586
173	0x3e930205	0.28712478
174	0x3eb99886	0.3624918
175	0x3e5177e0	0.20455885
176	0x3e4c4f59	0.19952144
177	0xbd24110c	-0.04005532
178	0xbf47b0a1	-0.7800389
179	0xbef37956	-0.4755351
180	0x3e1af106	0.15131006
181	0x3f155c9b	0.5834443
182	0x3eb03429	0.34414795
183	0x3ebe13c8	0.37124467
184	0xbe05536d	-0.13020106
185	0x3e823621	0.25431922
186	0xbf039d40	-0.5141182
187	0x3e3b3fdc	0.18286079
188	0xbcde5ea1	-0.027144732
189	0x3ea01c88	0.31271768
190	0xbded6307	-0.115911536
191	0xbe3dfd5e	-0.18553683
192	0xbba017a0	-0.004885629
193	0xbccb7969	-0.024838166
194	0xbe78039b	-0.24220125
195	0x3f4d4a06	0.80191076
196	0x3eced153	0.40394077
197	0x3d8295fd	0.06376264
198	0x3b06844e	0.0020525637
199	0xbe2da8b0	-0.1695888
200	0x3c5b5492	0.013386862
201	0x3e6fadd7	0.23406158
202	0x3ccf6379	0.025315987
203	0xbd0a4f0b	-0.033766787
204	0x3e6aef0e	0.22942755
205	0x3e9908e6	0.298896
206	0x3e1cddb0	0.15318942
207	0xbd3a05b4	-0.045415595
208	0x3ea529f0	0.32258558
209	0xbe67d7ba	-0.22640887
210	0xbec716f8	-0.3888471
211	0x3f7459ef	0.9544973
212	0x3cd53d87	0.026030315
213	0x3daebc30	0.08531988
214	0xbf014f12	-0.50511277
215	0xbd3ce988	-0.04612115
216	0x3e57a68f	0.21059631
217	0xbdb56c12	-0.088585034
218	0xbe096a80	-0.13419533
219	0xbd7f93ca	-0.062396802
220	0xbd5763ff	-0.052585598
221	0x3e137109	0.14398588
222	0xbd19aeb4	-0.037520126
223	0x3eb1fbf4	0.34762537
224	0xbd598221	-0.053102616
225	0xbe18d6d6	-0.14925703
226	0x3e1b7d84	0.15184599
227	0xbedc0601	-0.4297333
228	0x3b93abe7	0.0045065763
229	0x3d1084f7	0.035283055
230	0x3d3a065d	0.045416225
231	0x3d6bbd60	0.05755365
232	0x3dfec7c7	0.12440448
233	0xbe91f708	-0.28508782
234	0xbd5b8849	-0.05359677
235	0x3d0102c5	0.03149678
236	0xbde06498	-0.10956687
237	0x3e503dc7	0.20336066
238	0xbd85f2c1	-0.06540442
239	0xbd130085	-0.035889167
240	0xbdd1d238	-0.10245174
241	0x3a3bd320	0.0007164944
242	0x3e450b1a	0.19242516
243	0x3e9bca7b	0.30427918
244	0xbe56bb7e	-0.2096996
245	0xbebf26aa	-0.37334186
246	0xbb7a8025	-0.0038223353
247	0xbe9c3511	-0.30509236
248	0x3de9504a	0.11392267
249	0x3fc0c066	1.5058715
250	0x3ca9658a	0.0206783
251	0xbc5cb7a7	-0.0134715205
252	0x3e872698	0.26396632
253	0xbe8d37c3	-0.27581605
254	0x3e5734fd	0.21016307
255	0x3e0a43f6	0.13502488

lin.weight f4 [64, 128]
0	0xbdea7012	-0.11447157
1	0xbe4cbd1e	-0.19994017
2	0x3e06fa08	0.13181317
3	0x3d968065	0.07348708
4	0x3e4f575f	0.20248173
5	0xbe69815b	-0.22803251
6	0xbda494e0	-0.08036208
7	0x3e3536a4	0.17696625
8	0xbe86831f	-0.26271912
9	0xbeb9cf8b	-0.36291155
10	0xbe41a116	-0.18909106
11	0x3dbd8672	0.09254159
12	0x3e5b627c	0.21424288
13	0x3e9df900	0.30854034
14	0x3eaabdd3	0.3334795
15	0xbcf2f929	-0.029659824
16	0xbdf4b369	-0.11948282
17	0xbcf2e416	-0.029649775
18	0x3c8444a6	0.016146015
19	0x3d0f8250	0.035036385
20	0x3e0cda57	0.13755165
21	0x3e473d01	0.19456865
22	0x3e5aabc6	0.21354589
23	0x3e3df0cb	0.18548886
24	0xbdcb25e4	-0.099193364
25	0x3da22ef7	0.07919114
26	0xbc88757b	-0.016657582
27	0xbda2c712	-0.07948126
28	0xbe1d4559	-0.15358485
29	0xbdc60717	-0.09669321
30	0x3ba2a68b	0.004963701
31	0xbf136a12	-0.57583725
32	0xbe73655f	-0.23769139
33	0x3e108be3	0.14115863
34	0x3bdc04b0	0.006714426
35	0xbe851227	-0.25990412
36	0xbd9a7eac	-0.07543692
37	0xbe035938	-0.12827003
38	0xbdec39d0	-0.11534464
39	0x3d58b1f6	0.05290409
40	0x3e3ad9c1	0.18247129
41	0x3e2ad5a4	0.1668306
42	0xbf939943	-1.1531147
43	0x3e26b1f8	0.16278827
44	0xbe27c75f	-0.16384648
45	0x3e4e8f99	0.20171966
46	0x3c8f371f	0.017482338
47	0xbd8f88ca	-0.07008512
48	0xbe1593d7	-0.14607178
49	0x3f00bbd2	0.5028659
50	0x3d160022	0.03662122
51	0xbd9d2551	-0.07673133
52	0x3d209949	0.039208684
53	0x3d871461	0.06595684
54	0x3b86ce11	0.0041139205
55	0xbe06a7f8	-0.13150012
56	0x3e235c9b	0.15953295
57	0xbca53240	-0.020165563
58	0xbebcccfd	-0.36875144
59	0x3f19a2ea	0.6001421
60	0x3e971f6f	0.2951617
61	0xbe76cce8	-0.24101603
62	0xbea4ae09	-0.32164028
63	0xbe3003ea	-0.17188993
64	0xbf014a22	-0.5050374
65	0xbf16744d	-0.5877121
66	0xbe4bc5e8	-0.19899714
67	0xbe8ff8ff	-0.28119656
68	0xbeea581b	-0.45770344
69	0x3e3d9490	0.18513703
70	0x3f0a04f8	0.5391383
71	0x3ef5ab4a	0.47982246
72	0xbf767461	-0.9627133
73	0x3e204039	0.15649499
74	0xbebc356c	-0.36759508
75	0x3f497665	0.7869628
76	0x3f3bfee6	0.7343582
77	0x3f57920f	0.8420724
78	0x3f71b832	0.94421685
79	0x3e97f79b	0.29681095
80	0x3ea09f65	0.31371608
81	0xbed10c11	-0.40829518
82	0xbecee289	-0.40407208
83	0x3f1b2cad	0.60615045
84	0x3e97d83a	0.29657155
85	0xbeaa3f24	-0.33251297
86	0xbdc7e83d	-0.09761093
87	0xbeaf816f	-0.34278437
88	0xbe9729d3	-0.29524097
89	0x3f27efa7	0.65600055
90	0xbb13e425	-0.0022566405
91	0xbeba8de7	-0.36436388
92	0xbf32f7ee	-0.6990956
93	0xbf1d3d8e	-0.6142205
94	0xbf228af6	-0.6349329
95	0xbe362d5c	-0.1779074
96	0x3d960f70	0.07327163
97	0xbeb3fbe4	-0.35153115
98	0xbed26e34	-0.41099703
99	0xbf36936c	-0.713187
100	0x3ea0efe9	0.31433037
101	0xbef66459	-0.48123434
102	0xbecf8093	-0.40527782
103	0x3e7cb2de	0.24677607
104	0x3f3b7f94	0.73241544
105	0xbdd64d74	-0.10463992
106	0xbfb37abb	-1.4021829
107	0x3e1c0411	0.15235926
108	0x3e70f5fd	0.23531337
109	0xbe93b697	-0.28850242
110	0x3b04f17c	0.0020285537
111	0xbeafd436	-0.34341592
112	0x3d88ac60	0.06673503
113	0x3ebef8ec	0.37299287
114	0xbec669d4	-0.38752615
115	0x3e553213	0.20819883
116	0xbeeec975	-0.46638075
117	0xbeb3706a	-0.35046703
118	0xbe8bf867	-0.27337953
119	0x3e88837d	0.26662818
120	0x3f323f75	0.6962808
121	0xbef95377	-0.4869649
122	0xbf45bfad	-0.772456
123	0x3f5f05ad	0.87118036
124	0x3e2cea59	0.16886272
125	0x3e9a8e7b	0.3018683
126	0xbf81bcaf	-1.0135707
127	0xbee36a4d	-0.4441704
128	0x3ec8b159	0.39197806
129	0x3e739d0f	0.23790382
130	0x3d075183	0.03303672
131	0x3dec2217	0.115299396
132	0xbdb4a917	-0.08821314
133	0x3d8530ce	0.065034494
134	0xbe273b89	-0.16331305
135	0xbbb06a09	-0.005383734
136	0xbe8440ba	-0.25830632
137	0x3e192ae0	0.14957762
138	0x3f03a8fb	0.5142972
139	0xbc307096	-0.01076903
140	0xbe8f61f3	-0.28004417
141	0xbe98a67e	-0.29814523
142	0xbe4839a8	-0.19553244
143	0xbd99199b	-0.07475587
144	0xbdd33fa8	-0.10314876
145	0x3e0d2aa4	0.13785797
146	0xbcb4ea44	-0.022084363
147	0x3d9725ea	0.073802784
148	0x3c4723b6	0.01215451
149	0xbe054fd6	-0.13018736
150	0xbe326071	-0.17419602
151	0xbd81caae	-0.06337486
152	0x3e4aa390	0.19788957
153	0xbdaa28b1	-0.083085425
154	0xbde10202	-0.10986711
155	0x3dc0dd74	0.09417239
156	0x3d9a7eb6	0.075436994
157	0x3e3f83f8	0.18702686
158	0x3e20d654	0.1570676
159	0x3e1b9ce2	0.15196565
160	0x3d0a6d0b	0.033795398
161	0x3e3c870a	0.18410888
162	0x3e35e46d	0.17762919
163	0x3e5ff6db	0.21871512
164	0xbe289ee3	-0.1646686
165	0x3decabe4	0.11556223
166	0xbd9ef0bd	-0.07760761
167	0x3dc9be64	0.09850767
168	0x3ce432fd	0.027856344
169	0xbdd1bdbf	-0.10241269
170	0x3d6f81f2	0.058473535
171	0x3dd2cd21	0.102930315
172	0x3c76ab9f	0.015055566
173	0x3d137172	0.03599686
174	0xbec06104	-0.37574017
175	0xbdde9c34	-0.10869637
176	0x3d7e3740	0.06206441
177	0x3e2c1c7c	0.16807741
178	0x3dc7baac	0.09752402
179	0xbe8e5fd7	-0.27807495
180	0x3e03d46f	0.12874006
181	0x3da60754	0.081068665
182	0x3df1ebc5	0.118125476
183	0xbc94dcb3	-0.018171644
184	0xbe4ef504	-0.20210654
185	0x3c4e94e5	0.012608741
186	0x3e282974	0.16422063
187	0xbda270b9	-0.079316564
188	0xbda4ac72	-0.08040704
189	0x3e2a806f	0.16650556
190	0x3df85abb	0.121266805
191	0x3eb72f0b	0.35778078
192	0x3e9ca163	0.30591878
193	0xbcf9bc0c	-0.030485176
194	0xbeb4a67e	-0.35283273
195	0x3b34679d	0.0027527579
196	0xbf0ce998	-0.55043936
197	0x3eebd964	0.46064293
198	0x3da7cddd	0.08193562
199	0x3ed7d027	0.42150995
200	0xbf339688	-0.7015157
201	0x3ef02bfd	0.4690856
202	0x3f445b60	0.7670193
203	0x3dd6be07	0.104854636
204	0xbe1966b8	-0.1498059
205	0xbe06f3e9	-0.13178982
206	0xbe53e937	-0.20694433
207	0x3e931503	0.28726968
208	0x3db11de6	0.08648281
209	0xbe808b98	-0.25106502
210	0xbea05cb0	-0.31320715
211	0x3f09d838	0.5384555
212	0xbde85560	-0.11344409
213	0xbf1ecc77	-0.6203074
214	0xbf164fa7	-0.5871529
215	0xbef7cc79	-0.48398188
216	0x3cf02f37	0.029319389
217	0x3eb1e8fa	0.3474806
218	0x3dd695b3	0.104777716
219	0x3e3e287d	0.18570133
220	0x3b5ab328	0.0033370946
221	0x3ce7af2b	0.028281769
222	0x3d8465c4	0.06464723
223	0x3eeafb55	0.45894876
224	0x3ebb95fd	0.3663787
225	0x3e401803	0.1875916
226	0xbe58ccb5	-0.2117184
227	0x3d540ef0	0.051772058
228	0x3ebe6d74	0.3719288
229	0xbed0b5a1	-0.40763572
230	0x3d8fe43b	0.070259534
231	0x3e1e92f1	0.15485741
232	0xbe1897b5	-0.14901622
233	0xbf178339	-0.59184605
234	0x3e0afdfb	0.13573448
235	0x3cfdb437	0.030969722
236	0x3f038e8d	0.5138939
237	0xbbe03319	-0.006842029
238	0xbf4996c0	-0.7874565
239	0xbed0a693	-0.40752086
240	0x3ed73204	0.42030346
241	0xbe07de6d	-0.13268442
242	0xbeabbaa7	-0.33540842
243	0x3e3be768	0.18349993
244	0xbe5cc158	-0.2155813
245	0xbea6f151	-0.32605985
246	0xbeaf57bd	-0.34246626
247	0x3ee5d880	0.4489174
248	0xbe350eed	-0.17681475
249	0xbec6d4f9	-0.3883436
250	0xbe61218a	-0.2198545
251	0x3adeffea	0.0017013524
252	0x3e531351	0.20612837
253	0x3ef69fa0	0.4816866
254	0xba880c67	-0.0010379673
255	0x3f15ec50	0.5856371

lin.bias f4 [64]
0	0x3ee7837e	0.45217508
1	0x3ec6c2ed	0.38820592
2	0x3ece2919	0.4026573
3	0xbd72da9b	-0.05929051
4	0x3eac71c6	0.33680552
5	0xbeca14f6	-0.39469117
6	0xbef7ecac	-0.48422754
7	0xbe4db32a	-0.20087877
8	0x3dae4e7c	0.085110635
9	0xbdcdeecb	-0.10055312
10	0xbef1cc16	-0.47226018
11	0x3f2b629a	0.6694733
12	0x3f26a1ea	0.6509081
13	0x3c685818	0.014181159
14	0xbe2dd1a3	-0.16974501
15	0xbe2a6682	-0.16640666
16	0xbd946097	-0.072449856
17	0x3c83dfcc	0.016097926
18	0xbd8232ce	-0.063573465
19	0xbb2154d6	-0.0024617217
20	0x3ba3790c	0.004988795
21	0x3f359426	0.7092918
22	0xbe882479	-0.26590326
23	0xbe0daf88	-0.13836491
24	0x3e3d2c34	0.18473893
25	0x3ede526c	0.43422258
26	0xbe8c2dda	-0.27378732
27	0xbec8da83	-0.3922921
28	0x3e912463	0.28348073
29	0xbbcef8b7	-0.00631627
30	0xbf062d47	-0.5241284
31	0x3f24c54b	0.64363545
32	0xbe15d290	-0.14631104
33	0xbe4c96ce	-0.19979402
34	0x3e57d550	0.21077466
35	0x3eaf83ce	0.34280246
36	0xbf0e03f6	-0.55474794
37	0xbe1b7e49	-0.15184893
38	0xbdb8e109	-0.09027297
39	0xbbc04053	-0.005867043
40	0x3da23218	0.07919711
41	0x3e97a381	0.2961693
42	0x3edf6010	0.43627977
43	0x3e94d8b3	0.29071578
44	0x3e126370	0.14295745
45	0xbd3e030e	-0.046389632
46	0xbd850ddc	-0.06496784
47	0xbd86a87b	-0.06575104
48	0x3b142cc4	0.002260969
49	0xbd69685b	-0.056984287
50	0x3eaf83a5	0.34280124
51	0x3e6ab26d	0.22919627
52	0x3f1a0deb	0.6017749
53	0x3d9f4259	0.07776327
54	0x3ecfbf64	0.40575707
55	0x3e729b5e	0.2369208
56	0xbed63f8a	-0.4184535
57	0xbde5a1f4	-0.11212531
58	0x3e6673b5	0.22505076
59	0x3c58fb61	0.013243527
60	0xbd57c3cc	-0.05267696
61	0xbe0940f6	-0.13403687
62	0xbf55e143	-0.8354685
63	0xbc32049f	-0.01086536

out.weight f4 [5, 64]
0	0xbf8374b1	-1.0269986
1	0xbf93741a	-1.1519806
2	0xbeacb600	-0.33732605
3	0x3cf42008	0.02980043
4	0x3e685d58	0.22691858
5	0x3d87c79e	0.06629871
6	0x3e86ba15	0.26313844
7	0x3d97bbf8	0.07408899
8	0x3e56d228	0.20978606
9	0xbf3105cd	-0.69149476
10	0xbe1b0c7e	-0.15141484
11	0xbe60f437	-0.2196816
12	0x3e2417f7	0.16024767
13	0xbdbc04f8	-0.09180635
14	0x3dab4966	0.08363609
15	0x3d209ef1	0.03921408
16	0xbce5762a	-0.028010447
17	0x3da64e5e	0.08120416
18	0xbe501df2	-0.20323923
19	0x3cf4611b	0.02983146
20	0x3cc7ca02	0.024388317
21	0xbfefe061	-1.874035
22	0xbea7391b	-0.32660756
23	0x3d889452	0.06668915
24	0xbd845606	-0.0646172
25	0xbfc3b4c7	-1.5289544
26	0x3d505fc3	0.050872575
27	0x3e01eb9c	0.12687534
28	0xbee92f3b	-0.45543846
29	0xbe7467ee	-0.23867771
30	0x3e5a3146	0.21307859
31	0xc0996adc	-4.7942944
32	0x3f2fb48e	0.6863488
33	0x3d1ae3c3	0.037814867
34	0xbe887c90	-0.26657534
35	0xbf8ee274	-1.1162858
36	0x3e573855	0.21017583
37	0x3dd99818	0.10624713
38	0xbe1501a9	-0.14551415
39	0x3daa609f	0.0831921
40	0xbc9139a9	-0.01772769
41	0xbd1b8c50	-0.03797561
42	0x3dbf0542	0.09327175
43	0xbed21ca6	-0.41037482
44	0x3d0ceb67	0.034404185
45	0xbdd7e012	-0.10540785
46	0x3e222853	0.15835695
47	0x3d88b968	0.066759884
48	0x3c0bf9fa	0.008543486
49	0xbda7da0a	-0.081958845
50	0xbadb3aeb	-0.0016725933
51	0xbdb69673	-0.08915415
52	0xbf990110	-1.1953449
53	0x3dce873e	0.10084389
54	0xbcdb778a	-0.0267904
55	0xbed45122	-0.4146815
56	0xbe185205	-0.14875038
57	0xbec8621f	-0.3913736
58	0xbe2692a9	-0.16266884
59	0xbcada468	-0.02119656
60	0x3d83a1cb	0.06427344
61	0xbd33321d	-0.043748964
62	0x3e07ff42	0.13280967
63	0xbd3e3f74	-0.046447232
64	0xc0a5ed1e	-5.185195
65	0xc0382d9e	-2.8777843
66	0x3e82ba20	0.25532627
67	0x3d35f798	0.044425577
68	0xbf75e7a5	-0.96056587
69	0xbec78a58	-0.38972735
70	0xbe52f31b	-0.2060055
71	0xbea95d86	-0.33079165
72	0xbf8badb0	-1.091238
73	0xc01eb176	-2.4795814
74	0x3b58e3b0	0.0033094697
75	0xbf8ee018	-1.1162138
76	0xbf9a1cb1	-1.2040006
77	0x3d97863f	0.07398652
78	0x3df50130	0.11963117
79	0x3d26cc87	0.040722396
80	0xbd31956f	-0.0433554
81	0xbd37fbe2	-0.04491795
82	0x398846f8	0.00025992817
83	0xbc7829e1	-0.015146703
84	0xbd949c8d	-0.07256422
85	0xc08f5dc5	-4.4801965
86	0x3c6e271b	0.014535691
87	0x3dd866b0	0.10566461
88	0x3ba38e34	0.004991317
89	0xbfc323f5	-1.5245348
90	0x3e1d4ba6	0.15360889
91	0xbe922926	-0.2854702
92	0xbfccf131	-1.6011106
93	0x3e317b55	0.17332204
94	0xbeb16b10	-0.34651995
95	0xbfd7528e	-1.6822069
96	0xbf0a9e01	-0.54147345
97	0x3de54efc	0.11196706
98	0xbf1de16e	-0.61672103
99	0xc0767315	-3.850774
100	0xbe7ea707	-0.24868403
101	0xbdc1f122	-0.094698206
102	0xbed2af31	-0.41149285
103	0xbd169470	-0.036762655
104	0xbe7bd3db	-0.24592535
105	0x3d84e2da	0.06488581
106	0xbf62de27	-0.8862023
107	0xbf9d4920	-1.2287941
108	0x3e2e26de	0.17007014
109	0xbf8fcf9e	-1.1235235
110	0xbd80a331	-0.06281126
111	0x3ce5f46c	0.028070651
112	0xbc925071	-0.017860623
113	0x3d159495	0.036518652
114	0x3d7da95f	0.061929103
115	0xbe44e84a	-0.19229236
116	0xc05f8cbe	-3.4929652
117	0xbef12135	-0.47095647
118	0x3d832457	0.06403416
119	0xbf1f6925	-0.6226981
120	0x3dda80b2	0.10669078
121	0xbd400197	-0.046876516
122	0xbfdc54f3	-1.7213424
123	0xbcf28e15	-0.029608766
124	0xbd955b22	-0.07292773
125	0x3e12ec6d	0.14348002
126	0xbf879d3a	-1.0594857
127	0xbd5c7460	-0.05382192
128	0xc00a3039	-2.1591933
129	0xbf002d41	-0.5006905
130	0x3cb6db62	0.022321407
131	0x3c7a1b5b	0.015265311
132	0xbec3aaf1	-0.38216355
133	0xba976812	-0.0011551401
134	0xbf59a161	-0.8501187
135	0xbd1c8e3c	-0.038221583
136	0xbe1f6c94	-0.15568763
137	0x3f143082	0.5788652
138	0xbfc1a774	-1.5129228
139	0xbc2f37fd	-0.010694501
140	0x3ec3f4fa	0.3827284
141	0x3cb40965	0.021977136
142	0xbe8ad1bb	-0.27113137
143	0xbecd3e92	-0.400868
144	0xbd1f34a5	-0.038868565
145	0x3d309940	0.0431149
146	0x3f126571	0.5718604
147	0xba16ef67	-0.00057577196
148	0xbbd11d3e	-0.00638166
149	0xbdcc624c	-0.09979686
150	0xbf9de840	-1.2336502
151	0xbed5c859	-0.41754416
152	0xbe2adba2	-0.16685346
153	0x3efc39f9	0.4926298
154	0xbf3c7eb1	-0.73630816
155	0xbfc59fc7	-1.5439385
156	0xbf3e2dcd	-0.74288636
157	0xbe2c676a	-0.16836324
158	0xc0196e18	-2.3973446
159	0x3e9f0414	0.310578
160	0xbf02e53b	-0.5113103
161	0xbe9290c5	-0.28626075
162	0xbf069ae4	-0.52580094
163	0xbf82a569	-1.0206729
164	0xbf9d8268	-1.2305422
165	0xbda52006	-0.080627486
166	0xbee40a84	-0.44539273
167	0x3dafe096	0.08587758
168	0xbd9960d1	-0.074891694
169	0xbdf242e8	-0.118291676
170	0x3dca642f	0.0988239
171	0xbf72fcd6	-0.9491705
172	0xbe469af0	-0.19395041
173	0xbe350b80	-0.17680168
174	0xbe8ea24c	-0.27858198
175	0xbd6c5d48	-0.057706147
176	0x3daca5d0	0.08430064
177	0xbd5b6396	-0.05356177
178	0xbe197b6c	-0.14988488
179	0xbe2063e8	-0.15663111
180	0x3e9cd21c	0.3062905
181	0x3de123fa	0.1099319
182	0xbe039bc0	-0.12852383
183	0xbdd8795b	-0.10570022
184	0xbf183559	-0.594564
185	0x3f1c90ee	0.61158645
186	0xbf245d15	-0.6420453
187	0xbd764668	-0.06012574
188	0xbd5e6eba	-0.054304816
189	0xbef4f819	-0.47845533
190	0x3f0682a4	0.5254309
191	0x3c2d9992	0.010595696
192	0x3f32dd90	0.6986933
193	0x3e851a5f	0.25996682
194	0xbe1f9daf	-0.15587495
195	0xbd9c1de3	-0.07622888
196	0xbe827c14	-0.2548529
197	0x3e1c09aa	0.15238062
198	0xbee9e8a7	-0.45685312
199	0xbf0117da	-0.5042702
200	0xbe52e2ce	-0.20594332
201	0xbfb67cce	-1.4256837
202	0x3e0af857	0.13571297
203	0xbdb8cc2e	-0.09023319
204	0x3e159eee	0.14611408
205	0xbd2d63f1	-0.04233164
206	0x3e16374b	0.1466953
207	0x3db10e3d	0.08645294
208	0x3d4f526a	0.050615706
209	0xbd2b80d9	-0.041870926
210	0xbf415a6e	-0.7552861
211	0xbd7ebe04	-0.06219293
212	0xbda2f6d8	-0.07957238
213	0x3f0ecd4d	0.55782014
214	0x3e9b4f98	0.30334163
215	0x3e0f4ae2	0.1399341
216	0xbf44c5b4	-0.7686417
217	0xbd18f52d	-0.037343193
218	0x3e3953e0	0.18098402
219	0xbef68806	-0.48150653
220	0xbdaaf1ff	-0.08346938
221	0x3dd10e78	0.10207838
222	0xbf00f4c3	-0.50373477
223	0x3ee9b4e0	0.4564581
224	0xbd54764f	-0.05187064
225	0x3d9c0f53	0.0762011
226	0xbf870b69	-1.0550357
227	0x3d9fd6cf	0.07804643
228	0xbf0337bf	-0.51256937
229	0x3d742595	0.059606154
230	0xbe867427	-0.26260492
231	0x3d120c9f	0.035656568
232	0xbebd0f33	-0.3692566
233	0xbf32d998	-0.6986327
234	0xbe1d015a	-0.15332547
235	0xbddf7330	-0.10910642
236	0x3b065d94	0.0020502554
237	0xbf0b286d	-0.5435856
238	0xbf66b691	-0.90122324
239	0x3cbb5015	0.022865335
240	0x3d59bd1c	0.053158864
241	0x3d3b9c1c	0.045803174
242	0xbf34bdd3	-0.7060215
243	0xbf39ebc1	-0.72625357
244	0x3ef9581d	0.48700038
245	0xbf1578ac	-0.58387256
246	0xbf733011	-0.9499522
247	0xbefaed50	-0.4900918
248	0x3e09b9d6	0.13449797
249	0xbf9eefea	-1.2416966
250	0x3e7a8b2b	0.24467151
251	0xbbb282e0	-0.0054477304
252	0xbbc8addb	-0.006124241
253	0x3e159ff2	0.14611796
254	0x3f006f20	0.50169563
255	0xbd2d3273	-0.04228444

out.bias f4 [5]
0	0xbd212dad	-0.0393502
1	0x3ef1b8ce	0.47211307
2	0xbdcb3297	-0.099217586
3	0xbedb3c3e	-0.428194
4	0xbe27bde3	-0.1638103
