ckpts/shape_simple_gcn.pt (torch, 88321 bytes, 12 tensors)

conv.convs.0.bias f4 [64]
0	0x3f1fec95	0.6247037
1	0x3ea040e1	0.312995
2	0xbe9f2cb1	-0.31088784
3	0x3e88622b	0.26637396
4	0xbe92f69d	-0.28703776
5	0x3ec6b0f8	0.3880689
6	0xbe9a924a	-0.30189735
7	0x3e99d3bb	0.3004435
8	0x3ea0f24a	0.31434852
9	0xbeae9477	-0.34097645
10	0xbea5d095	-0.32385698
11	0xbeaf8fcd	-0.342894
12	0xbe6444b3	-0.22291832
13	0x3d781966	0.060571097
14	0x3ea47842	0.32123
15	0x3e90ef2b	0.2830747
16	0x3ea3415b	0.318858
17	0xbeaa081b	-0.3320931
18	0xbe6e6179	-0.2327937
19	0x3d770e84	0.060316578
20	0x3ea5c6eb	0.32378325
21	0x3ec2c07c	0.3803748
22	0xbeb376af	-0.35051486
23	0x3ea2b750	0.3178048
24	0xbe9a5e72	-0.3015018
25	0xbeb08380	-0.34475327
26	0x3e9ef179	0.31043604
27	0xbea33f9f	-0.31884477
28	0x3eb75af0	0.35811567
29	0xbe6e25de	-0.23256633
30	0x3e0d790e	0.1381571
31	0x3ede9651	0.43474057
32	0xbe6c25a9	-0.23061241
33	0xbcd6c48e	-0.026216771
34	0x3dc2f5d8	0.09519547
35	0xbeae15bb	-0.34000954
36	0xbea964b9	-0.33084658
37	0x3dbc49d3	0.09193768
38	0xbe8d7a7b	-0.27632508
39	0x3ecad245	0.39613548
40	0xbea9a7f4	-0.3313595
41	0xbe92b9a9	-0.28657272
42	0x3d3a7943	0.0455258
43	0xbe963d9b	-0.29343876
44	0xbe583bae	-0.21116516
45	0xbe5b5e70	-0.21422744
46	0x3f1ec9b9	0.62026554
47	0xbea9527e	-0.3307075
48	0xbe535f99	-0.20641936
49	0x3cfd6a23	0.030934399
50	0xbea6ba09	-0.3256381
51	0x3dd56752	0.104200974
52	0x3e9c99ad	0.30585995
53	0x3e15c6c7	0.14626609
54	0xbea55b4e	-0.32296222
55	0x3e9d253c	0.3069247
56	0x3cd9aaf5	0.026570776
57	0x3ea09de5	0.31370464
58	0x3ec99d4d	0.39377823
59	0xbe93f45e	-0.28897375
60	0x3c9cf8cf	0.01916161
61	0x3ec536a6	0.38518256
62	0x3ebd6fb0	0.36999273
63	0x3ec45651	0.38347104

conv.convs.0.lin.weight f4 [64, 1]
0	0xbf92a89b	-1.1457704
1	0xbe8bee34	-0.27330172
2	0x3eb59e30	0.3547225
3	0xbe870a9c	-0.26375282
4	0x3ec0b192	0.37635475
5	0xbea42a7b	-0.3206366
6	0x3eb86044	0.36010945
7	0xbe8b7b42	-0.27242476
8	0xbe91b4f7	-0.28458378
9	0x3ec3ebb6	0.3826577
10	0x3eb1d6b7	0.34734127
11	0x3ebad1a2	0.36488062
12	0x3efcb583	0.49357232
13	0xbe96b881	-0.2943764
14	0xbe974712	-0.2954641
15	0xbe8db486	-0.2767679
16	0xbe96c886	-0.29449862
17	0x3eb8a359	0.36062124
18	0x3ef08083	0.46973047
19	0xbeac6f0a	-0.33678466
20	0xbe9dde08	-0.3083346
21	0xbe9fcec0	-0.31212425
22	0x3ec349d9	0.3814228
23	0xbe9b1797	-0.30291435
24	0x3ebb9c0d	0.36642495
25	0x3ec1689a	0.37775117
26	0xbe99feb0	-0.30077124
27	0x3ec11469	0.37710884
28	0xbf5b083e	-0.8555945
29	0x3ee33017	0.44372627
30	0xbe5c3dc7	-0.21507941
31	0xbf745e7a	-0.9545666
32	0x3eef6bad	0.46761838
33	0xbeb7091d	-0.3574914
34	0xbeb2fdd2	-0.34959275
35	0x3ebc70be	0.36804765
36	0x3ec3588c	0.38153493
37	0xbf0459e5	-0.5169967
38	0x3ef06639	0.4695299
39	0xbea3dc08	-0.32003808
40	0x3ec32303	0.3811265
41	0x3eca8979	0.39558008
42	0xbeb09860	-0.34491253
43	0x3ec9db7c	0.39425266
44	0x3f03885b	0.51379937
45	0x3f051ee6	0.5200027
46	0xbf828f64	-1.0200009
47	0x3ec59056	0.38586682
48	0x3f036f6f	0.5134191
49	0xbedef6bf	-0.43547627
50	0x3ebf4275	0.3735539
51	0xbe93ca1f	-0.28865144
52	0xbe97e34a	-0.29665595
53	0xbe62b710	-0.22140145
54	0x3ec6b24d	0.38807908
55	0xbe956249	-0.29176548
56	0xbecf349c	-0.40469825
57	0xbe935efd	-0.28783408
58	0xbea5e170	-0.32398558
59	0x3eb30557	0.3496501
60	0xbeff185e	-0.49823278
61	0xbea6bcb1	-0.32565835
62	0xbe9f4b72	-0.31112248
63	0xbea04272	-0.31300694

conv.convs.1.bias f4 [64]
0	0xbe7c4042	-0.24633887
1	0x3f22ae4b	0.635472
2	0xbd1c6b4a	-0.038188256
3	0x3f8411fd	1.031799
4	0xbe302cf6	-0.17204651
5	0xbcbe9aee	-0.023267236
6	0x3e2c5d9c	0.16832584
7	0xbe78b226	-0.24286708
8	0x3dca9068	0.098908246
9	0x3e322a6f	0.17399
10	0x3e116626	0.14199123
11	0xbe663361	-0.22480537
12	0x3e35a18f	0.17737411
13	0x3eda81f9	0.42677286
14	0xbe4ad4e7	-0.19807778
15	0x3e626bc3	0.2211142
16	0x3dff1862	0.124558225
17	0xbe57d179	-0.21076001
18	0x3e84f8c0	0.2597103
19	0xbe0af6da	-0.13570729
20	0x3e105975	0.14096625
21	0x3e3fc8f6	0.18729004
22	0x3f336c5e	0.7008723
23	0x3f18f6f7	0.5975184
24	0x3de4e008	0.11175543
25	0x3dbdb6f3	0.092634104
26	0x3df06d41	0.117395885
27	0xbe79eab3	-0.24405937
28	0x3e7c25cd	0.24623795
29	0x3cc16eb8	0.023612365
30	0x3e41ae95	0.18914254
31	0x3e5a729c	0.21332783
32	0xbe89e7d9	-0.26934698
33	0xbd732dfa	-0.05937002
34	0x3ef84c51	0.48495725
35	0x3f18a3cd	0.5962494
36	0x3e490055	0.19629033
37	0x3df7cea2	0.12099959
38	0x3e62e3c8	0.22157204
39	0x3d426202	0.04745675
40	0xbd60cfe3	-0.054885756
41	0x3f10b7c4	0.56530404
42	0x3d5cd9e8	0.05391875
43	0x3e8c393d	0.2738742
44	0x3e436a4d	0.1908352
45	0x3da0d960	0.07853961
46	0x3f5f4b4d	0.87224275
47	0x3e6c061a	0.23049203
48	0xbe7d22b5	-0.24720271
49	0xbe7e9c45	-0.248643
50	0xbe63932e	-0.22224113
51	0xbe5e5785	-0.21713074
52	0xbde5f522	-0.11228396
53	0xbe389d7b	-0.18028824
54	0x3e89f8a2	0.26947504
55	0x3e830537	0.25589916
56	0xbe8ad097	-0.27112266
57	0xbe933a99	-0.28755644
58	0x3e53a0fb	0.20666878
59	0xbe520ae4	-0.20511967
60	0x3e8dc9dc	0.2769307
61	0x3deda091	0.11602891
62	0xbe92303c	-0.28552425
63	0xbe3f0bcf	-0.18656848

conv.convs.1.lin.weight f4 [64, 64]
0	0xbde89935	-0.11357347
1	0xbf05c843	-0.522587
2	0x3d802a3f	0.06258058
3	0xbeb1a3d2	-0.34695297
4	0x3db389cf	0.08766519
5	0xbe9fa3fb	-0.31179795
6	0x3e02fc44	0.12791544
7	0xbf203430	-0.6257963
8	0xbf1dadfc	-0.61593604
9	0x3ddd19c4	0.1079593
10	0x3da48e8c	0.08035001
11	0x3e1d05e4	0.15334278
12	0x3e0215eb	0.12703674
13	0xbd2c0add	-0.042002548
14	0xbf005d4f	-0.5014238
15	0xbf147ea3	-0.5800573
16	0xbf1024b5	-0.5630601
17	0x3d5d31eb	0.054002684
18	0x3e3424b7	0.1759213
19	0xbc9c51c5	-0.01908196
20	0xbf493399	-0.78594357
21	0xbea069d3	-0.31330737
22	0x3d62734e	0.055285744
23	0xbf3301c5	-0.69924575
24	0x3e11c2ff	0.14234541
25	0x3dcc73f2	0.09983052
26	0xbf30e876	-0.6910471
27	0x3e4769f2	0.19474009
28	0xbe1a2ec4	-0.15056902
29	0x3df8551a	0.12125607
30	0xbc59f48e	-0.013302935
31	0xbe2d239f	-0.1690812
32	0x3ddb7a79	0.10716719
33	0xbd9501f4	-0.07275763
34	0xbdda2e3e	-0.10653351
35	0x3e0cd968	0.13754809
36	0x3def003e	0.11669968
37	0xbe283618	-0.16426885
38	0x3c18b8b2	0.009321379
39	0xbe860753	-0.26177463
40	0x3ce8d9e2	0.028424207
41	0x3e03f225	0.1288534
42	0xbd029b49	-0.031886373
43	0x3de89cf3	0.11358061
44	0x3df7ec56	0.121056244
45	0x3d838a38	0.064228475
46	0xbe43cae8	-0.19120371
47	0x3e3722df	0.17884396
48	0x3dc08a29	0.09401352
49	0xbdbe0651	-0.092785485
50	0x3e42a9e7	0.19010125
51	0xbe1224e1	-0.1427188
52	0xbf3da519	-0.74080044
53	0xbd2fb5b9	-0.042897914
54	0x3e027f4d	0.12743874
55	0xbe9120be	-0.28345293
56	0xbde60eb9	-0.11233277
57	0xbe96203b	-0.29321465
58	0xbebe3430	-0.3714919
59	0x3e6490b5	0.22320826
60	0xbc86acaf	-0.016439764
61	0xbe907f6b	-0.28222212
62	0xbed9f70e	-0.425713
63	0xbebad245	-0.36488548
64	0x3f0487fc	0.51769996
65	0xbf8c1e9e	-1.0946844
66	0xbda2141a	-0.0791399
67	0xbe828fa4	-0.25500214
68	0x3e3de64a	0.1854488
69	0xbf1966f3	-0.59922713
70	0x3e0fed99	0.1405548
71	0xbf644fcd	-0.89184266
72	0xbf31bc3e	-0.6942786
73	0xbadbe928	-0.001677786
74	0x3d0d8483	0.0345502
75	0x3d3d9b21	0.04629052
76	0x3e08079a	0.1328415
77	0x3eb5bda8	0.3549626
78	0xbf8243f1	-1.0176984
79	0xbf1c9c6d	-0.61176187
80	0xbf834357	-1.0254925
81	0xbcb14b82	-0.02164245
82	0x3e86b71a	0.2631157
83	0x3eab862d	0.33500805
84	0xbf5c3fe4	-0.8603499
85	0xbf0d9b8b	-0.55315465
86	0x3d3efa5b	0.046625476
87	0xbf67d9b4	-0.90566564
88	0x3ddadc78	0.10686582
89	0x3d8c7db4	0.068599135
90	0xbf33b9b9	-0.70205265
91	0x3e5cc73d	0.21560378
92	0x3edf8c45	0.43661705
93	0x3e841d8c	0.25803792
94	0x3e730685	0.23732956
95	0x3f01c045	0.50684005
96	0x3e971dfb	0.2951506
97	0x3ec759a6	0.38935584
98	0x3ebd25fa	0.36943036
99	0xbd68926a	-0.056780256
100	0xbc140e09	-0.009036549
101	0x3eeba07f	0.46020886
102	0x3ac64d73	0.0015129283
103	0xbf1e6678	-0.61875105
104	0xbc8411f9	-0.016121851
105	0x3d7df7c9	0.062003884
106	0x3e912df6	0.28355378
107	0x3e22d848	0.15902817
108	0x3dd1e90b	0.102495275
109	0x3dd645b6	0.10462515
110	0x3f0e9bb6	0.55706346
111	0x3d36f91c	0.044671163
112	0xbd336902	-0.043801315
113	0x3ee06015	0.43823305
114	0x3d46a4ec	0.048497126
115	0x3e9c78bd	0.30560866
116	0xbf325588	-0.6966176
117	0x3e866025	0.26245227
118	0x3cf3821c	0.029725127
119	0xbec928cc	-0.39288938
120	0x3edda5cf	0.43290564
121	0xbed4594b	-0.41474375
122	0xbf0c73c0	-0.5486412
123	0x3e6d847a	0.23195067
124	0x3ecdc08a	0.40185958
125	0xbee205d4	-0.44145072
126	0xbf16cfa2	-0.5891057
127	0xbf082c56	-0.5319265
128	0x3e1a0203	0.1503983
129	0x3e8ee504	0.279091
130	0x3d812048	0.06304985
131	0x3dfd9854	0.1238257
132	0x3de19728	0.11015159
133	0x3e1445f2	0.14479807
134	0x3da4ce51	0.08047164
135	0x3ea852a6	0.32875556
136	0x3e911381	0.28335193
137	0x3d3775a6	0.044789933
138	0x3dc6e518	0.09711665
139	0xbca034d4	-0.01955644
140	0x3d4607a0	0.048347116
141	0x3d81962e	0.063274726
142	0x3e4fb0b4	0.2028225
143	0x3e04a686	0.12954149
144	0x3e418c29	0.18901123
145	0x3de7c45b	0.11316749
146	0x3d01a244	0.03164889
147	0x3d1eed87	0.038800742
148	0x3e8421a8	0.25806928
149	0x3e220051	0.15820433
150	0x3cab4269	0.02090569
151	0x3e638853	0.22219972
152	0x3d909c60	0.07061076
153	0x3df67613	0.120342396
154	0x3e789aa1	0.24277736
155	0x3e6871fd	0.22699733
156	0x3dfc4caa	0.1231931
157	0x3d3a75b5	0.04552241
158	0x3c1fec6a	0.009760955
159	0x3e019139	0.12653054
160	0x3cc01970	0.02344963
161	0x3c41ef35	0.011836817
162	0x3d939010	0.07205212
163	0x3e0e3862	0.13888696
164	0x3d84c86b	0.06483539
165	0x3c65ea26	0.014032876
166	0x3d7da8bd	0.0619285
167	0x3e027710	0.12740731
168	0x3e0251f0	0.12726569
169	0x3d015206	0.031572364
170	0xbc761463	-0.015019509
171	0x3dec7939	0.11546559
172	0x3d6faf32	0.05851669
173	0x3c95e91e	0.018299635
174	0x3e604c19	0.21904029
175	0x3de0f5f8	0.10984415
176	0x3cb2d39a	0.021829415
177	0x3d4e56c8	0.05037573
178	0x3e3a6e79	0.18206204
179	0x3d96fe43	0.07372715
180	0x3e452ab7	0.19254576
181	0x3b4d2d83	0.0031307645
182	0x3dd04946	0.10170226
183	0x3e1609a9	0.14652123
184	0x3d2271fe	0.039659493
185	0x3e3a59ec	0.18198365
186	0x3dc3417d	0.09533975
187	0x3d78f4cb	0.060780328
188	0xbbb50115	-0.0055238106
189	0x3e250043	0.16113381
190	0x3e2e0ebf	0.16997813
191	0x3de52b97	0.11189955
192	0x3f355ec4	0.70847726
193	0xbf13543e	-0.5755042
194	0xbe42adcc	-0.19011611
195	0xbfcfab9a	-1.6224244
196	0xbe38e60c	-0.18056506
197	0xbf11903d	-0.56860715
198	0xbde5e8d7	-0.11226051
199	0xbf24ff3a	-0.64451945
200	0xbf3f10b9	-0.7463489
201	0xbdb0c5c8	-0.08631474
202	0x3d4ffb7a	0.050776936
203	0x3c3d8cf1	0.011569248
204	0x3c371062	0.01117334
205	0x3ef72d4d	0.4827675
206	0xbf6c0159	-0.92189556
207	0xbff3c8be	-1.9045637
208	0xbf698837	-0.9122347
209	0xbcd62245	-0.026139388
210	0x3e007bee	0.12547275
211	0x3f1a1c9b	0.601999
212	0xbf9a3be8	-1.2049532
213	0xbf22b95f	-0.63564104
214	0xbbbd7c83	-0.005782665
215	0xbfa6285f	-1.298107
216	0xbe0fde5d	-0.14049669
217	0xbd23b0fe	-0.039963715
218	0xbfcef9a5	-1.6169935
219	0x3e78afd7	0.24285828
220	0x3f286c60	0.6579037
221	0x3e98115d	0.29700747
222	0x3ebe58c7	0.37177107
223	0x3f30abad	0.69011956
224	0x3e000a7e	0.12504002
225	0x3f137d08	0.5761266
226	0x3f065cbe	0.52485263
227	0x3ce5ed3f	0.02806723
228	0xbd82eab4	-0.06392422
229	0x3f280b0b	0.6564185
230	0xbe99ea2d	-0.30061474
231	0xbf24f67d	-0.6443861
232	0xbe46b680	-0.19405556
233	0xbe915d92	-0.283917
234	0x3f1d5bcd	0.614682
235	0xbe3ef9b6	-0.18649945
236	0x3ddaac66	0.10677414
237	0xbd97b381	-0.074072845
238	0x3f2f75d2	0.68539155
239	0x3e14275e	0.14468142
240	0xbe9360c1	-0.28784755
241	0x3f29fee7	0.66404575
242	0x3e723bab	0.23655574
243	0x3f0ff410	0.56231785
244	0xbfdc41f2	-1.7207625
245	0x3ec8c77e	0.392147
246	0x3e2a2663	0.16616206
247	0xbf871476	-1.0553119
248	0x3f2e579a	0.6810242
249	0xbf70c653	-0.9405262
250	0xbf4e8676	-0.8067392
251	0xbe24b985	-0.16086395
252	0x3f301201	0.6877747
253	0xbf4bc3aa	-0.79595435
254	0xbf11319c	-0.5671632
255	0xbf47c4c8	-0.7803464

conv.convs.2.bias f4 [64]
0	0x3deb5ee1	0.11492706
1	0xbd00b586	-0.031423114
2	0xbc248827	-0.010042227
3	0x3db657b1	0.089034446
4	0xbd3bd05e	-0.04585301
5	0x3bbdf867	0.005797434
6	0x3df2803e	0.118408665
7	0xbcbefaa3	-0.023312872
8	0xbd332be9	-0.043743048
9	0xbd19d71d	-0.037558664
10	0x3df9bd73	0.12194338
11	0xbcae428e	-0.02127197
12	0xbe0e775b	-0.13912718
13	0xbcc4d879	-0.024029003
14	0xbc3bed5f	-0.011470168
15	0x3cb9cb78	0.02268003
16	0x3df1dc5d	0.11809609
17	0xbcd50296	-0.02600221
18	0xbcd3171b	-0.025767853
19	0xbc3322b5	-0.010933568
20	0xbd91819a	-0.07104798
21	0xbc6c277f	-0.0144137135
22	0xbc8e8139	-0.017395603
23	0xbd060eef	-0.032729086
24	0xbca588b0	-0.02020678
25	0xbd6c6bad	-0.057719875
26	0x3dbbfa82	0.0917864
27	0xbc017305	-0.007900958
28	0x3c0bc02b	0.008529703
29	0x3b643326	0.0034820526
30	0xbc65ad87	-0.014018423
31	0x3ddde50c	0.10834703
32	0x3c668612	0.014070051
33	0x3ddfe06d	0.10931478
34	0xbd310dee	-0.043226175
35	0xbdeae095	-0.11468617
36	0x3cdcf4df	0.026972232
37	0x3d291ba9	0.041286144
38	0xbd009888	-0.031395465
39	0xbedad1f5	-0.4273831
40	0xbd75d61d	-0.060018647
41	0x3cd7c9b1	0.026341291
42	0x3de9c4b4	0.11414471
43	0xbd34fb94	-0.044185236
44	0xbd52cd0d	-0.051465083
45	0xbc5838a4	-0.013197098
46	0xbd3b2ecd	-0.04569893
47	0xbd0e9361	-0.03480852
48	0xbcb378f2	-0.021908257
49	0x3da9e2ab	0.082951866
50	0xbdd4bbb2	-0.103873625
51	0xbd7ebb70	-0.062190473
52	0x3ce31f92	0.027725015
53	0x3b395124	0.0028277123
54	0x3c833d88	0.016020551
55	0xbcba61ec	-0.02275177
56	0xbc806ccc	-0.015676878
57	0xbdb98e2a	-0.09060319
58	0xbcb23291	-0.021752628
59	0xbc0ce006	-0.008598333
60	0xbd16e0c9	-0.036835466
61	0xbc8d5f63	-0.017257398
62	0xbd825788	-0.063643515
63	0xbd377e34	-0.04479809

conv.convs.2.lin.weight f4 [64, 64]
0	0xbd7afccb	-0.06127624
1	0x3e7f76cc	0.24947661
2	0xbd3b218b	-0.045686286
3	0x3eaf50fd	0.34241477
4	0xbdb4d907	-0.08830457
5	0x3b989917	0.0046569216
6	0x3ca9189e	0.020641621
7	0xbcf14075	-0.02944968
8	0x3d8c172a	0.06840356
9	0xbcae8f18	-0.021308467
10	0xbc61458e	-0.013749493
11	0xbe43d5dc	-0.1912455
12	0x3d191fd9	0.037383888
13	0x3d8929bf	0.066974156
14	0xbc8289f3	-0.01593492
15	0xbcab7afd	-0.020932669
16	0x3c26ade3	0.010173294
17	0xbda74053	-0.08166566
18	0x3b34fa23	0.0027614913
19	0xbc8922d4	-0.01674024
20	0xbceb74ea	-0.028742272
21	0x3d691419	0.056903932
22	0x3d62a3eb	0.055332106
23	0x3e85bfce	0.26122898
24	0xbd83c18a	-0.06433399
25	0xbc8a05a7	-0.016848398
26	0xbb5b2344	-0.0033437768
27	0xbcb3f5dd	-0.021967823
28	0xbd5d6f64	-0.05406131
29	0xbd19fa59	-0.037592266
30	0xbd0a1e08	-0.033720046
31	0x3d8cef0d	0.06881533
32	0xbd10d4f6	-0.035359345
33	0x3d55351a	0.052052595
34	0x3d8f3b5c	0.06993744
35	0x3ed15b0d	0.4088978
36	0xbc72c2db	-0.014816965
37	0x3d3564b3	0.044285487
38	0xbd068fae	-0.032851867
39	0x3bfe1951	0.007754483
40	0xbcba1a11	-0.022717508
41	0x3e82e358	0.25564075
42	0xbbce5a85	-0.006297412
43	0xbc4742a4	-0.012161884
44	0x3cf970b2	0.030449245
45	0xbcd5a72d	-0.026080692
46	0x3de47ce2	0.11156632
47	0xbc935ac0	-0.017987609
48	0xbd63a0e5	-0.055573363
49	0xbd15f06b	-0.036606234
50	0xbe22ba3e	-0.15891358
51	0xbd67e910	-0.05661875
52	0xbd838988	-0.064227164
53	0xbd5fa0fe	-0.054596893
54	0x3cb44bca	0.022008795
55	0xbd1cc617	-0.03827485
56	0xbe0b8b39	-0.13627328
57	0xbd05e796	-0.03269156
58	0x3b9e4506	0.0048300056
59	0x3d07d8d5	0.03316577
60	0x3d68e0fd	0.05685519
61	0xbcaff9a4	-0.021481343
62	0x3d28a84b	0.04117612
63	0xbcab1842	-0.02088559
64	0xbc7e944c	-0.015538286
65	0xbe1d5666	-0.1536499
66	0xbd40814e	-0.046998315
67	0xbe37d866	-0.17953643
68	0xbc070cdb	-0.008242811
69	0x3cac3788	0.021022573
70	0x3bfdd92d	0.0077468366
71	0x3b25be1e	0.002529032
72	0xbd630f61	-0.05543459
73	0xbd4bde85	-0.049772758
74	0x3d3e4979	0.046456788
75	0x3c5a4fb6	0.013324669
76	0xbd2dff6d	-0.04247992
77	0x3c0927c4	0.008371297
78	0x3bf9fcc4	0.007629009
79	0xbbf4658d	-0.007458395
80	0x3c1fe458	0.009759031
81	0x3cb99b13	0.022656953
82	0xbc13bc50	-0.009017065
83	0x3d759a81	0.0599618
84	0xba1569be	-0.0005699656
85	0xbddf3148	-0.108980715
86	0x3e4887f8	0.19583118
87	0xbe296e64	-0.16546017
88	0x3d93e657	0.07221668
89	0x3ccec261	0.025239171
90	0xbd026ec8	-0.03184393
91	0x3d61f6ce	0.055167012
92	0xbc82ead6	-0.01598112
93	0x3d0b9071	0.034073297
94	0xbd3849dd	-0.044992317
95	0x3cd0a54a	0.025469441
96	0xbb43ded0	-0.0029887445
97	0xba5571ba	-0.0008142252
98	0x3d6c07bd	0.057624567
99	0xbe322c4d	-0.17399712
100	0xbc76a5c6	-0.015054172
101	0xbdb5c79e	-0.088759646
102	0x3bb543f1	0.005531781
103	0x3d3b1f33	0.04568405
104	0x3d45b1e5	0.048265357
105	0xbd98bf4f	-0.07458364
106	0xbd452e53	-0.04813988
107	0xbc003eb2	-0.007827448
108	0x3d1fde05	0.039030094
109	0x3d0ed469	0.03487054
110	0x3d949eb9	0.072568364
111	0xbd8f831c	-0.07007429
112	0x3cd7aeac	0.026328407
113	0xbd00cd30	-0.031445682
114	0xbce7a217	-0.028275533
115	0xbc3bd75f	-0.011464923
116	0x3c99417f	0.018707989
117	0xbc6cda72	-0.014456378
118	0xbcc9f77b	-0.02465414
119	0xbe261d0b	-0.16222017
120	0xbc307ca5	-0.010771905
121	0x3d9d1a65	0.0767105
122	0xbd31d354	-0.04341443
123	0x3d979177	0.07400792
124	0xbccd56f0	-0.02506587
125	0x3ddc9900	0.1077137
126	0x3d9c1a74	0.07622233
127	0x3be2fd59	0.006927174
128	0x3abcd51e	0.0014406776
129	0xbe01b99e	-0.12668464
130	0x3caa5fab	0.020797571
131	0xbd58a129	-0.05288807
132	0xbcb138e1	-0.021633567
133	0x3cbd775e	0.023128208
134	0x3d843a5b	0.06456443
135	0xbd66177d	-0.056174744
136	0xbddb769b	-0.107159816
137	0xbe001689	-0.12508596
138	0x3cf55ddc	0.029951982
139	0xbd1b2d6a	-0.037885107
140	0xbd1acd03	-0.03779317
141	0xbe77f8cb	-0.24216
142	0x3e14a581	0.1451626
143	0x3d30c967	0.043160822
144	0x3d5a007f	0.05322313
145	0xbbaf2758	-0.0053452663
146	0xbd9a679a	-0.07539292
147	0x3d1ba484	0.03799869
148	0xbd387b9e	-0.045039766
149	0xbe1ff6b4	-0.15621454
150	0x3e98a72d	0.29815045
151	0xbe43f064	-0.1913467
152	0x3bc54b07	0.006020907
153	0x3ca68b6f	0.020330159
154	0xbd3ad98a	-0.045617618
155	0x3d0b083f	0.03394341
156	0xbd97d6eb	-0.07414039
157	0xbc92d07f	-0.017921684
158	0xbc434a9f	-0.0119196465
159	0x3bec6b8a	0.007214968
160	0xbd5457bf	-0.051841494
161	0xbc22a910	-0.009928003
162	0x3db767d6	0.08955352
163	0xbe953d66	-0.29148406
164	0xbd6963e2	-0.05698002
165	0xbe3f31b4	-0.18671304
166	0x3b3dd466	0.002896571
167	0x3cb6b04a	0.022300858
168	0xbd2c7eb7	-0.042113032
169	0x3d197f21	0.037474755
170	0x3cdb345a	0.026758362
171	0xbd1f667f	-0.038916107
172	0x3d045280	0.03230524
173	0x382fe43a	4.1935804e-05
174	0x3dd3142f	0.10306584
175	0xbd118fc9	-0.035537515
176	0xbcbe1bee	-0.023206677
177	0x3b5c2e07	0.003359677
178	0xbd4bc30e	-0.049746566
179	0x3dc3afc2	0.095550075
180	0xbd86c2c3	-0.065801166
181	0xbd40f85c	-0.047111854
182	0xbc8ec475	-0.017427662
183	0xbc50bc0e	-0.012740148
184	0xbd347fe8	-0.044067293
185	0x3c4f1fcc	0.012641858
186	0xbc930d01	-0.017950537
187	0x3d2090e0	0.039200664
188	0x3bcc1784	0.006228389
189	0x3cf29b2a	0.029615004
190	0xbd301d0d	-0.042996455
191	0xbbb2d451	-0.005457439
192	0xbc548e8c	-0.012973439
193	0x3e83cc2d	0.2574171
194	0x3d89cc30	0.06728399
195	0x3ea877df	0.32903954
196	0xbd6463af	-0.05575913
197	0x3d8a794f	0.06761419
198	0xbe07c888	-0.1326009
199	0xbcd5af4c	-0.026084565
200	0x3d944a03	0.07240679
201	0xbdcd6637	-0.100292616
202	0xbdf8abe8	-0.121421635
203	0xbe5401b7	-0.20703779
204	0xbe83ca8b	-0.25740466
205	0xbd6d80bf	-0.05798411
206	0xbc8e7a55	-0.017392317
207	0xbe2ec8e2	-0.17068818
208	0xbd19d9e5	-0.037561316
209	0xbd2082df	-0.03918731
210	0xbdb3abca	-0.087730005
211	0x3e3bdf68	0.18346941
212	0xbd24812c	-0.04016225
213	0xbe59dc0c	-0.21275347
214	0xbd7939e9	-0.060846243
215	0x3eb4a2ee	0.35280555
216	0xbc0bfdad	-0.008544368
217	0x3cab33bb	0.02089869
218	0xbc911406	-0.017709743
219	0x3d90cb75	0.07070056
220	0xbd74f855	-0.05980714
221	0xbd0efb60	-0.0349077
222	0xbe80ceda	-0.25157815
223	0xbe3df5c3	-0.18550782
224	0xbc736746	-0.014856165
225	0xbcc8335d	-0.024438554
226	0x3b3381f4	0.002739069
227	0x3e6d9f82	0.23205379
228	0xbe803808	-0.25042748
229	0xbc86cdad	-0.016455496
230	0xbd9143e6	-0.07093029
231	0x3c3d0483	0.01153672
232	0xbd7cf53e	-0.06175732
233	0x3e365c3f	0.17808627
234	0xbcfa24d7	-0.030535145
235	0xbe0cca6c	-0.13749093
236	0x3c50b4e1	0.012738437
237	0xbd6673ae	-0.056262664
238	0x3d9f093f	0.077654354
239	0xbe6c6b32	-0.23087767
240	0x3c04df29	0.008109846
241	0xbd1b60ea	-0.03793422
242	0xbde47985	-0.111559905
243	0x3ddb23d6	0.107001945
244	0x3df94ec7	0.12173229
245	0x3ddf5da6	0.10906534
246	0xbe1bec2e	-0.15226814
247	0xbe4d0534	-0.20021516
248	0xbd840737	-0.064466886
249	0xbc9397df	-0.018016754
250	0xbe0704f1	-0.13185479
251	0x3dc1b5e1	0.09458519
252	0xbe647826	-0.22311458
253	0xbdea78f4	-0.11448851
254	0x3da603ac	0.08106169
255	0x3d13a983	0.03605033

conv.convs.3.bias f4 [64]
0	0xbdc4c6fb	-0.09608265
1	0x3dd2e1c2	0.10296966
2	0xbdea9f36	-0.11456148
3	0xbca45b84	-0.02006317
4	0xbd4d746d	-0.05015986
5	0x3db6d5bf	0.089274876
6	0xbd612adc	-0.054972515
7	0xbcbcb07c	-0.023033373
8	0x3d8be8c6	0.068315074
9	0x3bf69be4	0.007525908
10	0x3de20937	0.11036914
11	0xbd972acb	-0.07381209
12	0x3d554c4e	0.052074723
13	0xbe06285a	-0.1310133
14	0xbe1e5d4c	-0.15465277
15	0xbd9b9945	-0.07597593
16	0x3db39c45	0.087700404
17	0xbddb2f16	-0.1070234
18	0xbc436dc0	-0.011928022
19	0xbd2f0915	-0.04273327
20	0x3ca94287	0.020661606
21	0x3e22a617	0.15883671
22	0xbe0743e0	-0.13209486
23	0xbd26bad5	-0.04070552
24	0xbd2aafdb	-0.041671615
25	0x3cf78d4d	0.030218745
26	0x3d77a545	0.060460348
27	0x3ca8b04f	0.020591883
28	0x3ddd350a	0.10801132
29	0x3c9d79f9	0.0192232
30	0x3d98b5bc	0.07456538
31	0x3c7b71eb	0.015346984
32	0xbd323054	-0.04350312
33	0x3d2a89f4	0.04163547
34	0xbd4c7f85	-0.0499263
35	0x3ce1720e	0.027520206
36	0x3d3f6ad8	0.046732754
37	0xbd1c5542	-0.038167246
38	0x3d7b637c	0.061374173
39	0x3e2c6018	0.16833532
40	0x3d3f356a	0.0466818
41	0xbd3627d4	-0.044471577
42	0xbc92375c	-0.017848663
43	0x3dc7332d	0.09726558
44	0xbe526c8b	-0.20549218
45	0xb9f4b400	-0.00046673417
46	0x3d1e912c	0.038712665
47	0xbca7de11	-0.020491632
48	0x3cdda7a6	0.02705748
49	0xbc404a36	-0.011736443
50	0xbd9a1231	-0.07523001
51	0xbdc9d1a0	-0.09854436
52	0x3d52763f	0.0513823
53	0xbd33b6e3	-0.043875586
54	0x3da1abec	0.078941196
55	0x3c21eaf3	0.009882676
56	0xbdd22b02	-0.10262109
57	0xbd01a013	-0.0316468
58	0xbdafa2f8	-0.08576006
59	0xbe12e3b5	-0.14344676
60	0x3c8457a2	0.016155068
61	0xbd06e86b	-0.032936495
62	0xbca47339	-0.020074474
63	0xbcab028f	-0.020875243

conv.convs.3.lin.weight f4 [64, 64]
0	0xbe367b31	-0.17820431
1	0xba862a74	-0.0010236041
2	0x3cee21e5	0.029068897
3	0xbe4f3d60	-0.20238256
4	0x3c49f56a	0.012326578
5	0xbe974c80	-0.29550552
6	0xbe7b3293	-0.24531011
7	0x3d91b785	0.07115082
8	0x3eb0734a	0.3446296
9	0x3e0b4c87	0.13603412
10	0xbe386ca1	-0.18010189
11	0xbce642a8	-0.028107956
12	0x3e04914e	0.12946054
13	0x3c661ed8	0.01404544
14	0xbcbef215	-0.023308793
15	0x3ce3da6c	0.027814113
16	0xbe0feaeb	-0.14054458
17	0xbe41a06f	-0.18908857
18	0xbe9f19ae	-0.3107428
19	0xbeb6a6b2	-0.35674053
20	0x3e07a361	0.13245918
21	0xbde84085	-0.11340431
22	0x3bc12119	0.005893838
23	0x3cdd8033	0.02703867
24	0x3e5efdd7	0.2177652
25	0xbe6415a0	-0.22273874
26	0xbe2c1694	-0.16805488
27	0xbc6f4391	-0.014603511
28	0xbe28c6e2	-0.16482118
29	0x3d559e48	0.052152902
30	0x3c47a734	0.01218586
31	0xbe4f259b	-0.20229189
32	0xbc7e9f61	-0.015540929
33	0xbe3abee7	-0.18236886
34	0x3d49de73	0.04928441
35	0x3c9a80f9	0.018860327
36	0x3eaf546f	0.34244105
37	0x3d57600d	0.052581836
38	0xbd8aa998	-0.06770629
39	0xbe91d929	-0.28485993
40	0xbe052e34	-0.13005906
41	0xbd84f9ab	-0.06492933
42	0xbe843f5e	-0.25829595
43	0x3cdc2ed9	0.026877807
44	0x3cbcaceb	0.023031672
45	0xbd6aa986	-0.057290576
46	0x3d3eca98	0.046579927
47	0xbe8b0ae7	-0.27156755
48	0xbd989c1f	-0.07451653
49	0xbd7304b4	-0.059330657
50	0x3dd2c0e6	0.10290699
51	0x3dbe87ee	0.0930327
52	0x3e0b400a	0.13598648
53	0xbd47b09b	-0.04875241
54	0xbd2a4fff	-0.041580196
55	0xbccc9237	-0.024972064
56	0x3cc8dfac	0.024520718
57	0x3d83f6a6	0.06443529
58	0xbcb00f2c	-0.02149161
59	0xbd9cf392	-0.07663645
60	0xbc2a6616	-0.010400316
61	0xbd43eeb6	-0.047835074
62	0x3d75693c	0.059914812
63	0x3b0d3125	0.0021544185
64	0x3e2943c2	0.16529754
65	0xbd83ff8f	-0.06445228
66	0xbd9be831	-0.07612646
67	0x3e2a7683	0.16646771
68	0x3b8f14b4	0.0043664817
69	0x3ecef853	0.4042383
70	0x3dec8afe	0.11549948
71	0xbe03e69f	-0.12880944
72	0xbdea8f9e	-0.11453174
73	0xbe86a941	-0.26301005
74	0x3e1a350e	0.15059301
75	0xbcf034fe	-0.029322144
76	0xbf1b96c9	-0.60776955
77	0xbd2eb065	-0.04264869
78	0x3dd3f851	0.10350097
79	0x3d1b9c09	0.037990604
80	0x3d9e3ca9	0.07726414
81	0x3e8ba57c	0.27274692
82	0xbdf260d0	-0.11834872
83	0xbd8790c4	-0.06619409
84	0x3cbfb48c	0.023401521
85	0xbd1c8df5	-0.03822132
86	0xbdb37881	-0.08763219
87	0x3e3c9a97	0.18418346
88	0x3d95327c	0.0728502
89	0x3ea4747e	0.32120126
90	0x3e739fdc	0.2379145
91	0xbe5b7911	-0.21432902
92	0xbddebd40	-0.1087594
93	0xbe8f640f	-0.28006026
94	0xbd314f7d	-0.043288697
95	0x3e0a89c5	0.13529117
96	0x3e372a21	0.17887165
97	0x3e0fc15c	0.14038604
98	0x3dc2b175	0.095065035
99	0x3e9c4958	0.30524707
100	0x3e686882	0.22696117
101	0x3da1e385	0.07904724
102	0xbe18c81f	-0.1492009
103	0x3e826663	0.2546874
104	0xbe3a68f6	-0.18204102
105	0x3e042fca	0.12908855
106	0x3e34523b	0.17609493
107	0xbcda07b8	-0.026615009
108	0xbc8e42b0	-0.017365783
109	0x3e01241a	0.12611428
110	0xbd9c434a	-0.07630022
111	0xbe6aa5a8	-0.22914755
112	0x3eb8680e	0.36016887
113	0x3da31019	0.07962055
114	0xbe8536ba	-0.26018316
115	0x3dd5a41b	0.10431691
116	0x3e7fe87f	0.24991034
117	0x3db635bf	0.0889697
118	0x3da113db	0.07865115
119	0x3dc522e3	0.09625795
120	0x3ea48b2b	0.32137427
121	0x3e94948b	0.2901958
122	0xbd2eb99e	-0.042657487
123	0xbdc7a2fd	-0.097478844
124	0x3d48631c	0.048922643
125	0x3cdd422d	0.027009094
126	0xbbd9cb02	-0.006646515
127	0xbe1d6a6f	-0.15372632
128	0xbdbe1e01	-0.092830665
129	0xbdcec9fb	-0.100971185
130	0x3d964bbd	0.07338665
131	0xbcd2e419	-0.025743531
132	0x3c4d758d	0.012540233
133	0x3ea725c2	0.32645994
134	0xbe408f05	-0.18804558
135	0x3daa917b	0.083285294
136	0x3b5fec6d	0.003416802
137	0x3f10499f	0.56362337
138	0xbdad09fa	-0.084491685
139	0x3e8f9805	0.2804567
140	0x3f068423	0.52545375
141	0x3d4c7b7e	0.04992246
142	0x3d91a85a	0.07112189
143	0x3cb01887	0.02149607
144	0xbda4addb	-0.08040973
145	0x3e745a96	0.23862681
146	0x3ebf20d8	0.37329745
147	0x3f0b81c1	0.54494864
148	0x3c03dac6	0.008047765
149	0x3e27dafc	0.1639213
150	0xbd07ad56	-0.03312429
151	0x3ca5cc0c	0.020238899
152	0xbe482f74	-0.19549352
153	0x3ed0f2b8	0.4081018
154	0xbe1104a8	-0.14161932
155	0x3bba1a9c	0.0056794416
156	0x3e49e8b1	0.19717671
157	0xbcfc0103	-0.030762201
158	0x3d2250ea	0.039627947
159	0xbe2ac796	-0.16677698
160	0xbc382cc4	-0.011241142
161	0xbd3ee8c2	-0.046608694
162	0xbcaeebc1	-0.02135265
163	0x3d0660bb	0.032807093
164	0xbeb31449	-0.34976414
165	0x3db8b198	0.09018248
166	0x3e9f0812	0.31060845
167	0xbe670f58	-0.22564447
168	0x3f0fdda4	0.5619757
169	0x3c848a8f	0.016179351
170	0xbdeba98d	-0.115069486
171	0x3d707d61	0.05871332
172	0xbd2ca18c	-0.04214625
173	0xbd8ece33	-0.06972923
174	0xbca79cac	-0.02046045
175	0x3f24cb06	0.6437229
176	0x3cffe1e5	0.031235645
177	0x3ca3a5f2	0.01997659
178	0x3e8eb4b6	0.27872247
179	0x3d9fca17	0.078022175
180	0xbee2e5df	-0.44316003
181	0xbbff7880	-0.007796347
182	0xbd4a0e1f	-0.049329873
183	0xbbd0471f	-0.0063561345
184	0x3c442e93	0.011973995
185	0x3ddf8aaf	0.10915124
186	0x3d67b8cd	0.056572724
187	0x3e7eb975	0.24875434
188	0x3e098848	0.13430893
189	0xbc86dc8e	-0.01646259
190	0x3e376b0f	0.17911933
191	0x3eabd1b8	0.3355844
192	0xbe91d14e	-0.2848
193	0x3d3c4aea	0.04596988
194	0x3d88b222	0.06674601
195	0xbe5df34b	-0.2167484
196	0xbd2f162b	-0.04274575
197	0xbe9581c3	-0.29200563
198	0xbeaa19d9	-0.33222845
199	0xbd71df50	-0.059050858
200	0x3daa85f7	0.08326333
201	0xbe176230	-0.1478355
202	0xbeba6b64	-0.36410058
203	0xbdb279cd	-0.08714638
204	0xbe1eb85c	-0.15500015
205	0x3d22c056	0.039734207
206	0xbd3bdd55	-0.045865376
207	0xbcf3266e	-0.02968141
208	0xbe9e3eda	-0.30907327
209	0xbda9ca36	-0.08290522
210	0x3e474900	0.19461441
211	0xbd8ad15c	-0.067782134
212	0xbd3138e9	-0.043267164
213	0x3d62ed1d	0.05540191
214	0xbcd08b80	-0.025457144
215	0x3d33b785	0.04387619
216	0x3bbeaba7	0.0058188024
217	0xbd76d6e6	-0.060263537
218	0xbe8c3133	-0.27381286
219	0x3de4a0c0	0.11163473
220	0xbdbb7cf9	-0.09154696
221	0x3e447493	0.19185095
222	0x3d42c887	0.04755452
223	0xbe7a1b3e	-0.24424455
224	0xbe0c112b	-0.13678424
225	0xbe519b79	-0.20469464
226	0xbd0e362b	-0.034719627
227	0x3c709682	0.014684321
228	0xbded69f3	-0.11592474
229	0xbd8def03	-0.069303535
230	0x3d514ddb	0.05109964
231	0x3ee03611	0.4379125
232	0x3e64fa71	0.22361161
233	0x3ca81ac3	0.020520573
234	0xbe7756f1	-0.2415426
235	0xbd1da1ea	-0.03848449
236	0x3ca5ddbb	0.02024733
237	0x3c103511	0.0088017145
238	0x3ca2fbd8	0.01989548
239	0x3dceb75f	0.10093569
240	0xbe2912f5	-0.16511138
241	0x3cad74b3	0.02117381
242	0xbe29f684	-0.16597944
243	0xbb4c7ac7	-0.003120111
244	0xbe1fcae2	-0.15604737
245	0xbd74ad11	-0.05973536
246	0xbc42809d	-0.011871484
247	0x3d1ae0fe	0.037812226
248	0xbe0a2c21	-0.13493396
249	0xbe0b6710	-0.13613534
250	0x3c30cdf0	0.010791287
251	0xbdd6124e	-0.1045271
252	0xbd054cc8	-0.032543927
253	0x3b83fd5f	0.004028007
254	0xbe2d4801	-0.16921999
255	0x3dbac946	0.09120421

lin.weight f4 [64, 128]
0	0xbe9349d3	-0.2876726
1	0x3e6839fc	0.2267837
2	0xbe1f0e44	-0.15532786
3	0xbdef5a51	-0.11687148
4	0xbc20f5c4	-0.00982422
5	0x3e3ea1db	0.1861643
6	0xbe0f85c4	-0.14015871
7	0x3d4e2002	0.050323494
8	0x3b9bcdde	0.004754766
9	0xbd3bc50a	-0.045842208
10	0x3e1bef1d	0.15227933
11	0xbea87780	-0.3290367
12	0xbdcb17f5	-0.09916679
13	0x3e058f90	0.13043046
14	0x3d64baa6	0.055842064
15	0xbe867506	-0.26261157
16	0x3d88dd09	0.06682784
17	0xbdf4e307	-0.119573645
18	0xbd43f278	-0.047838658
19	0xbdb232c1	-0.08701087
20	0x3d8dc786	0.06922822
21	0xbd29330d	-0.04130845
22	0xbd858253	-0.06518998
23	0xbe34ad4a	-0.1764423
24	0xbda8b408	-0.08237463
25	0x3e37d244	0.17951304
26	0x3ec7b8f3	0.39008293
27	0x3d0cc3cd	0.034366418
28	0x3e3ffe6f	0.18749402
29	0x3f04b181	0.5183335
30	0x3e359c80	0.17735481
31	0x3ae0a786	0.001713977
32	0x3e153ef2	0.14574793
33	0x3e24c254	0.16089755
34	0xbe0acc00	-0.13554382
35	0x3ea66236	0.32496804
36	0x3e54f40b	0.2079622
37	0xbdb64e2a	-0.08901627
38	0x3ea7920d	0.32728615
39	0xbd91104c	-0.070831865
40	0x3d4cb5ec	0.04997818
41	0xbdb97315	-0.09055153
42	0xbd859230	-0.06522024
43	0x3d13216e	0.035920553
44	0x3d418fd8	0.04725632
45	0x3da8392d	0.082140304
46	0x3ec655e8	0.38737416
47	0xbc50b331	-0.012738035
48	0xbe44bcdd	-0.1921267
49	0x3d16469d	0.036688436
50	0xbd899c5b	-0.067192756
51	0xbdab0d5a	-0.08352156
52	0xbe404330	-0.1877563
53	0xbd59c2c1	-0.053164247
54	0x3da68ca8	0.08132297
55	0x3df579b1	0.119861014
56	0x3da18a45	0.07887701
57	0xbd8a8460	-0.0676353
58	0x3db24823	0.08705165
59	0x3e049e8e	0.12951109
60	0x3ec9bdc6	0.39402598
61	0x3d7af5ca	0.06126956
62	0xbec99088	-0.3936808
63	0x3dc74221	0.0972941
64	0xbeaef899	-0.3417404
65	0x3df41d9e	0.119197115
66	0x3d523ef5	0.05132957
67	0x3dadc27c	0.084843606
68	0xbe60a251	-0.21936919
69	0xbd13cb9e	-0.036082856
70	0xbd86505d	-0.06558297
71	0x3d7e3ed1	0.062071625
72	0x3e82a6d0	0.25517893
73	0x3e0890a1	0.13336422
74	0x3e738a5f	0.23783253
75	0xbe9ebf69	-0.3100541
76	0x3dded828	0.10881072
77	0xbd8b04a5	-0.06787995
78	0xbdba500f	-0.09097301
79	0xbe80f816	-0.25189275
80	0x3e00f408	0.1259309
81	0x3dd0f468	0.10202867
82	0xbe1d8f0f	-0.15386604
83	0x3e9714b2	0.29507977
84	0x3df2d552	0.11857094
85	0x3e99ce7b	0.30040345
86	0xbea924b3	-0.33035812
87	0x3dd15a91	0.10222352
88	0xbe901fd6	-0.2814929
89	0x3d772913	0.060341906
90	0x3e1b5f89	0.15173163
91	0xbc18499e	-0.009294895
92	0x3e0bdf37	0.13659368
93	0x3e5edac3	0.21763138
94	0xbd1f13e0	-0.038837314
95	0xbd8be619	-0.06830997
96	0x3e7e29a6	0.24820575
97	0x3e861c57	0.26193497
98	0x3d09f4bc	0.033680663
99	0xbdd6a591	-0.10480798
100	0x3d53afbf	0.051681276
101	0x3e2d86d6	0.16945967
102	0x3e2b2089	0.1671163
103	0x3e23eede	0.1600909
104	0xbe5a2512	-0.21303204
105	0x3d0c8091	0.034302298
106	0x3e1361af	0.14392732
107	0x3c78a931	0.015177057
108	0xbe67f2db	-0.22651236
109	0xbdf7dac9	-0.12102277
110	0x3e61289d	0.21988149
111	0x3d0d6aeb	0.034525793
112	0xbe91e2ca	-0.2849334
113	0x3ea5d427	0.32388422
114	0x3e0d1551	0.13777663
115	0xbdb5781a	-0.08860798
116	0xbe9cb9ff	-0.30610654
117	0x3e2e7c3d	0.1703958
118	0x3e547bdb	0.20750372
119	0xbe931a27	-0.2873089
120	0xbdaf1ba1	-0.08550192
121	0x3e91e72e	0.2849669
122	0xbdaeca08	-0.08534628
123	0xbd2f62e6	-0.042818926
124	0x3eb5d6d4	0.35515463
125	0x3e5bae7b	0.21453278
126	0xbe28b9a6	-0.1647707
127	0x3d3c7a7a	0.04601524
128	0xbe732da4	-0.2374788
129	0x3e468f35	0.19390567
130	0xbe9aca33	-0.3023239
131	0xbe2c2893	-0.16812353
132	0x3e9b1fe4	0.30297768
133	0x3e345c51	0.17613341
134	0xbe501e15	-0.20323975
135	0xbee18f30	-0.44054556
136	0x3d5190ec	0.0511636
137	0x3ca53bac	0.020170055
138	0x3d678273	0.05652089
139	0xbed68586	-0.41898745
140	0x3d371446	0.04469707
141	0xbd740cf7	-0.059582677
142	0xbc1d2519	-0.009591364
143	0xbd44fd82	-0.048093326
144	0xbcb5417b	-0.02212595
145	0xbc6cb162	-0.014446588
146	0x3e52ed4f	0.20598339
147	0xbe3689c1	-0.17825986
148	0xbd3833db	-0.04497133
149	0x3e043f70	0.12914824
150	0xbd04b5d5	-0.03239997
151	0x3db285d6	0.087169334
152	0x3e567169	0.209417
153	0x3e0ac9f9	0.13553609
154	0x3e56b10d	0.20965977
155	0xbec68d9d	-0.38779917
156	0xbd32eb30	-0.043681324
157	0x3d2bb5d6	0.04192146
158	0x3e898dbc	0.26865947
159	0xbe4b2cce	-0.1984131
160	0xbe6101a2	-0.21973279
161	0xbe0795f6	-0.132408
162	0x3e186368	0.1488167
163	0xbb95191c	-0.0045501124
164	0xbdc1d1ce	-0.09463845
165	0xbe0d4a42	-0.13797858
166	0x3e6bf526	0.23042735
167	0x3ce83d87	0.028349651
168	0x3d0396aa	0.032126106
169	0x3d6bb789	0.05754808
170	0x3e162ba2	0.14665082
171	0x3f26e8a2	0.6519872
172	0xbd9f49e1	-0.07777763
173	0xbcada269	-0.021195607
174	0xbb8a70af	-0.0042248587
175	0x3d0d3f98	0.034484476
176	0x3d81879a	0.06324692
177	0xbd832b21	-0.064047106
178	0x3d7a2bea	0.061077036
179	0x3bdc096b	0.00671499
180	0xbd876c29	-0.06612427
181	0x3dc4a0f6	0.09601013
182	0x3df9c8ad	0.12196479
183	0x3de5c5a7	0.1121934
184	0xbe8f0023	-0.27929792
185	0xbe92307f	-0.28552625
186	0xbe204a71	-0.15653397
187	0xbd1294b4	-0.035786346
188	0x3caa530d	0.020791555
189	0xbed6f675	-0.41984907
190	0xbe61375b	-0.21993773
191	0xbec1fc5d	-0.3788785
192	0xbf45fb0e	-0.77336204
193	0x3edb2d01	0.42807773
194	0xbefdb065	-0.4954864
195	0x3f149b4b	0.5804946
196	0x3e3acfdc	0.18243355
197	0x3f241c0f	0.64105314
198	0xbf097a92	-0.5370265
199	0x3e12d01c	0.143372
200	0x3ea17f57	0.31542465
201	0xbe85c3b3	-0.2612587
202	0x3ebc4704	0.3677293
203	0xbf7c8f5e	-0.9865626
204	0x3ca1505d	0.01969164
205	0xbe0c0b4f	-0.13676189
206	0xbe47d00b	-0.19512956
207	0xbf606b36	-0.8766359
208	0x3e08aefa	0.13347998
209	0xbe9727d4	-0.29522574
210	0x3e516338	0.20448005
211	0xbdfe498a	-0.1241637
212	0x3e9432d0	0.28945017
213	0x3e7b48e9	0.24539532
214	0xbee14ec2	-0.440054
215	0x3d871549	0.06595857
216	0x3e03ddd9	0.12877597
217	0x3ea016a4	0.31267273
218	0x3edf8861	0.43658736
219	0x3ee8f125	0.4549648
220	0x3ea478fc	0.32123554
221	0xbe2d7b4d	-0.16941567
222	0x3ebf2ca1	0.37338737
223	0x3efaebda	0.49008065
224	0xbf27d9a6	-0.6556648
225	0xbde25eef	-0.110532634
226	0xbec50b1c	-0.38485038
227	0xbf3aebc6	-0.7301601
228	0x3e0493ee	0.12947056
229	0x3dde8151	0.10864509
230	0x3e8ec32c	0.2788328
231	0x3e32035f	0.17384098
232	0x3eaf7adf	0.3427343
233	0x3e23c5ed	0.15993471
234	0xbe671c78	-0.22569454
235	0x3f30ef7e	0.69115436
236	0xbe6f8690	-0.23391175
237	0x3dedbdbf	0.11608457
238	0xbed4d80a	-0.41571075
239	0xbe4bd55a	-0.19905606
240	0x3ebb9eed	0.36644688
241	0xbc66e2ea	-0.0140921865
242	0xbd68a613	-0.056799006
243	0xbe86d07e	-0.26330942
244	0x3dc39797	0.09550398
245	0xbe5717d6	-0.21005186
246	0x3e86bb99	0.26315
247	0xbe5bd7f5	-0.214691
248	0xbeaf3607	-0.34220907
249	0x3ee1ce6d	0.44102803
250	0x3e4feda7	0.20305501
251	0xbdf5f4ef	-0.12009608
252	0xbe30c757	-0.17263542
253	0xbf0c979c	-0.5491884
254	0xbdc3a7f7	-0.09553521
255	0xbeff24be	-0.4983272

lin.bias f4 [64]
0	0x3dc9205d	0.09820626
1	0x3e27f826	0.16403255
2	0x3f073c42	0.5282632
3	0xbe867e91	-0.26268438
4	0x3f03a37e	0.51421344
5	0x3ec8853b	0.39164147
6	0xbcc30439	-0.023805724
7	0x3df2cebd	0.118558384
8	0x3edb147a	0.4278906
9	0x3f4c0be5	0.7970565
10	0x3f12a5a6	0.5728401
11	0xbec3ec68	-0.382663
12	0xbe3ce358	-0.184461
13	0xbf63e25f	-0.8901729
14	0xbe6fe80f	-0.23428367
15	0x3dfb3405	0.12265781
16	0xbe03e22f	-0.12879251
17	0x3d4e9415	0.05043419
18	0x3ef1a186	0.47193545
19	0x3e04c869	0.12967075
20	0x3f15c204	0.5849917
21	0x3e233d1e	0.15941283
22	0x3eca8ebb	0.3956202
23	0x3e9e396f	0.30903193
24	0xbeaa55b3	-0.33268508
25	0xbf93ea03	-1.155579
26	0x3ec4a733	0.38408813
27	0x3eb34c04	0.35018933
28	0x3e03b173	0.1286066
29	0xbf36cb35	-0.7140382
30	0xbda8ead2	-0.082479134
31	0xbd1e3b95	-0.03863104
32	0x3ea22f1b	0.31676564
33	0x3e403209	0.18769087
34	0x3f0f49e8	0.55972147
35	0x3e15ea3e	0.14640138
36	0xbec362d3	-0.38161334
37	0x3f9df97a	1.2341759
38	0xb9ac4662	-0.00032858836
39	0xbefbeec7	-0.4920561
40	0x3efb4354	0.49074805
41	0xbe6deaf0	-0.23234153
42	0x3e9e817a	0.30958158
43	0xbc35e0d8	-0.01110097
44	0x3d592b59	0.053019855
45	0xbfca8ea4	-1.582478
46	0x3f0e44d1	0.55573756
47	0x3e96b6fb	0.29436478
48	0xbea9688f	-0.33087584
49	0x3e51faa9	0.20505776
50	0x3df7fdb5	0.12108938
51	0x3e754a8e	0.23954222
52	0x3f1cbea4	0.61228395
53	0x3ed85489	0.42251995
54	0xbe5b2276	-0.21399865
55	0x3f07cbc9	0.53045326
56	0x3ef1f9f9	0.47261027
57	0x3eb8bbdc	0.36080825
58	0x3f06818b	0.52541417
59	0x3ef72c69	0.4827607
60	0xbd160df3	-0.036634397
61	0x3e556c80	0.2084217
62	0xbe3e0678	-0.18557155
63	0xbebde78e	-0.37090725

out.weight f4 [5, 64]
0	0xbdb8fe98	-0.09032935
1	0xbc598d79	-0.013278359
2	0xbd52f59b	-0.05150376
3	0x3d22e32a	0.03976742
4	0x3dce53ea	0.10074599
5	0xbd2f7522	-0.042836316
6	0x3e7da943	0.247716
7	0x3eb3a5f2	0.35087544
8	0xbd826a13	-0.06367888
9	0xbc691736	-0.014226725
10	0x3e954170	0.29151487
11	0xbd8bf237	-0.06833308
12	0xbd965c72	-0.07341851
13	0x3d19d0ec	0.03755276
14	0xbde17fc8	-0.110107005
15	0x3dbe4fdb	0.09292575
16	0x3e014fd0	0.12628102
17	0x3e151b5c	0.14561218
18	0x3addc3f6	0.0016919363
19	0xbe728750	-0.2368443
20	0x3ea3b3b2	0.31973034
21	0x3e5afd4e	0.2138569
22	0x3e0b8b26	0.136273
23	0xbe3bb861	-0.18332054
24	0x3df3e94c	0.11909732
25	0x3ec7824d	0.389666
26	0xbe50f459	-0.20405711
27	0x3d299f0e	0.041411452
28	0x3dcfbc8f	0.101433866
29	0xbdd2b251	-0.102879174
30	0x3e1f52bb	0.15558903
31	0xbda4b3ce	-0.080421075
32	0xbe83f7a3	-0.2577487
33	0x3dcd3599	0.100199886
34	0x3e8027cb	0.2503036
35	0x3f6cda0e	0.92520225
36	0x3ed506bf	0.4160671
37	0xc094588e	-4.63581
38	0x3d40a099	0.047028158
39	0x3f255d46	0.6459545
40	0xbe4d2147	-0.20032226
41	0xbe54e9ed	-0.2079236
42	0xbdb049cd	-0.086078264
43	0x3e0d48fd	0.13797374
44	0x3f20bf7d	0.6279219
45	0xbe45a55b	-0.1930136
46	0x3c36497e	0.01112592
47	0x3e32ed6e	0.17473385
48	0x3ead0205	0.33790603
49	0xbec12d56	-0.377299
50	0xbeefbbc2	-0.46822935
51	0x3e8e3d00	0.27780914
52	0x3ece4f35	0.40294805
53	0xbf0d59da	-0.5521523
54	0x3e9b85d7	0.3037555
55	0xbed89802	-0.42303473
56	0xbe1e4353	-0.1545537
57	0x3d4d2f66	0.05009403
58	0xbefca19d	-0.4934205
59	0xbeffa147	-0.49927732
60	0x3e0d2c65	0.13786466
61	0xbe8a360c	-0.2699436
62	0xbe68e527	-0.22743665
63	0x3dcddcee	0.100519046
64	0xbe2221e9	-0.15833248
65	0x3d58c762	0.05292452
66	0xbf32d7c1	-0.69860464
67	0xbc0ca042	-0.00858313
68	0xbebaedef	-0.36509654
69	0xbea6ee50	-0.32603693
70	0xbeb8292b	-0.3596891
71	0xbf05a3ff	-0.52203363
72	0x3e5f001b	0.21777384
73	0xbfc4feae	-1.5390222
74	0xbf2fad10	-0.6862345
75	0x3de97307	0.11398893
76	0x3d9f2898	0.077714145
77	0xbc8fb0c0	-0.017540336
78	0x3e61a42d	0.22035284
79	0xbded13bb	-0.11576029
80	0xbe285b0e	-0.16440985
81	0xbe5dbe21	-0.2165456
82	0x3d6580f8	0.056031197
83	0x3de9e62c	0.11420855
84	0xbf0e7c7e	-0.5565871
85	0xbe57d158	-0.21075952
86	0xbe54729a	-0.20746842
87	0xbd824d29	-0.063623734
88	0xbf02903c	-0.51001334
89	0xbea5a85a	-0.32355005
90	0xbeb502e4	-0.35353768
91	0xbc2230ed	-0.00989936
92	0x3f9cb5f3	1.2243026
93	0xbe15f18f	-0.14642929
94	0xbdf49728	-0.11942893
95	0x3e699391	0.22810198
96	0xbdc03b7b	-0.09386345
97	0xbdaa205b	-0.083069526
98	0x3c96a473	0.018388962
99	0xbf02d0c8	-0.51099825
100	0x3bb0ced3	0.005395749
101	0xc011a374	-2.2756014
102	0x3d65fd9e	0.05615007
103	0xbd9a1a64	-0.07524565
104	0xbe6721e9	-0.2257153
105	0xbe4662f1	-0.1937368
106	0xbe649cb8	-0.22325408
107	0xbe2bce7d	-0.16777988
108	0x3f36c7e5	0.71398765
109	0xbf59084a	-0.84778273
110	0xbeabcb92	-0.3355375
111	0xbeff282b	-0.49835333
112	0xbd80ae1d	-0.062832095
113	0x3ed11165	0.40833583
114	0x3f95e4e2	1.1710474
115	0xbef565c9	-0.47929218
116	0x3fa551ed	1.2915627
117	0xbf38a7e2	-0.7213117
118	0xbcdc28b8	-0.026874885
119	0xbe706dbb	-0.23479359
120	0x3cb9eef8	0.022696957
121	0xbe50711d	-0.2035565
122	0x3e48f321	0.19623996
123	0xbd8d0aef	-0.06886851
124	0xbe7699db	-0.24082129
125	0x3c810bc0	0.015752673
126	0x3e2bc9b7	0.16776167
127	0xbc12dd0a	-0.008963833
128	0x3eb31939	0.3498018
129	0x3cb3fcfc	0.021971218
130	0x3e40fb1b	0.18845789
131	0xbf8f4500	-1.1192932
132	0x3ea160e8	0.31519246
133	0x3e955d54	0.29172766
134	0x3e8137cd	0.25237885
135	0x3f25d683	0.64780444
136	0x3ce6bc5d	0.02816599
137	0xbf32b815	-0.69812137
138	0x3df036ff	0.1172924
139	0xbf83c463	-1.0294307
140	0xbf9b1f04	-1.211884
141	0xbf397b9c	-0.7245424
142	0xbea7f457	-0.32803604
143	0x3e20a121	0.15686466
144	0x3e92804b	0.28613505
145	0xbf5eab91	-0.8698054
146	0xbc7b891e	-0.0153525155
147	0x3e841687	0.25798437
148	0x3e952527	0.29129907
149	0xb920e690	-0.0001534468
150	0x3eecf7f3	0.4628292
151	0x3f24cbc9	0.6437345
152	0x3f3705f8	0.7149348
153	0xbe69b8a5	-0.22824343
154	0x3f042b39	0.5162845
155	0x3dbd3695	0.09238926
156	0xbe7a0eb9	-0.24419679
157	0xbf340dee	-0.70333755
158	0xbf22bec4	-0.63572335
159	0x3d835095	0.06411854
160	0x3ec45e1a	0.38353044
161	0x3e3f475e	0.18679568
162	0xbf4f7eb0	-0.81052685
163	0x3f43c981	0.76479346
164	0x3f43d8ac	0.7650249
165	0x3f30f08d	0.6911705
166	0xbfad29d2	-1.3528388
167	0x3e5fc8fc	0.21854013
168	0xbf744705	-0.9542087
169	0x3f0ee57e	0.5581893
170	0x3edfcba1	0.43710044
171	0x3d6c1a4a	0.05764226
172	0x3e9553aa	0.29165393
173	0x3fc18aec	1.512052
174	0x3e28d637	0.16487966
175	0x3db2d52b	0.08732065
176	0xbf3e9ebd	-0.74460965
177	0xbd041c4a	-0.03225354
178	0x3ee060cf	0.4382386
179	0x3d2e6807	0.042579677
180	0xbde31008	-0.11087042
181	0xbfb26c85	-1.3939368
182	0xbefb4cf3	-0.49082145
183	0xbf844ca5	-1.033589
184	0xbfde7a5b	-1.738109
185	0x3ec2331c	0.37929618
186	0xbdde1bec	-0.108451694
187	0xbf51bd84	-0.819298
188	0x3eb7a072	0.35864598
189	0xbdc219c5	-0.094775714
190	0xbf2cf97f	-0.675682
191	0xbf52c0fd	-0.82325727
192	0xbeb3760f	-0.3505101
193	0xbefafee9	-0.49022606
194	0x3dbba128	0.091615975
195	0x3dc0dde8	0.09417325
196	0xbe1c9366	-0.15290603
197	0xbd95dd9b	-0.073176585
198	0xbf360183	-0.71096057
199	0xbe8ee4a6	-0.2790882
200	0xbf490ba0	-0.78533363
201	0x3f5e4ee4	0.8683913
202	0x3da91d16	0.08257501
203	0x3d62d036	0.055374347
204	0x3e04c3ae	0.12965271
205	0x3e9dee7a	0.30846006
206	0x3bbaae6c	0.0056970622
207	0xbe89df8d	-0.26928368
208	0xbec62423	-0.38699445
209	0x3e5483bf	0.20753382
210	0xbf75ec21	-0.9606343
211	0x3d18fe87	0.03735211
212	0xbe0585f3	-0.13039379
213	0x3d18a2aa	0.037264504
214	0xbdc45999	-0.09587402
215	0xbd3214da	-0.043476917
216	0xbe419a70	-0.1890657
217	0xbd10662f	-0.0352537
218	0xbb8e17ea	-0.004336347
219	0xbf44c758	-0.76866674
220	0xbefc28f3	-0.49249992
221	0x3f151245	0.58231
222	0x3e1e8996	0.15482172
223	0xbf053ba3	-0.52044123
224	0x3ccc00a1	0.024902644
225	0xbf091af7	-0.5355677
226	0x3daa14e4	0.08304766
227	0xbf12128b	-0.57059544
228	0xbec755fa	-0.38932782
229	0x3f3ff9c0	0.74990463
230	0xbeb4a11f	-0.35279176
231	0xbf5fa994	-0.8736813
232	0x3f3fecd9	0.74970776
233	0xbe5be256	-0.21473059
234	0x3ccc59ea	0.024945218
235	0xbe832264	-0.25612175
236	0xbf5988f4	-0.849746
237	0x4001a0c4	2.0254374
238	0xbea037fa	-0.31292707
239	0xbd34dcab	-0.044155758
240	0xbea460d0	-0.32105112
241	0x3cc7548c	0.024332307
242	0xbf018b2a	-0.5060297
243	0xbc6e078a	-0.014528165
244	0xbf1fee91	-0.624734
245	0x3fd552f6	1.6665943
246	0xbdcccf0d	-0.10000429
247	0x3fcb116c	1.5864692
248	0x3f981fa3	1.1884655
249	0x3b9af5fa	0.0047290297
250	0x3e5bd759	0.21468867
251	0x3f8fb18b	1.1226057
252	0xbed9aa3a	-0.42512685
253	0xbe397dd0	-0.181144
254	0x3d8c429e	0.06848644
255	0x3d2802d4	0.041018322

out.bias f4 [5]
0	0xbe0994d8	-0.13435686
1	0x3dc0b21a	0.0940897
2	0x3d55236f	0.052035745
3	0xbd8a9081	-0.06765843
4	0xbf8d3d80	-1.1034393
